…
I0726 13:43:55.771868 54378 net.cpp:322] The NetState phase (0) differed from the phase (1) specified by a rule in layer accuracy
I0726 13:43:55.773212 54378 net.cpp:58] Initializing net from parameters: 
name: "DOG100_Resnet101"
state {
  phase: TRAIN
  level: 0
  stage: ""
}
layer {
  name: "data"
  type: "Data"
  top: "data"
  top: "label"
  include {
    phase: TRAIN
  }
  transform_param {
    mirror: true
    crop_size: 224
    mean_file: "/raid/yuanyong/dog_classification/lmdb_0.6/mean.binaryproto"
  }
  data_param {
    source: "/raid/yuanyong/dog_classification/lmdb_0.6/train_lmdb"
    batch_size: 16
    backend: LMDB
  }
}
layer {
  name: "conv1"
  type: "Convolution"
  bottom: "data"
  top: "conv1"
  param {
    lr_mult: 1
    decay_mult: 1
  }
  convolution_param {
    num_output: 64
    bias_term: false
    pad: 3
    kernel_size: 7
    stride: 2
    weight_filler {
      type: "gaussian"
      std: 0.01
    }
  }
}
layer {
  name: "bn_conv1"
  type: "BatchNorm"
  bottom: "conv1"
  top: "conv1"
  batch_norm_param {
    use_global_stats: true
  }
}
layer {
  name: "scale_conv1"
  type: "Scale"
  bottom: "conv1"
  top: "conv1"
  scale_param {
    bias_term: true
  }
}
layer {
  name: "conv1_relu"
  type: "ReLU"
  bottom: "conv1"
  top: "conv1"
}
layer {
  name: "pool1"
  type: "Pooling"
  bottom: "conv1"
  top: "pool1"
  pooling_param {
    pool: MAX
    kernel_size: 3
    stride: 2
  }
}
layer {
  name: "res2a_branch1"
  type: "Convolution"
  bottom: "pool1"
  top: "res2a_branch1"
  param {
    lr_mult: 1
    decay_mult: 1
  }
  convolution_param {
    num_output: 256
    bias_term: false
    pad: 0
    kernel_size: 1
    stride: 1
    weight_filler {
      type: "gaussian"
      std: 0.01
    }
  }
}
layer {
  name: "bn2a_branch1"
  type: "BatchNorm"
  bottom: "res2a_branch1"
  top: "res2a_branch1"
  batch_norm_param {
    use_global_stats: true
  }
}
layer {
  name: "scale2a_branch1"
  type: "Scale"
  bottom: "res2a_branch1"
  top: "res2a_branch1"
  scale_param {
    bias_term: true
  }
}
layer {
  name: "res2a_branch2a"
  type: "Convolution"
  bottom: "pool1"
  top: "res2a_branch2a"
  param {
    lr_mult: 1
    decay_mult: 1
  }
  convolution_param {
    num_output: 64
    bias_term: false
    pad: 0
    kernel_size: 1
    stride: 1
    weight_filler {
      type: "gaussian"
      std: 0.01
    }
  }
}
layer {
  name: "bn2a_branch2a"
  type: "BatchNorm"
  bottom: "res2a_branch2a"
  top: "res2a_branch2a"
  batch_norm_param {
    use_global_stats: true
  }
}
layer {
  name: "scale2a_branch2a"
  type: "Scale"
  bottom: "res2a_branch2a"
  top: "res2a_branch2a"
  scale_param {
    bias_term: true
  }
}
layer {
  name: "res2a_branch2a_relu"
  type: "ReLU"
  bottom: "res2a_branch2a"
  top: "res2a_branch2a"
}
layer {
  name: "res2a_branch2b"
  type: "Convolution"
  bottom: "res2a_branch2a"
  top: "res2a_branch2b"
  param {
    lr_mult: 1
    decay_mult: 1
  }
  convolution_param {
    num_output: 64
    bias_term: false
    pad: 1
    kernel_size: 3
    stride: 1
    weight_filler {
      type: "gaussian"
      std: 0.01
    }
  }
}
layer {
  name: "bn2a_branch2b"
  type: "BatchNorm"
  bottom: "res2a_branch2b"
  top: "res2a_branch2b"
  batch_norm_param {
    use_global_stats: true
  }
}
layer {
  name: "scale2a_branch2b"
  type: "Scale"
  bottom: "res2a_branch2b"
  top: "res2a_branch2b"
  scale_param {
    bias_term: true
  }
}
layer {
  name: "res2a_branch2b_relu"
  type: "ReLU"
  bottom: "res2a_branch2b"
  top: "res2a_branch2b"
}
layer {
  name: "res2a_branch2c"
  type: "Convolution"
  bottom: "res2a_branch2b"
  top: "res2a_branch2c"
  param {
    lr_mult: 1
    decay_mult: 1
  }
  convolution_param {
    num_output: 256
    bias_term: false
    pad: 0
    kernel_size: 1
    stride: 1
    weight_filler {
      type: "gaussian"
      std: 0.01
    }
  }
}
layer {
  name: "bn2a_branch2c"
  type: "BatchNorm"
  bottom: "res2a_branch2c"
  top: "res2a_branch2c"
  batch_norm_param {
    use_global_stats: true
  }
}
layer {
  name: "scale2a_branch2c"
  type: "Scale"
  bottom: "res2a_branch2c"
  top: "res2a_branch2c"
  scale_param {
    bias_term: true
  }
}
layer {
  name: "res2a"
  type: "Eltwise"
  bottom: "res2a_branch1"
  bottom: "res2a_branch2c"
  top: "res2a"
}
layer {
  name: "res2a_relu"
  type: "ReLU"
  bottom: "res2a"
  top: "res2a"
}
layer {
  name: "res2b_branch2a"
  type: "Convolution"
  bottom: "res2a"
  top: "res2b_branch2a"
  param {
    lr_mult: 1
    decay_mult: 1
  }
  convolution_param {
    num_output: 64
    bias_term: false
    pad: 0
    kernel_size: 1
    stride: 1
    weight_filler {
      type: "gaussian"
      std: 0.01
    }
  }
}
layer {
  name: "bn2b_branch2a"
  type: "BatchNorm"
  bottom: "res2b_branch2a"
  top: "res2b_branch2a"
  batch_norm_param {
    use_global_stats: true
  }
}
layer {
  name: "scale2b_branch2a"
  type: "Scale"
  bottom: "res2b_branch2a"
  top: "res2b_branch2a"
  scale_param {
    bias_term: true
  }
}
layer {
  name: "res2b_branch2a_relu"
  type: "ReLU"
  bottom: "res2b_branch2a"
  top: "res2b_branch2a"
}
layer {
  name: "res2b_branch2b"
  type: "Convolution"
  bottom: "res2b_branch2a"
  top: "res2b_branch2b"
  param {
    lr_mult: 1
    decay_mult: 1
  }
  convolution_param {
    num_output: 64
    bias_term: false
    pad: 1
    kernel_size: 3
    stride: 1
    weight_filler {
      type: "gaussian"
      std: 0.01
    }
  }
}
layer {
  name: "bn2b_branch2b"
  type: "BatchNorm"
  bottom: "res2b_branch2b"
  top: "res2b_branch2b"
  batch_norm_param {
    use_global_stats: true
  }
}
layer {
  name: "scale2b_branch2b"
  type: "Scale"
  bottom: "res2b_branch2b"
  top: "res2b_branch2b"
  scale_param {
    bias_term: true
  }
}
layer {
  name: "res2b_branch2b_relu"
  type: "ReLU"
  bottom: "res2b_branch2b"
  top: "res2b_branch2b"
}
layer {
  name: "res2b_branch2c"
  type: "Convolution"
  bottom: "res2b_branch2b"
  top: "res2b_branch2c"
  param {
    lr_mult: 1
    decay_mult: 1
  }
  convolution_param {
    num_output: 256
    bias_term: false
    pad: 0
    kernel_size: 1
    stride: 1
    weight_filler {
      type: "gaussian"
      std: 0.01
    }
  }
}
layer {
  name: "bn2b_branch2c"
  type: "BatchNorm"
  bottom: "res2b_branch2c"
  top: "res2b_branch2c"
  batch_norm_param {
    use_global_stats: true
  }
}
layer {
  name: "scale2b_branch2c"
  type: "Scale"
  bottom: "res2b_branch2c"
  top: "res2b_branch2c"
  scale_param {
    bias_term: true
  }
}
layer {
  name: "res2b"
  type: "Eltwise"
  bottom: "res2a"
  bottom: "res2b_branch2c"
  top: "res2b"
}
layer {
  name: "res2b_relu"
  type: "ReLU"
  bottom: "res2b"
  top: "res2b"
}
layer {
  name: "res2c_branch2a"
  type: "Convolution"
  bottom: "res2b"
  top: "res2c_branch2a"
  param {
    lr_mult: 1
    decay_mult: 1
  }
  convolution_param {
    num_output: 64
    bias_term: false
    pad: 0
    kernel_size: 1
    stride: 1
    weight_filler {
      type: "gaussian"
      std: 0.01
    }
  }
}
layer {
  name: "bn2c_branch2a"
  type: "BatchNorm"
  bottom: "res2c_branch2a"
  top: "res2c_branch2a"
  batch_norm_param {
    use_global_stats: true
  }
}
layer {
  name: "scale2c_branch2a"
  type: "Scale"
  bottom: "res2c_branch2a"
  top: "res2c_branch2a"
  scale_param {
    bias_term: true
  }
}
layer {
  name: "res2c_branch2a_relu"
  type: "ReLU"
  bottom: "res2c_branch2a"
  top: "res2c_branch2a"
}
layer {
  name: "res2c_branch2b"
  type: "Convolution"
  bottom: "res2c_branch2a"
  top: "res2c_branch2b"
  param {
    lr_mult: 1
    decay_mult: 1
  }
  convolution_param {
    num_output: 64
    bias_term: false
    pad: 1
    kernel_size: 3
    stride: 1
    weight_filler {
      type: "gaussian"
      std: 0.01
    }
  }
}
layer {
  name: "bn2c_branch2b"
  type: "BatchNorm"
  bottom: "res2c_branch2b"
  top: "res2c_branch2b"
  batch_norm_param {
    use_global_stats: true
  }
}
layer {
  name: "scale2c_branch2b"
  type: "Scale"
  bottom: "res2c_branch2b"
  top: "res2c_branch2b"
  scale_param {
    bias_term: true
  }
}
layer {
  name: "res2c_branch2b_relu"
  type: "ReLU"
  bottom: "res2c_branch2b"
  top: "res2c_branch2b"
}
layer {
  name: "res2c_branch2c"
  type: "Convolution"
  bottom: "res2c_branch2b"
  top: "res2c_branch2c"
  param {
    lr_mult: 1
    decay_mult: 1
  }
  convolution_param {
    num_output: 256
    bias_term: false
    pad: 0
    kernel_size: 1
    stride: 1
    weight_filler {
      type: "gaussian"
      std: 0.01
    }
  }
}
layer {
  name: "bn2c_branch2c"
  type: "BatchNorm"
  bottom: "res2c_branch2c"
  top: "res2c_branch2c"
  batch_norm_param {
    use_global_stats: true
  }
}
layer {
  name: "scale2c_branch2c"
  type: "Scale"
  bottom: "res2c_branch2c"
  top: "res2c_branch2c"
  scale_param {
    bias_term: true
  }
}
layer {
  name: "res2c"
  type: "Eltwise"
  bottom: "res2b"
  bottom: "res2c_branch2c"
  top: "res2c"
}
layer {
  name: "res2c_relu"
  type: "ReLU"
  bottom: "res2c"
  top: "res2c"
}
layer {
  name: "res3a_branch1"
  type: "Convolution"
  bottom: "res2c"
  top: "res3a_branch1"
  param {
    lr_mult: 1
    decay_mult: 1
  }
  convolution_param {
    num_output: 512
    bias_term: false
    pad: 0
    kernel_size: 1
    stride: 2
    weight_filler {
      type: "gaussian"
      std: 0.01
    }
  }
}
layer {
  name: "bn3a_branch1"
  type: "BatchNorm"
  bottom: "res3a_branch1"
  top: "res3a_branch1"
  batch_norm_param {
    use_global_stats: true
  }
}
layer {
  name: "scale3a_branch1"
  type: "Scale"
  bottom: "res3a_branch1"
  top: "res3a_branch1"
  scale_param {
    bias_term: true
  }
}
layer {
  name: "res3a_branch2a"
  type: "Convolution"
  bottom: "res2c"
  top: "res3a_branch2a"
  param {
    lr_mult: 1
    decay_mult: 1
  }
  convolution_param {
    num_output: 128
    bias_term: false
    pad: 0
    kernel_size: 1
    stride: 2
    weight_filler {
      type: "gaussian"
      std: 0.01
    }
  }
}
layer {
  name: "bn3a_branch2a"
  type: "BatchNorm"
  bottom: "res3a_branch2a"
  top: "res3a_branch2a"
  batch_norm_param {
    use_global_stats: true
  }
}
layer {
  name: "scale3a_branch2a"
  type: "Scale"
  bottom: "res3a_branch2a"
  top: "res3a_branch2a"
  scale_param {
    bias_term: true
  }
}
layer {
  name: "res3a_branch2a_relu"
  type: "ReLU"
  bottom: "res3a_branch2a"
  top: "res3a_branch2a"
}
layer {
  name: "res3a_branch2b"
  type: "Convolution"
  bottom: "res3a_branch2a"
  top: "res3a_branch2b"
  param {
    lr_mult: 1
    decay_mult: 1
  }
  convolution_param {
    num_output: 128
    bias_term: false
    pad: 1
    kernel_size: 3
    stride: 1
    weight_filler {
      type: "gaussian"
      std: 0.01
    }
  }
}
layer {
  name: "bn3a_branch2b"
  type: "BatchNorm"
  bottom: "res3a_branch2b"
  top: "res3a_branch2b"
  batch_norm_param {
    use_global_stats: true
  }
}
layer {
  name: "scale3a_branch2b"
  type: "Scale"
  bottom: "res3a_branch2b"
  top: "res3a_branch2b"
  scale_param {
    bias_term: true
  }
}
layer {
  name: "res3a_branch2b_relu"
  type: "ReLU"
  bottom: "res3a_branch2b"
  top: "res3a_branch2b"
}
layer {
  name: "res3a_branch2c"
  type: "Convolution"
  bottom: "res3a_branch2b"
  top: "res3a_branch2c"
  param {
    lr_mult: 1
    decay_mult: 1
  }
  convolution_param {
    num_output: 512
    bias_term: false
    pad: 0
    kernel_size: 1
    stride: 1
    weight_filler {
      type: "gaussian"
      std: 0.01
    }
  }
}
layer {
  name: "bn3a_branch2c"
  type: "BatchNorm"
  bottom: "res3a_branch2c"
  top: "res3a_branch2c"
  batch_norm_param {
    use_global_stats: true
  }
}
layer {
  name: "scale3a_branch2c"
  type: "Scale"
  bottom: "res3a_branch2c"
  top: "res3a_branch2c"
  scale_param {
    bias_term: true
  }
}
layer {
  name: "res3a"
  type: "Eltwise"
  bottom: "res3a_branch1"
  bottom: "res3a_branch2c"
  top: "res3a"
}
layer {
  name: "res3a_relu"
  type: "ReLU"
  bottom: "res3a"
  top: "res3a"
}
layer {
  name: "res3b1_branch2a"
  type: "Convolution"
  bottom: "res3a"
  top: "res3b1_branch2a"
  param {
    lr_mult: 1
    decay_mult: 1
  }
  convolution_param {
    num_output: 128
    bias_term: false
    pad: 0
    kernel_size: 1
    stride: 1
    weight_filler {
      type: "gaussian"
      std: 0.01
    }
  }
}
layer {
  name: "bn3b1_branch2a"
  type: "BatchNorm"
  bottom: "res3b1_branch2a"
  top: "res3b1_branch2a"
  batch_norm_param {
    use_global_stats: true
  }
}
layer {
  name: "scale3b1_branch2a"
  type: "Scale"
  bottom: "res3b1_branch2a"
  top: "res3b1_branch2a"
  scale_param {
    bias_term: true
  }
}
layer {
  name: "res3b1_branch2a_relu"
  type: "ReLU"
  bottom: "res3b1_branch2a"
  top: "res3b1_branch2a"
}
layer {
  name: "res3b1_branch2b"
  type: "Convolution"
  bottom: "res3b1_branch2a"
  top: "res3b1_branch2b"
  param {
    lr_mult: 1
    decay_mult: 1
  }
  convolution_param {
    num_output: 128
    bias_term: false
    pad: 1
    kernel_size: 3
    stride: 1
    weight_filler {
      type: "gaussian"
      std: 0.01
    }
  }
}
layer {
  name: "bn3b1_branch2b"
  type: "BatchNorm"
  bottom: "res3b1_branch2b"
  top: "res3b1_branch2b"
  batch_norm_param {
    use_global_stats: true
  }
}
layer {
  name: "scale3b1_branch2b"
  type: "Scale"
  bottom: "res3b1_branch2b"
  top: "res3b1_branch2b"
  scale_param {
    bias_term: true
  }
}
layer {
  name: "res3b1_branch2b_relu"
  type: "ReLU"
  bottom: "res3b1_branch2b"
  top: "res3b1_branch2b"
}
layer {
  name: "res3b1_branch2c"
  type: "Convolution"
  bottom: "res3b1_branch2b"
  top: "res3b1_branch2c"
  param {
    lr_mult: 1
    decay_mult: 1
  }
  convolution_param {
    num_output: 512
    bias_term: false
    pad: 0
    kernel_size: 1
    stride: 1
    weight_filler {
      type: "gaussian"
      std: 0.01
    }
  }
}
layer {
  name: "bn3b1_branch2c"
  type: "BatchNorm"
  bottom: "res3b1_branch2c"
  top: "res3b1_branch2c"
  batch_norm_param {
    use_global_stats: true
  }
}
layer {
  name: "scale3b1_branch2c"
  type: "Scale"
  bottom: "res3b1_branch2c"
  top: "res3b1_branch2c"
  scale_param {
    bias_term: true
  }
}
layer {
  name: "res3b1"
  type: "Eltwise"
  bottom: "res3a"
  bottom: "res3b1_branch2c"
  top: "res3b1"
}
layer {
  name: "res3b1_relu"
  type: "ReLU"
  bottom: "res3b1"
  top: "res3b1"
}
layer {
  name: "res3b2_branch2a"
  type: "Convolution"
  bottom: "res3b1"
  top: "res3b2_branch2a"
  param {
    lr_mult: 1
    decay_mult: 1
  }
  convolution_param {
    num_output: 128
    bias_term: false
    pad: 0
    kernel_size: 1
    stride: 1
    weight_filler {
      type: "gaussian"
      std: 0.01
    }
  }
}
layer {
  name: "bn3b2_branch2a"
  type: "BatchNorm"
  bottom: "res3b2_branch2a"
  top: "res3b2_branch2a"
  batch_norm_param {
    use_global_stats: true
  }
}
layer {
  name: "scale3b2_branch2a"
  type: "Scale"
  bottom: "res3b2_branch2a"
  top: "res3b2_branch2a"
  scale_param {
    bias_term: true
  }
}
layer {
  name: "res3b2_branch2a_relu"
  type: "ReLU"
  bottom: "res3b2_branch2a"
  top: "res3b2_branch2a"
}
layer {
  name: "res3b2_branch2b"
  type: "Convolution"
  bottom: "res3b2_branch2a"
  top: "res3b2_branch2b"
  param {
    lr_mult: 1
    decay_mult: 1
  }
  convolution_param {
    num_output: 128
    bias_term: false
    pad: 1
    kernel_size: 3
    stride: 1
    weight_filler {
      type: "gaussian"
      std: 0.01
    }
  }
}
layer {
  name: "bn3b2_branch2b"
  type: "BatchNorm"
  bottom: "res3b2_branch2b"
  top: "res3b2_branch2b"
  batch_norm_param {
    use_global_stats: true
  }
}
layer {
  name: "scale3b2_branch2b"
  type: "Scale"
  bottom: "res3b2_branch2b"
  top: "res3b2_branch2b"
  scale_param {
    bias_term: true
  }
}
layer {
  name: "res3b2_branch2b_relu"
  type: "ReLU"
  bottom: "res3b2_branch2b"
  top: "res3b2_branch2b"
}
layer {
  name: "res3b2_branch2c"
  type: "Convolution"
  bottom: "res3b2_branch2b"
  top: "res3b2_branch2c"
  param {
    lr_mult: 1
    decay_mult: 1
  }
  convolution_param {
    num_output: 512
    bias_term: false
    pad: 0
    kernel_size: 1
    stride: 1
    weight_filler {
      type: "gaussian"
      std: 0.01
    }
  }
}
layer {
  name: "bn3b2_branch2c"
  type: "BatchNorm"
  bottom: "res3b2_branch2c"
  top: "res3b2_branch2c"
  batch_norm_param {
    use_global_stats: true
  }
}
layer {
  name: "scale3b2_branch2c"
  type: "Scale"
  bottom: "res3b2_branch2c"
  top: "res3b2_branch2c"
  scale_param {
    bias_term: true
  }
}
layer {
  name: "res3b2"
  type: "Eltwise"
  bottom: "res3b1"
  bottom: "res3b2_branch2c"
  top: "res3b2"
}
layer {
  name: "res3b2_relu"
  type: "ReLU"
  bottom: "res3b2"
  top: "res3b2"
}
layer {
  name: "res3b3_branch2a"
  type: "Convolution"
  bottom: "res3b2"
  top: "res3b3_branch2a"
  param {
    lr_mult: 1
    decay_mult: 1
  }
  convolution_param {
    num_output: 128
    bias_term: false
    pad: 0
    kernel_size: 1
    stride: 1
    weight_filler {
      type: "gaussian"
      std: 0.01
    }
  }
}
layer {
  name: "bn3b3_branch2a"
  type: "BatchNorm"
  bottom: "res3b3_branch2a"
  top: "res3b3_branch2a"
  batch_norm_param {
    use_global_stats: true
  }
}
layer {
  name: "scale3b3_branch2a"
  type: "Scale"
  bottom: "res3b3_branch2a"
  top: "res3b3_branch2a"
  scale_param {
    bias_term: true
  }
}
layer {
  name: "res3b3_branch2a_relu"
  type: "ReLU"
  bottom: "res3b3_branch2a"
  top: "res3b3_branch2a"
}
layer {
  name: "res3b3_branch2b"
  type: "Convolution"
  bottom: "res3b3_branch2a"
  top: "res3b3_branch2b"
  param {
    lr_mult: 1
    decay_mult: 1
  }
  convolution_param {
    num_output: 128
    bias_term: false
    pad: 1
    kernel_size: 3
    stride: 1
    weight_filler {
      type: "gaussian"
      std: 0.01
    }
  }
}
layer {
  name: "bn3b3_branch2b"
  type: "BatchNorm"
  bottom: "res3b3_branch2b"
  top: "res3b3_branch2b"
  batch_norm_param {
    use_global_stats: true
  }
}
layer {
  name: "scale3b3_branch2b"
  type: "Scale"
  bottom: "res3b3_branch2b"
  top: "res3b3_branch2b"
  scale_param {
    bias_term: true
  }
}
layer {
  name: "res3b3_branch2b_relu"
  type: "ReLU"
  bottom: "res3b3_branch2b"
  top: "res3b3_branch2b"
}
layer {
  name: "res3b3_branch2c"
  type: "Convolution"
  bottom: "res3b3_branch2b"
  top: "res3b3_branch2c"
  param {
    lr_mult: 1
    decay_mult: 1
  }
  convolution_param {
    num_output: 512
    bias_term: false
    pad: 0
    kernel_size: 1
    stride: 1
    weight_filler {
      type: "gaussian"
      std: 0.01
    }
  }
}
layer {
  name: "bn3b3_branch2c"
  type: "BatchNorm"
  bottom: "res3b3_branch2c"
  top: "res3b3_branch2c"
  batch_norm_param {
    use_global_stats: true
  }
}
layer {
  name: "scale3b3_branch2c"
  type: "Scale"
  bottom: "res3b3_branch2c"
  top: "res3b3_branch2c"
  scale_param {
    bias_term: true
  }
}
layer {
  name: "res3b3"
  type: "Eltwise"
  bottom: "res3b2"
  bottom: "res3b3_branch2c"
  top: "res3b3"
}
layer {
  name: "res3b3_relu"
  type: "ReLU"
  bottom: "res3b3"
  top: "res3b3"
}
layer {
  name: "res4a_branch1"
  type: "Convolution"
  bottom: "res3b3"
  top: "res4a_branch1"
  param {
    lr_mult: 1
    decay_mult: 1
  }
  convolution_param {
    num_output: 1024
    bias_term: false
    pad: 0
    kernel_size: 1
    stride: 2
    weight_filler {
      type: "gaussian"
      std: 0.01
    }
  }
}
layer {
  name: "bn4a_branch1"
  type: "BatchNorm"
  bottom: "res4a_branch1"
  top: "res4a_branch1"
  batch_norm_param {
    use_global_stats: true
  }
}
layer {
  name: "scale4a_branch1"
  type: "Scale"
  bottom: "res4a_branch1"
  top: "res4a_branch1"
  scale_param {
    bias_term: true
  }
}
layer {
  name: "res4a_branch2a"
  type: "Convolution"
  bottom: "res3b3"
  top: "res4a_branch2a"
  param {
    lr_mult: 1
    decay_mult: 1
  }
  convolution_param {
    num_output: 256
    bias_term: false
    pad: 0
    kernel_size: 1
    stride: 2
    weight_filler {
      type: "gaussian"
      std: 0.01
    }
  }
}
layer {
  name: "bn4a_branch2a"
  type: "BatchNorm"
  bottom: "res4a_branch2a"
  top: "res4a_branch2a"
  batch_norm_param {
    use_global_stats: true
  }
}
layer {
  name: "scale4a_branch2a"
  type: "Scale"
  bottom: "res4a_branch2a"
  top: "res4a_branch2a"
  scale_param {
    bias_term: true
  }
}
layer {
  name: "res4a_branch2a_relu"
  type: "ReLU"
  bottom: "res4a_branch2a"
  top: "res4a_branch2a"
}
layer {
  name: "res4a_branch2b"
  type: "Convolution"
  bottom: "res4a_branch2a"
  top: "res4a_branch2b"
  param {
    lr_mult: 1
    decay_mult: 1
  }
  convolution_param {
    num_output: 256
    bias_term: false
    pad: 1
    kernel_size: 3
    stride: 1
    weight_filler {
      type: "gaussian"
      std: 0.01
    }
  }
}
layer {
  name: "bn4a_branch2b"
  type: "BatchNorm"
  bottom: "res4a_branch2b"
  top: "res4a_branch2b"
  batch_norm_param {
    use_global_stats: true
  }
}
layer {
  name: "scale4a_branch2b"
  type: "Scale"
  bottom: "res4a_branch2b"
  top: "res4a_branch2b"
  scale_param {
    bias_term: true
  }
}
layer {
  name: "res4a_branch2b_relu"
  type: "ReLU"
  bottom: "res4a_branch2b"
  top: "res4a_branch2b"
}
layer {
  name: "res4a_branch2c"
  type: "Convolution"
  bottom: "res4a_branch2b"
  top: "res4a_branch2c"
  param {
    lr_mult: 1
    decay_mult: 1
  }
  convolution_param {
    num_output: 1024
    bias_term: false
    pad: 0
    kernel_size: 1
    stride: 1
    weight_filler {
      type: "gaussian"
      std: 0.01
    }
  }
}
layer {
  name: "bn4a_branch2c"
  type: "BatchNorm"
  bottom: "res4a_branch2c"
  top: "res4a_branch2c"
  batch_norm_param {
    use_global_stats: true
  }
}
layer {
  name: "scale4a_branch2c"
  type: "Scale"
  bottom: "res4a_branch2c"
  top: "res4a_branch2c"
  scale_param {
    bias_term: true
  }
}
layer {
  name: "res4a"
  type: "Eltwise"
  bottom: "res4a_branch1"
  bottom: "res4a_branch2c"
  top: "res4a"
}
layer {
  name: "res4a_relu"
  type: "ReLU"
  bottom: "res4a"
  top: "res4a"
}
layer {
  name: "res4b1_branch2a"
  type: "Convolution"
  bottom: "res4a"
  top: "res4b1_branch2a"
  param {
    lr_mult: 1
    decay_mult: 1
  }
  convolution_param {
    num_output: 256
    bias_term: false
    pad: 0
    kernel_size: 1
    stride: 1
    weight_filler {
      type: "gaussian"
      std: 0.01
    }
  }
}
layer {
  name: "bn4b1_branch2a"
  type: "BatchNorm"
  bottom: "res4b1_branch2a"
  top: "res4b1_branch2a"
  batch_norm_param {
    use_global_stats: true
  }
}
layer {
  name: "scale4b1_branch2a"
  type: "Scale"
  bottom: "res4b1_branch2a"
  top: "res4b1_branch2a"
  scale_param {
    bias_term: true
  }
}
layer {
  name: "res4b1_branch2a_relu"
  type: "ReLU"
  bottom: "res4b1_branch2a"
  top: "res4b1_branch2a"
}
layer {
  name: "res4b1_branch2b"
  type: "Convolution"
  bottom: "res4b1_branch2a"
  top: "res4b1_branch2b"
  param {
    lr_mult: 1
    decay_mult: 1
  }
  convolution_param {
    num_output: 256
    bias_term: false
    pad: 1
    kernel_size: 3
    stride: 1
    weight_filler {
      type: "gaussian"
      std: 0.01
    }
  }
}
layer {
  name: "bn4b1_branch2b"
  type: "BatchNorm"
  bottom: "res4b1_branch2b"
  top: "res4b1_branch2b"
  batch_norm_param {
    use_global_stats: true
  }
}
layer {
  name: "scale4b1_branch2b"
  type: "Scale"
  bottom: "res4b1_branch2b"
  top: "res4b1_branch2b"
  scale_param {
    bias_term: true
  }
}
layer {
  name: "res4b1_branch2b_relu"
  type: "ReLU"
  bottom: "res4b1_branch2b"
  top: "res4b1_branch2b"
}
layer {
  name: "res4b1_branch2c"
  type: "Convolution"
  bottom: "res4b1_branch2b"
  top: "res4b1_branch2c"
  param {
    lr_mult: 1
    decay_mult: 1
  }
  convolution_param {
    num_output: 1024
    bias_term: false
    pad: 0
    kernel_size: 1
    stride: 1
    weight_filler {
      type: "gaussian"
      std: 0.01
    }
  }
}
layer {
  name: "bn4b1_branch2c"
  type: "BatchNorm"
  bottom: "res4b1_branch2c"
  top: "res4b1_branch2c"
  batch_norm_param {
    use_global_stats: true
  }
}
layer {
  name: "scale4b1_branch2c"
  type: "Scale"
  bottom: "res4b1_branch2c"
  top: "res4b1_branch2c"
  scale_param {
    bias_term: true
  }
}
layer {
  name: "res4b1"
  type: "Eltwise"
  bottom: "res4a"
  bottom: "res4b1_branch2c"
  top: "res4b1"
}
layer {
  name: "res4b1_relu"
  type: "ReLU"
  bottom: "res4b1"
  top: "res4b1"
}
layer {
  name: "res4b2_branch2a"
  type: "Convolution"
  bottom: "res4b1"
  top: "res4b2_branch2a"
  param {
    lr_mult: 1
    decay_mult: 1
  }
  convolution_param {
    num_output: 256
    bias_term: false
    pad: 0
    kernel_size: 1
    stride: 1
    weight_filler {
      type: "gaussian"
      std: 0.01
    }
  }
}
layer {
  name: "bn4b2_branch2a"
  type: "BatchNorm"
  bottom: "res4b2_branch2a"
  top: "res4b2_branch2a"
  batch_norm_param {
    use_global_stats: true
  }
}
layer {
  name: "scale4b2_branch2a"
  type: "Scale"
  bottom: "res4b2_branch2a"
  top: "res4b2_branch2a"
  scale_param {
    bias_term: true
  }
}
layer {
  name: "res4b2_branch2a_relu"
  type: "ReLU"
  bottom: "res4b2_branch2a"
  top: "res4b2_branch2a"
}
layer {
  name: "res4b2_branch2b"
  type: "Convolution"
  bottom: "res4b2_branch2a"
  top: "res4b2_branch2b"
  param {
    lr_mult: 1
    decay_mult: 1
  }
  convolution_param {
    num_output: 256
    bias_term: false
    pad: 1
    kernel_size: 3
    stride: 1
    weight_filler {
      type: "gaussian"
      std: 0.01
    }
  }
}
layer {
  name: "bn4b2_branch2b"
  type: "BatchNorm"
  bottom: "res4b2_branch2b"
  top: "res4b2_branch2b"
  batch_norm_param {
    use_global_stats: true
  }
}
layer {
  name: "scale4b2_branch2b"
  type: "Scale"
  bottom: "res4b2_branch2b"
  top: "res4b2_branch2b"
  scale_param {
    bias_term: true
  }
}
layer {
  name: "res4b2_branch2b_relu"
  type: "ReLU"
  bottom: "res4b2_branch2b"
  top: "res4b2_branch2b"
}
layer {
  name: "res4b2_branch2c"
  type: "Convolution"
  bottom: "res4b2_branch2b"
  top: "res4b2_branch2c"
  param {
    lr_mult: 1
    decay_mult: 1
  }
  convolution_param {
    num_output: 1024
    bias_term: false
    pad: 0
    kernel_size: 1
    stride: 1
    weight_filler {
      type: "gaussian"
      std: 0.01
    }
  }
}
layer {
  name: "bn4b2_branch2c"
  type: "BatchNorm"
  bottom: "res4b2_branch2c"
  top: "res4b2_branch2c"
  batch_norm_param {
    use_global_stats: true
  }
}
layer {
  name: "scale4b2_branch2c"
  type: "Scale"
  bottom: "res4b2_branch2c"
  top: "res4b2_branch2c"
  scale_param {
    bias_term: true
  }
}
layer {
  name: "res4b2"
  type: "Eltwise"
  bottom: "res4b1"
  bottom: "res4b2_branch2c"
  top: "res4b2"
}
layer {
  name: "res4b2_relu"
  type: "ReLU"
  bottom: "res4b2"
  top: "res4b2"
}
layer {
  name: "res4b3_branch2a"
  type: "Convolution"
  bottom: "res4b2"
  top: "res4b3_branch2a"
  param {
    lr_mult: 1
    decay_mult: 1
  }
  convolution_param {
    num_output: 256
    bias_term: false
    pad: 0
    kernel_size: 1
    stride: 1
    weight_filler {
      type: "gaussian"
      std: 0.01
    }
  }
}
layer {
  name: "bn4b3_branch2a"
  type: "BatchNorm"
  bottom: "res4b3_branch2a"
  top: "res4b3_branch2a"
  batch_norm_param {
    use_global_stats: true
  }
}
layer {
  name: "scale4b3_branch2a"
  type: "Scale"
  bottom: "res4b3_branch2a"
  top: "res4b3_branch2a"
  scale_param {
    bias_term: true
  }
}
layer {
  name: "res4b3_branch2a_relu"
  type: "ReLU"
  bottom: "res4b3_branch2a"
  top: "res4b3_branch2a"
}
layer {
  name: "res4b3_branch2b"
  type: "Convolution"
  bottom: "res4b3_branch2a"
  top: "res4b3_branch2b"
  param {
    lr_mult: 1
    decay_mult: 1
  }
  convolution_param {
    num_output: 256
    bias_term: false
    pad: 1
    kernel_size: 3
    stride: 1
    weight_filler {
      type: "gaussian"
      std: 0.01
    }
  }
}
layer {
  name: "bn4b3_branch2b"
  type: "BatchNorm"
  bottom: "res4b3_branch2b"
  top: "res4b3_branch2b"
  batch_norm_param {
    use_global_stats: true
  }
}
layer {
  name: "scale4b3_branch2b"
  type: "Scale"
  bottom: "res4b3_branch2b"
  top: "res4b3_branch2b"
  scale_param {
    bias_term: true
  }
}
layer {
  name: "res4b3_branch2b_relu"
  type: "ReLU"
  bottom: "res4b3_branch2b"
  top: "res4b3_branch2b"
}
layer {
  name: "res4b3_branch2c"
  type: "Convolution"
  bottom: "res4b3_branch2b"
  top: "res4b3_branch2c"
  param {
    lr_mult: 1
    decay_mult: 1
  }
  convolution_param {
    num_output: 1024
    bias_term: false
    pad: 0
    kernel_size: 1
    stride: 1
    weight_filler {
      type: "gaussian"
      std: 0.01
    }
  }
}
layer {
  name: "bn4b3_branch2c"
  type: "BatchNorm"
  bottom: "res4b3_branch2c"
  top: "res4b3_branch2c"
  batch_norm_param {
    use_global_stats: true
  }
}
layer {
  name: "scale4b3_branch2c"
  type: "Scale"
  bottom: "res4b3_branch2c"
  top: "res4b3_branch2c"
  scale_param {
    bias_term: true
  }
}
layer {
  name: "res4b3"
  type: "Eltwise"
  bottom: "res4b2"
  bottom: "res4b3_branch2c"
  top: "res4b3"
}
layer {
  name: "res4b3_relu"
  type: "ReLU"
  bottom: "res4b3"
  top: "res4b3"
}
layer {
  name: "res4b4_branch2a"
  type: "Convolution"
  bottom: "res4b3"
  top: "res4b4_branch2a"
  param {
    lr_mult: 1
    decay_mult: 1
  }
  convolution_param {
    num_output: 256
    bias_term: false
    pad: 0
    kernel_size: 1
    stride: 1
    weight_filler {
      type: "gaussian"
      std: 0.01
    }
  }
}
layer {
  name: "bn4b4_branch2a"
  type: "BatchNorm"
  bottom: "res4b4_branch2a"
  top: "res4b4_branch2a"
  batch_norm_param {
    use_global_stats: true
  }
}
layer {
  name: "scale4b4_branch2a"
  type: "Scale"
  bottom: "res4b4_branch2a"
  top: "res4b4_branch2a"
  scale_param {
    bias_term: true
  }
}
layer {
  name: "res4b4_branch2a_relu"
  type: "ReLU"
  bottom: "res4b4_branch2a"
  top: "res4b4_branch2a"
}
layer {
  name: "res4b4_branch2b"
  type: "Convolution"
  bottom: "res4b4_branch2a"
  top: "res4b4_branch2b"
  param {
    lr_mult: 1
    decay_mult: 1
  }
  convolution_param {
    num_output: 256
    bias_term: false
    pad: 1
    kernel_size: 3
    stride: 1
    weight_filler {
      type: "gaussian"
      std: 0.01
    }
  }
}
layer {
  name: "bn4b4_branch2b"
  type: "BatchNorm"
  bottom: "res4b4_branch2b"
  top: "res4b4_branch2b"
  batch_norm_param {
    use_global_stats: true
  }
}
layer {
  name: "scale4b4_branch2b"
  type: "Scale"
  bottom: "res4b4_branch2b"
  top: "res4b4_branch2b"
  scale_param {
    bias_term: true
  }
}
layer {
  name: "res4b4_branch2b_relu"
  type: "ReLU"
  bottom: "res4b4_branch2b"
  top: "res4b4_branch2b"
}
layer 
I0726 13:43:55.774682 54378 layer_factory.hpp:77] Creating layer data
I0726 13:43:55.775154 54378 net.cpp:100] Creating Layer data
I0726 13:43:55.775167 54378 net.cpp:408] data -> data
I0726 13:43:55.775194 54378 net.cpp:408] data -> label
I0726 13:43:55.775207 54378 data_transformer.cpp:25] Loading mean file from: /raid/yuanyong/dog_classification/lmdb_0.6/mean.binaryproto
I0726 13:43:55.776947 54382 db_lmdb.cpp:35] Opened lmdb /raid/yuanyong/dog_classification/lmdb_0.6/train_lmdb
I0726 13:43:55.794195 54378 data_layer.cpp:41] output data size: 16,3,224,224
I0726 13:43:55.813045 54378 net.cpp:150] Setting up data
I0726 13:43:55.813112 54378 net.cpp:157] Top shape: 16 3 224 224 (2408448)
I0726 13:43:55.813117 54378 net.cpp:157] Top shape: 16 (16)
I0726 13:43:55.813120 54378 net.cpp:165] Memory required for data: 9633856
I0726 13:43:55.813134 54378 layer_factory.hpp:77] Creating layer conv1
I0726 13:43:55.813168 54378 net.cpp:100] Creating Layer conv1
I0726 13:43:55.813184 54378 net.cpp:434] conv1 <- data
I0726 13:43:55.813200 54378 net.cpp:408] conv1 -> conv1
I0726 13:43:55.816172 54383 blocking_queue.cpp:50] Waiting for data
I0726 13:43:56.104733 54378 net.cpp:150] Setting up conv1
I0726 13:43:56.104795 54378 net.cpp:157] Top shape: 16 64 112 112 (12845056)
I0726 13:43:56.104802 54378 net.cpp:165] Memory required for data: 61014080
I0726 13:43:56.104822 54378 layer_factory.hpp:77] Creating layer bn_conv1
I0726 13:43:56.104862 54378 net.cpp:100] Creating Layer bn_conv1
I0726 13:43:56.104867 54378 net.cpp:434] bn_conv1 <- conv1
I0726 13:43:56.104900 54378 net.cpp:395] bn_conv1 -> conv1 (in-place)
I0726 13:43:56.105104 54378 net.cpp:150] Setting up bn_conv1
I0726 13:43:56.105113 54378 net.cpp:157] Top shape: 16 64 112 112 (12845056)
I0726 13:43:56.105116 54378 net.cpp:165] Memory required for data: 112394304
I0726 13:43:56.105128 54378 layer_factory.hpp:77] Creating layer scale_conv1
I0726 13:43:56.105139 54378 net.cpp:100] Creating Layer scale_conv1
I0726 13:43:56.105147 54378 net.cpp:434] scale_conv1 <- conv1
I0726 13:43:56.105152 54378 net.cpp:395] scale_conv1 -> conv1 (in-place)
I0726 13:43:56.105211 54378 layer_factory.hpp:77] Creating layer scale_conv1
I0726 13:43:56.105332 54378 net.cpp:150] Setting up scale_conv1
I0726 13:43:56.105341 54378 net.cpp:157] Top shape: 16 64 112 112 (12845056)
I0726 13:43:56.105345 54378 net.cpp:165] Memory required for data: 163774528
I0726 13:43:56.105355 54378 layer_factory.hpp:77] Creating layer conv1_relu
I0726 13:43:56.105363 54378 net.cpp:100] Creating Layer conv1_relu
I0726 13:43:56.105368 54378 net.cpp:434] conv1_relu <- conv1
I0726 13:43:56.105373 54378 net.cpp:395] conv1_relu -> conv1 (in-place)
I0726 13:43:56.105554 54378 net.cpp:150] Setting up conv1_relu
I0726 13:43:56.105564 54378 net.cpp:157] Top shape: 16 64 112 112 (12845056)
I0726 13:43:56.105567 54378 net.cpp:165] Memory required for data: 215154752
I0726 13:43:56.105571 54378 layer_factory.hpp:77] Creating layer pool1
I0726 13:43:56.105578 54378 net.cpp:100] Creating Layer pool1
I0726 13:43:56.105582 54378 net.cpp:434] pool1 <- conv1
I0726 13:43:56.105587 54378 net.cpp:408] pool1 -> pool1
I0726 13:43:56.105648 54378 net.cpp:150] Setting up pool1
I0726 13:43:56.105655 54378 net.cpp:157] Top shape: 16 64 56 56 (3211264)
I0726 13:43:56.105659 54378 net.cpp:165] Memory required for data: 227999808
I0726 13:43:56.105662 54378 layer_factory.hpp:77] Creating layer pool1_pool1_0_split
I0726 13:43:56.105669 54378 net.cpp:100] Creating Layer pool1_pool1_0_split
I0726 13:43:56.105671 54378 net.cpp:434] pool1_pool1_0_split <- pool1
I0726 13:43:56.105675 54378 net.cpp:408] pool1_pool1_0_split -> pool1_pool1_0_split_0
I0726 13:43:56.105681 54378 net.cpp:408] pool1_pool1_0_split -> pool1_pool1_0_split_1
I0726 13:43:56.105707 54378 net.cpp:150] Setting up pool1_pool1_0_split
I0726 13:43:56.105715 54378 net.cpp:157] Top shape: 16 64 56 56 (3211264)
I0726 13:43:56.105717 54378 net.cpp:157] Top shape: 16 64 56 56 (3211264)
I0726 13:43:56.105720 54378 net.cpp:165] Memory required for data: 253689920
I0726 13:43:56.105723 54378 layer_factory.hpp:77] Creating layer res2a_branch1
I0726 13:43:56.105734 54378 net.cpp:100] Creating Layer res2a_branch1
I0726 13:43:56.105738 54378 net.cpp:434] res2a_branch1 <- pool1_pool1_0_split_0
I0726 13:43:56.105743 54378 net.cpp:408] res2a_branch1 -> res2a_branch1
I0726 13:43:56.106917 54378 net.cpp:150] Setting up res2a_branch1
I0726 13:43:56.106932 54378 net.cpp:157] Top shape: 16 256 56 56 (12845056)
I0726 13:43:56.106936 54378 net.cpp:165] Memory required for data: 305070144
I0726 13:43:56.106959 54378 layer_factory.hpp:77] Creating layer bn2a_branch1
I0726 13:43:56.106967 54378 net.cpp:100] Creating Layer bn2a_branch1
I0726 13:43:56.106971 54378 net.cpp:434] bn2a_branch1 <- res2a_branch1
I0726 13:43:56.106976 54378 net.cpp:395] bn2a_branch1 -> res2a_branch1 (in-place)
I0726 13:43:56.108484 54378 net.cpp:150] Setting up bn2a_branch1
I0726 13:43:56.108500 54378 net.cpp:157] Top shape: 16 256 56 56 (12845056)
I0726 13:43:56.108503 54378 net.cpp:165] Memory required for data: 356450368
I0726 13:43:56.108532 54378 layer_factory.hpp:77] Creating layer scale2a_branch1
I0726 13:43:56.108541 54378 net.cpp:100] Creating Layer scale2a_branch1
I0726 13:43:56.108544 54378 net.cpp:434] scale2a_branch1 <- res2a_branch1
I0726 13:43:56.108567 54378 net.cpp:395] scale2a_branch1 -> res2a_branch1 (in-place)
I0726 13:43:56.108606 54378 layer_factory.hpp:77] Creating layer scale2a_branch1
I0726 13:43:56.108716 54378 net.cpp:150] Setting up scale2a_branch1
I0726 13:43:56.108726 54378 net.cpp:157] Top shape: 16 256 56 56 (12845056)
I0726 13:43:56.108745 54378 net.cpp:165] Memory required for data: 407830592
I0726 13:43:56.108752 54378 layer_factory.hpp:77] Creating layer res2a_branch2a
I0726 13:43:56.108762 54378 net.cpp:100] Creating Layer res2a_branch2a
I0726 13:43:56.108767 54378 net.cpp:434] res2a_branch2a <- pool1_pool1_0_split_1
I0726 13:43:56.108773 54378 net.cpp:408] res2a_branch2a -> res2a_branch2a
I0726 13:43:56.109786 54378 net.cpp:150] Setting up res2a_branch2a
I0726 13:43:56.109802 54378 net.cpp:157] Top shape: 16 64 56 56 (3211264)
I0726 13:43:56.109804 54378 net.cpp:165] Memory required for data: 420675648
I0726 13:43:56.109827 54378 layer_factory.hpp:77] Creating layer bn2a_branch2a
I0726 13:43:56.109853 54378 net.cpp:100] Creating Layer bn2a_branch2a
I0726 13:43:56.109856 54378 net.cpp:434] bn2a_branch2a <- res2a_branch2a
I0726 13:43:56.109861 54378 net.cpp:395] bn2a_branch2a -> res2a_branch2a (in-place)
I0726 13:43:56.110044 54378 net.cpp:150] Setting up bn2a_branch2a
I0726 13:43:56.110051 54378 net.cpp:157] Top shape: 16 64 56 56 (3211264)
I0726 13:43:56.110055 54378 net.cpp:165] Memory required for data: 433520704
I0726 13:43:56.110062 54378 layer_factory.hpp:77] Creating layer scale2a_branch2a
I0726 13:43:56.110070 54378 net.cpp:100] Creating Layer scale2a_branch2a
I0726 13:43:56.110075 54378 net.cpp:434] scale2a_branch2a <- res2a_branch2a
I0726 13:43:56.110080 54378 net.cpp:395] scale2a_branch2a -> res2a_branch2a (in-place)
I0726 13:43:56.110115 54378 layer_factory.hpp:77] Creating layer scale2a_branch2a
I0726 13:43:56.110210 54378 net.cpp:150] Setting up scale2a_branch2a
I0726 13:43:56.110219 54378 net.cpp:157] Top shape: 16 64 56 56 (3211264)
I0726 13:43:56.110221 54378 net.cpp:165] Memory required for data: 446365760
I0726 13:43:56.110230 54378 layer_factory.hpp:77] Creating layer res2a_branch2a_relu
I0726 13:43:56.110239 54378 net.cpp:100] Creating Layer res2a_branch2a_relu
I0726 13:43:56.110244 54378 net.cpp:434] res2a_branch2a_relu <- res2a_branch2a
I0726 13:43:56.110249 54378 net.cpp:395] res2a_branch2a_relu -> res2a_branch2a (in-place)
I0726 13:43:56.110394 54378 net.cpp:150] Setting up res2a_branch2a_relu
I0726 13:43:56.110404 54378 net.cpp:157] Top shape: 16 64 56 56 (3211264)
I0726 13:43:56.110409 54378 net.cpp:165] Memory required for data: 459210816
I0726 13:43:56.110411 54378 layer_factory.hpp:77] Creating layer res2a_branch2b
I0726 13:43:56.110420 54378 net.cpp:100] Creating Layer res2a_branch2b
I0726 13:43:56.110425 54378 net.cpp:434] res2a_branch2b <- res2a_branch2a
I0726 13:43:56.110432 54378 net.cpp:408] res2a_branch2b -> res2a_branch2b
I0726 13:43:56.113276 54378 net.cpp:150] Setting up res2a_branch2b
I0726 13:43:56.113292 54378 net.cpp:157] Top shape: 16 64 56 56 (3211264)
I0726 13:43:56.113296 54378 net.cpp:165] Memory required for data: 472055872
I0726 13:43:56.113319 54378 layer_factory.hpp:77] Creating layer bn2a_branch2b
I0726 13:43:56.113327 54378 net.cpp:100] Creating Layer bn2a_branch2b
I0726 13:43:56.113330 54378 net.cpp:434] bn2a_branch2b <- res2a_branch2b
I0726 13:43:56.113337 54378 net.cpp:395] bn2a_branch2b -> res2a_branch2b (in-place)
I0726 13:43:56.113525 54378 net.cpp:150] Setting up bn2a_branch2b
I0726 13:43:56.113534 54378 net.cpp:157] Top shape: 16 64 56 56 (3211264)
I0726 13:43:56.113538 54378 net.cpp:165] Memory required for data: 484900928
I0726 13:43:56.113545 54378 layer_factory.hpp:77] Creating layer scale2a_branch2b
I0726 13:43:56.113555 54378 net.cpp:100] Creating Layer scale2a_branch2b
I0726 13:43:56.113560 54378 net.cpp:434] scale2a_branch2b <- res2a_branch2b
I0726 13:43:56.113565 54378 net.cpp:395] scale2a_branch2b -> res2a_branch2b (in-place)
I0726 13:43:56.113620 54378 layer_factory.hpp:77] Creating layer scale2a_branch2b
I0726 13:43:56.113721 54378 net.cpp:150] Setting up scale2a_branch2b
I0726 13:43:56.113729 54378 net.cpp:157] Top shape: 16 64 56 56 (3211264)
I0726 13:43:56.113734 54378 net.cpp:165] Memory required for data: 497745984
I0726 13:43:56.113739 54378 layer_factory.hpp:77] Creating layer res2a_branch2b_relu
I0726 13:43:56.113746 54378 net.cpp:100] Creating Layer res2a_branch2b_relu
I0726 13:43:56.113764 54378 net.cpp:434] res2a_branch2b_relu <- res2a_branch2b
I0726 13:43:56.113770 54378 net.cpp:395] res2a_branch2b_relu -> res2a_branch2b (in-place)
I0726 13:43:56.114253 54378 net.cpp:150] Setting up res2a_branch2b_relu
I0726 13:43:56.114266 54378 net.cpp:157] Top shape: 16 64 56 56 (3211264)
I0726 13:43:56.114270 54378 net.cpp:165] Memory required for data: 510591040
I0726 13:43:56.114291 54378 layer_factory.hpp:77] Creating layer res2a_branch2c
I0726 13:43:56.114301 54378 net.cpp:100] Creating Layer res2a_branch2c
I0726 13:43:56.114305 54378 net.cpp:434] res2a_branch2c <- res2a_branch2b
I0726 13:43:56.114311 54378 net.cpp:408] res2a_branch2c -> res2a_branch2c
I0726 13:43:56.115614 54378 net.cpp:150] Setting up res2a_branch2c
I0726 13:43:56.115629 54378 net.cpp:157] Top shape: 16 256 56 56 (12845056)
I0726 13:43:56.115633 54378 net.cpp:165] Memory required for data: 561971264
I0726 13:43:56.115656 54378 layer_factory.hpp:77] Creating layer bn2a_branch2c
I0726 13:43:56.115664 54378 net.cpp:100] Creating Layer bn2a_branch2c
I0726 13:43:56.115667 54378 net.cpp:434] bn2a_branch2c <- res2a_branch2c
I0726 13:43:56.115672 54378 net.cpp:395] bn2a_branch2c -> res2a_branch2c (in-place)
I0726 13:43:56.115859 54378 net.cpp:150] Setting up bn2a_branch2c
I0726 13:43:56.115866 54378 net.cpp:157] Top shape: 16 256 56 56 (12845056)
I0726 13:43:56.115870 54378 net.cpp:165] Memory required for data: 613351488
I0726 13:43:56.115877 54378 layer_factory.hpp:77] Creating layer scale2a_branch2c
I0726 13:43:56.115885 54378 net.cpp:100] Creating Layer scale2a_branch2c
I0726 13:43:56.115888 54378 net.cpp:434] scale2a_branch2c <- res2a_branch2c
I0726 13:43:56.115893 54378 net.cpp:395] scale2a_branch2c -> res2a_branch2c (in-place)
I0726 13:43:56.115928 54378 layer_factory.hpp:77] Creating layer scale2a_branch2c
I0726 13:43:56.116022 54378 net.cpp:150] Setting up scale2a_branch2c
I0726 13:43:56.116030 54378 net.cpp:157] Top shape: 16 256 56 56 (12845056)
I0726 13:43:56.116034 54378 net.cpp:165] Memory required for data: 664731712
I0726 13:43:56.116039 54378 layer_factory.hpp:77] Creating layer res2a
I0726 13:43:56.116053 54378 net.cpp:100] Creating Layer res2a
I0726 13:43:56.116057 54378 net.cpp:434] res2a <- res2a_branch1
I0726 13:43:56.116062 54378 net.cpp:434] res2a <- res2a_branch2c
I0726 13:43:56.116067 54378 net.cpp:408] res2a -> res2a
I0726 13:43:56.116091 54378 net.cpp:150] Setting up res2a
I0726 13:43:56.116098 54378 net.cpp:157] Top shape: 16 256 56 56 (12845056)
I0726 13:43:56.116101 54378 net.cpp:165] Memory required for data: 716111936
I0726 13:43:56.116104 54378 layer_factory.hpp:77] Creating layer res2a_relu
I0726 13:43:56.116111 54378 net.cpp:100] Creating Layer res2a_relu
I0726 13:43:56.116113 54378 net.cpp:434] res2a_relu <- res2a
I0726 13:43:56.116117 54378 net.cpp:395] res2a_relu -> res2a (in-place)
I0726 13:43:56.116284 54378 net.cpp:150] Setting up res2a_relu
I0726 13:43:56.116293 54378 net.cpp:157] Top shape: 16 256 56 56 (12845056)
I0726 13:43:56.116298 54378 net.cpp:165] Memory required for data: 767492160
I0726 13:43:56.116302 54378 layer_factory.hpp:77] Creating layer res2a_res2a_relu_0_split
I0726 13:43:56.116308 54378 net.cpp:100] Creating Layer res2a_res2a_relu_0_split
I0726 13:43:56.116312 54378 net.cpp:434] res2a_res2a_relu_0_split <- res2a
I0726 13:43:56.116317 54378 net.cpp:408] res2a_res2a_relu_0_split -> res2a_res2a_relu_0_split_0
I0726 13:43:56.116322 54378 net.cpp:408] res2a_res2a_relu_0_split -> res2a_res2a_relu_0_split_1
I0726 13:43:56.116359 54378 net.cpp:150] Setting up res2a_res2a_relu_0_split
I0726 13:43:56.116366 54378 net.cpp:157] Top shape: 16 256 56 56 (12845056)
I0726 13:43:56.116370 54378 net.cpp:157] Top shape: 16 256 56 56 (12845056)
I0726 13:43:56.116374 54378 net.cpp:165] Memory required for data: 870252608
I0726 13:43:56.116376 54378 layer_factory.hpp:77] Creating layer res2b_branch2a
I0726 13:43:56.116386 54378 net.cpp:100] Creating Layer res2b_branch2a
I0726 13:43:56.116391 54378 net.cpp:434] res2b_branch2a <- res2a_res2a_relu_0_split_0
I0726 13:43:56.116411 54378 net.cpp:408] res2b_branch2a -> res2b_branch2a
I0726 13:43:56.117663 54378 net.cpp:150] Setting up res2b_branch2a
I0726 13:43:56.117678 54378 net.cpp:157] Top shape: 16 64 56 56 (3211264)
I0726 13:43:56.117682 54378 net.cpp:165] Memory required for data: 883097664
I0726 13:43:56.117704 54378 layer_factory.hpp:77] Creating layer bn2b_branch2a
I0726 13:43:56.117713 54378 net.cpp:100] Creating Layer bn2b_branch2a
I0726 13:43:56.117717 54378 net.cpp:434] bn2b_branch2a <- res2b_branch2a
I0726 13:43:56.117722 54378 net.cpp:395] bn2b_branch2a -> res2b_branch2a (in-place)
I0726 13:43:56.117924 54378 net.cpp:150] Setting up bn2b_branch2a
I0726 13:43:56.117933 54378 net.cpp:157] Top shape: 16 64 56 56 (3211264)
I0726 13:43:56.117935 54378 net.cpp:165] Memory required for data: 895942720
I0726 13:43:56.117949 54378 layer_factory.hpp:77] Creating layer scale2b_branch2a
I0726 13:43:56.117957 54378 net.cpp:100] Creating Layer scale2b_branch2a
I0726 13:43:56.117961 54378 net.cpp:434] scale2b_branch2a <- res2b_branch2a
I0726 13:43:56.117966 54378 net.cpp:395] scale2b_branch2a -> res2b_branch2a (in-place)
I0726 13:43:56.118005 54378 layer_factory.hpp:77] Creating layer scale2b_branch2a
I0726 13:43:56.118110 54378 net.cpp:150] Setting up scale2b_branch2a
I0726 13:43:56.118119 54378 net.cpp:157] Top shape: 16 64 56 56 (3211264)
I0726 13:43:56.118121 54378 net.cpp:165] Memory required for data: 908787776
I0726 13:43:56.118127 54378 layer_factory.hpp:77] Creating layer res2b_branch2a_relu
I0726 13:43:56.118132 54378 net.cpp:100] Creating Layer res2b_branch2a_relu
I0726 13:43:56.118135 54378 net.cpp:434] res2b_branch2a_relu <- res2b_branch2a
I0726 13:43:56.118139 54378 net.cpp:395] res2b_branch2a_relu -> res2b_branch2a (in-place)
I0726 13:43:56.118294 54378 net.cpp:150] Setting up res2b_branch2a_relu
I0726 13:43:56.118304 54378 net.cpp:157] Top shape: 16 64 56 56 (3211264)
I0726 13:43:56.118306 54378 net.cpp:165] Memory required for data: 921632832
I0726 13:43:56.118310 54378 layer_factory.hpp:77] Creating layer res2b_branch2b
I0726 13:43:56.118320 54378 net.cpp:100] Creating Layer res2b_branch2b
I0726 13:43:56.118325 54378 net.cpp:434] res2b_branch2b <- res2b_branch2a
I0726 13:43:56.118332 54378 net.cpp:408] res2b_branch2b -> res2b_branch2b
I0726 13:43:56.120244 54378 net.cpp:150] Setting up res2b_branch2b
I0726 13:43:56.120259 54378 net.cpp:157] Top shape: 16 64 56 56 (3211264)
I0726 13:43:56.120261 54378 net.cpp:165] Memory required for data: 934477888
I0726 13:43:56.120285 54378 layer_factory.hpp:77] Creating layer bn2b_branch2b
I0726 13:43:56.120293 54378 net.cpp:100] Creating Layer bn2b_branch2b
I0726 13:43:56.120297 54378 net.cpp:434] bn2b_branch2b <- res2b_branch2b
I0726 13:43:56.120303 54378 net.cpp:395] bn2b_branch2b -> res2b_branch2b (in-place)
I0726 13:43:56.120503 54378 net.cpp:150] Setting up bn2b_branch2b
I0726 13:43:56.120512 54378 net.cpp:157] Top shape: 16 64 56 56 (3211264)
I0726 13:43:56.120515 54378 net.cpp:165] Memory required for data: 947322944
I0726 13:43:56.120523 54378 layer_factory.hpp:77] Creating layer scale2b_branch2b
I0726 13:43:56.120530 54378 net.cpp:100] Creating Layer scale2b_branch2b
I0726 13:43:56.120534 54378 net.cpp:434] scale2b_branch2b <- res2b_branch2b
I0726 13:43:56.120539 54378 net.cpp:395] scale2b_branch2b -> res2b_branch2b (in-place)
I0726 13:43:56.120579 54378 layer_factory.hpp:77] Creating layer scale2b_branch2b
I0726 13:43:56.120692 54378 net.cpp:150] Setting up scale2b_branch2b
I0726 13:43:56.120699 54378 net.cpp:157] Top shape: 16 64 56 56 (3211264)
I0726 13:43:56.120702 54378 net.cpp:165] Memory required for data: 960168000
I0726 13:43:56.120708 54378 layer_factory.hpp:77] Creating layer res2b_branch2b_relu
I0726 13:43:56.120713 54378 net.cpp:100] Creating Layer res2b_branch2b_relu
I0726 13:43:56.120717 54378 net.cpp:434] res2b_branch2b_relu <- res2b_branch2b
I0726 13:43:56.120723 54378 net.cpp:395] res2b_branch2b_relu -> res2b_branch2b (in-place)
I0726 13:43:56.120873 54378 net.cpp:150] Setting up res2b_branch2b_relu
I0726 13:43:56.120882 54378 net.cpp:157] Top shape: 16 64 56 56 (3211264)
I0726 13:43:56.120898 54378 net.cpp:165] Memory required for data: 973013056
I0726 13:43:56.120903 54378 layer_factory.hpp:77] Creating layer res2b_branch2c
I0726 13:43:56.120916 54378 net.cpp:100] Creating Layer res2b_branch2c
I0726 13:43:56.120923 54378 net.cpp:434] res2b_branch2c <- res2b_branch2b
I0726 13:43:56.120929 54378 net.cpp:408] res2b_branch2c -> res2b_branch2c
I0726 13:43:56.122195 54378 net.cpp:150] Setting up res2b_branch2c
I0726 13:43:56.122210 54378 net.cpp:157] Top shape: 16 256 56 56 (12845056)
I0726 13:43:56.122212 54378 net.cpp:165] Memory required for data: 1024393280
I0726 13:43:56.122236 54378 layer_factory.hpp:77] Creating layer bn2b_branch2c
I0726 13:43:56.122244 54378 net.cpp:100] Creating Layer bn2b_branch2c
I0726 13:43:56.122247 54378 net.cpp:434] bn2b_branch2c <- res2b_branch2c
I0726 13:43:56.122252 54378 net.cpp:395] bn2b_branch2c -> res2b_branch2c (in-place)
I0726 13:43:56.122447 54378 net.cpp:150] Setting up bn2b_branch2c
I0726 13:43:56.122455 54378 net.cpp:157] Top shape: 16 256 56 56 (12845056)
I0726 13:43:56.122458 54378 net.cpp:165] Memory required for data: 1075773504
I0726 13:43:56.122465 54378 layer_factory.hpp:77] Creating layer scale2b_branch2c
I0726 13:43:56.122473 54378 net.cpp:100] Creating Layer scale2b_branch2c
I0726 13:43:56.122475 54378 net.cpp:434] scale2b_branch2c <- res2b_branch2c
I0726 13:43:56.122483 54378 net.cpp:395] scale2b_branch2c -> res2b_branch2c (in-place)
I0726 13:43:56.122517 54378 layer_factory.hpp:77] Creating layer scale2b_branch2c
I0726 13:43:56.122617 54378 net.cpp:150] Setting up scale2b_branch2c
I0726 13:43:56.122625 54378 net.cpp:157] Top shape: 16 256 56 56 (12845056)
I0726 13:43:56.122629 54378 net.cpp:165] Memory required for data: 1127153728
I0726 13:43:56.122634 54378 layer_factory.hpp:77] Creating layer res2b
I0726 13:43:56.122640 54378 net.cpp:100] Creating Layer res2b
I0726 13:43:56.122645 54378 net.cpp:434] res2b <- res2a_res2a_relu_0_split_1
I0726 13:43:56.122649 54378 net.cpp:434] res2b <- res2b_branch2c
I0726 13:43:56.122653 54378 net.cpp:408] res2b -> res2b
I0726 13:43:56.122684 54378 net.cpp:150] Setting up res2b
I0726 13:43:56.122690 54378 net.cpp:157] Top shape: 16 256 56 56 (12845056)
I0726 13:43:56.122694 54378 net.cpp:165] Memory required for data: 1178533952
I0726 13:43:56.122696 54378 layer_factory.hpp:77] Creating layer res2b_relu
I0726 13:43:56.122704 54378 net.cpp:100] Creating Layer res2b_relu
I0726 13:43:56.122706 54378 net.cpp:434] res2b_relu <- res2b
I0726 13:43:56.122710 54378 net.cpp:395] res2b_relu -> res2b (in-place)
I0726 13:43:56.122867 54378 net.cpp:150] Setting up res2b_relu
I0726 13:43:56.122876 54378 net.cpp:157] Top shape: 16 256 56 56 (12845056)
I0726 13:43:56.122880 54378 net.cpp:165] Memory required for data: 1229914176
I0726 13:43:56.122884 54378 layer_factory.hpp:77] Creating layer res2b_res2b_relu_0_split
I0726 13:43:56.122889 54378 net.cpp:100] Creating Layer res2b_res2b_relu_0_split
I0726 13:43:56.122892 54378 net.cpp:434] res2b_res2b_relu_0_split <- res2b
I0726 13:43:56.122897 54378 net.cpp:408] res2b_res2b_relu_0_split -> res2b_res2b_relu_0_split_0
I0726 13:43:56.122902 54378 net.cpp:408] res2b_res2b_relu_0_split -> res2b_res2b_relu_0_split_1
I0726 13:43:56.122939 54378 net.cpp:150] Setting up res2b_res2b_relu_0_split
I0726 13:43:56.122946 54378 net.cpp:157] Top shape: 16 256 56 56 (12845056)
I0726 13:43:56.122951 54378 net.cpp:157] Top shape: 16 256 56 56 (12845056)
I0726 13:43:56.122953 54378 net.cpp:165] Memory required for data: 1332674624
I0726 13:43:56.122956 54378 layer_factory.hpp:77] Creating layer res2c_branch2a
I0726 13:43:56.122966 54378 net.cpp:100] Creating Layer res2c_branch2a
I0726 13:43:56.122970 54378 net.cpp:434] res2c_branch2a <- res2b_res2b_relu_0_split_0
I0726 13:43:56.122977 54378 net.cpp:408] res2c_branch2a -> res2c_branch2a
I0726 13:43:56.124374 54378 net.cpp:150] Setting up res2c_branch2a
I0726 13:43:56.124389 54378 net.cpp:157] Top shape: 16 64 56 56 (3211264)
I0726 13:43:56.124393 54378 net.cpp:165] Memory required for data: 1345519680
I0726 13:43:56.124428 54378 layer_factory.hpp:77] Creating layer bn2c_branch2a
I0726 13:43:56.124454 54378 net.cpp:100] Creating Layer bn2c_branch2a
I0726 13:43:56.124457 54378 net.cpp:434] bn2c_branch2a <- res2c_branch2a
I0726 13:43:56.124464 54378 net.cpp:395] bn2c_branch2a -> res2c_branch2a (in-place)
I0726 13:43:56.124650 54378 net.cpp:150] Setting up bn2c_branch2a
I0726 13:43:56.124660 54378 net.cpp:157] Top shape: 16 64 56 56 (3211264)
I0726 13:43:56.124662 54378 net.cpp:165] Memory required for data: 1358364736
I0726 13:43:56.124671 54378 layer_factory.hpp:77] Creating layer scale2c_branch2a
I0726 13:43:56.124678 54378 net.cpp:100] Creating Layer scale2c_branch2a
I0726 13:43:56.124681 54378 net.cpp:434] scale2c_branch2a <- res2c_branch2a
I0726 13:43:56.124686 54378 net.cpp:395] scale2c_branch2a -> res2c_branch2a (in-place)
I0726 13:43:56.124723 54378 layer_factory.hpp:77] Creating layer scale2c_branch2a
I0726 13:43:56.124830 54378 net.cpp:150] Setting up scale2c_branch2a
I0726 13:43:56.124838 54378 net.cpp:157] Top shape: 16 64 56 56 (3211264)
I0726 13:43:56.124841 54378 net.cpp:165] Memory required for data: 1371209792
I0726 13:43:56.124847 54378 layer_factory.hpp:77] Creating layer res2c_branch2a_relu
I0726 13:43:56.124852 54378 net.cpp:100] Creating Layer res2c_branch2a_relu
I0726 13:43:56.124855 54378 net.cpp:434] res2c_branch2a_relu <- res2c_branch2a
I0726 13:43:56.124861 54378 net.cpp:395] res2c_branch2a_relu -> res2c_branch2a (in-place)
I0726 13:43:56.125020 54378 net.cpp:150] Setting up res2c_branch2a_relu
I0726 13:43:56.125030 54378 net.cpp:157] Top shape: 16 64 56 56 (3211264)
I0726 13:43:56.125033 54378 net.cpp:165] Memory required for data: 1384054848
I0726 13:43:56.125036 54378 layer_factory.hpp:77] Creating layer res2c_branch2b
I0726 13:43:56.125046 54378 net.cpp:100] Creating Layer res2c_branch2b
I0726 13:43:56.125051 54378 net.cpp:434] res2c_branch2b <- res2c_branch2a
I0726 13:43:56.125058 54378 net.cpp:408] res2c_branch2b -> res2c_branch2b
I0726 13:43:56.126762 54378 net.cpp:150] Setting up res2c_branch2b
I0726 13:43:56.126777 54378 net.cpp:157] Top shape: 16 64 56 56 (3211264)
I0726 13:43:56.126780 54378 net.cpp:165] Memory required for data: 1396899904
I0726 13:43:56.126803 54378 layer_factory.hpp:77] Creating layer bn2c_branch2b
I0726 13:43:56.126811 54378 net.cpp:100] Creating Layer bn2c_branch2b
I0726 13:43:56.126816 54378 net.cpp:434] bn2c_branch2b <- res2c_branch2b
I0726 13:43:56.126819 54378 net.cpp:395] bn2c_branch2b -> res2c_branch2b (in-place)
I0726 13:43:56.127022 54378 net.cpp:150] Setting up bn2c_branch2b
I0726 13:43:56.127032 54378 net.cpp:157] Top shape: 16 64 56 56 (3211264)
I0726 13:43:56.127034 54378 net.cpp:165] Memory required for data: 1409744960
I0726 13:43:56.127040 54378 layer_factory.hpp:77] Creating layer scale2c_branch2b
I0726 13:43:56.127048 54378 net.cpp:100] Creating Layer scale2c_branch2b
I0726 13:43:56.127053 54378 net.cpp:434] scale2c_branch2b <- res2c_branch2b
I0726 13:43:56.127058 54378 net.cpp:395] scale2c_branch2b -> res2c_branch2b (in-place)
I0726 13:43:56.127097 54378 layer_factory.hpp:77] Creating layer scale2c_branch2b
I0726 13:43:56.127207 54378 net.cpp:150] Setting up scale2c_branch2b
I0726 13:43:56.127215 54378 net.cpp:157] Top shape: 16 64 56 56 (3211264)
I0726 13:43:56.127218 54378 net.cpp:165] Memory required for data: 1422590016
I0726 13:43:56.127223 54378 layer_factory.hpp:77] Creating layer res2c_branch2b_relu
I0726 13:43:56.127230 54378 net.cpp:100] Creating Layer res2c_branch2b_relu
I0726 13:43:56.127241 54378 net.cpp:434] res2c_branch2b_relu <- res2c_branch2b
I0726 13:43:56.127248 54378 net.cpp:395] res2c_branch2b_relu -> res2c_branch2b (in-place)
I0726 13:43:56.127737 54378 net.cpp:150] Setting up res2c_branch2b_relu
I0726 13:43:56.127774 54378 net.cpp:157] Top shape: 16 64 56 56 (3211264)
I0726 13:43:56.127779 54378 net.cpp:165] Memory required for data: 1435435072
I0726 13:43:56.127781 54378 layer_factory.hpp:77] Creating layer res2c_branch2c
I0726 13:43:56.127789 54378 net.cpp:100] Creating Layer res2c_branch2c
I0726 13:43:56.127794 54378 net.cpp:434] res2c_branch2c <- res2c_branch2b
I0726 13:43:56.127828 54378 net.cpp:408] res2c_branch2c -> res2c_branch2c
I0726 13:43:56.129148 54378 net.cpp:150] Setting up res2c_branch2c
I0726 13:43:56.129163 54378 net.cpp:157] Top shape: 16 256 56 56 (12845056)
I0726 13:43:56.129165 54378 net.cpp:165] Memory required for data: 1486815296
I0726 13:43:56.129189 54378 layer_factory.hpp:77] Creating layer bn2c_branch2c
I0726 13:43:56.129196 54378 net.cpp:100] Creating Layer bn2c_branch2c
I0726 13:43:56.129199 54378 net.cpp:434] bn2c_branch2c <- res2c_branch2c
I0726 13:43:56.129204 54378 net.cpp:395] bn2c_branch2c -> res2c_branch2c (in-place)
I0726 13:43:56.129402 54378 net.cpp:150] Setting up bn2c_branch2c
I0726 13:43:56.129410 54378 net.cpp:157] Top shape: 16 256 56 56 (12845056)
I0726 13:43:56.129415 54378 net.cpp:165] Memory required for data: 1538195520
I0726 13:43:56.129421 54378 layer_factory.hpp:77] Creating layer scale2c_branch2c
I0726 13:43:56.129428 54378 net.cpp:100] Creating Layer scale2c_branch2c
I0726 13:43:56.129432 54378 net.cpp:434] scale2c_branch2c <- res2c_branch2c
I0726 13:43:56.129438 54378 net.cpp:395] scale2c_branch2c -> res2c_branch2c (in-place)
I0726 13:43:56.129473 54378 layer_factory.hpp:77] Creating layer scale2c_branch2c
I0726 13:43:56.129573 54378 net.cpp:150] Setting up scale2c_branch2c
I0726 13:43:56.129581 54378 net.cpp:157] Top shape: 16 256 56 56 (12845056)
I0726 13:43:56.129585 54378 net.cpp:165] Memory required for data: 1589575744
I0726 13:43:56.129604 54378 layer_factory.hpp:77] Creating layer res2c
I0726 13:43:56.129611 54378 net.cpp:100] Creating Layer res2c
I0726 13:43:56.129616 54378 net.cpp:434] res2c <- res2b_res2b_relu_0_split_1
I0726 13:43:56.129619 54378 net.cpp:434] res2c <- res2c_branch2c
I0726 13:43:56.129624 54378 net.cpp:408] res2c -> res2c
I0726 13:43:56.129645 54378 net.cpp:150] Setting up res2c
I0726 13:43:56.129652 54378 net.cpp:157] Top shape: 16 256 56 56 (12845056)
I0726 13:43:56.129655 54378 net.cpp:165] Memory required for data: 1640955968
I0726 13:43:56.129658 54378 layer_factory.hpp:77] Creating layer res2c_relu
I0726 13:43:56.129665 54378 net.cpp:100] Creating Layer res2c_relu
I0726 13:43:56.129668 54378 net.cpp:434] res2c_relu <- res2c
I0726 13:43:56.129673 54378 net.cpp:395] res2c_relu -> res2c (in-place)
I0726 13:43:56.129832 54378 net.cpp:150] Setting up res2c_relu
I0726 13:43:56.129840 54378 net.cpp:157] Top shape: 16 256 56 56 (12845056)
I0726 13:43:56.129843 54378 net.cpp:165] Memory required for data: 1692336192
I0726 13:43:56.129848 54378 layer_factory.hpp:77] Creating layer res2c_res2c_relu_0_split
I0726 13:43:56.129853 54378 net.cpp:100] Creating Layer res2c_res2c_relu_0_split
I0726 13:43:56.129858 54378 net.cpp:434] res2c_res2c_relu_0_split <- res2c
I0726 13:43:56.129863 54378 net.cpp:408] res2c_res2c_relu_0_split -> res2c_res2c_relu_0_split_0
I0726 13:43:56.129868 54378 net.cpp:408] res2c_res2c_relu_0_split -> res2c_res2c_relu_0_split_1
I0726 13:43:56.129909 54378 net.cpp:150] Setting up res2c_res2c_relu_0_split
I0726 13:43:56.129914 54378 net.cpp:157] Top shape: 16 256 56 56 (12845056)
I0726 13:43:56.129918 54378 net.cpp:157] Top shape: 16 256 56 56 (12845056)
I0726 13:43:56.129921 54378 net.cpp:165] Memory required for data: 1795096640
I0726 13:43:56.129925 54378 layer_factory.hpp:77] Creating layer res3a_branch1
I0726 13:43:56.129938 54378 net.cpp:100] Creating Layer res3a_branch1
I0726 13:43:56.129943 54378 net.cpp:434] res3a_branch1 <- res2c_res2c_relu_0_split_0
I0726 13:43:56.129948 54378 net.cpp:408] res3a_branch1 -> res3a_branch1
I0726 13:43:56.134264 54378 net.cpp:150] Setting up res3a_branch1
I0726 13:43:56.134280 54378 net.cpp:157] Top shape: 16 512 28 28 (6422528)
I0726 13:43:56.134284 54378 net.cpp:165] Memory required for data: 1820786752
I0726 13:43:56.134307 54378 layer_factory.hpp:77] Creating layer bn3a_branch1
I0726 13:43:56.134315 54378 net.cpp:100] Creating Layer bn3a_branch1
I0726 13:43:56.134320 54378 net.cpp:434] bn3a_branch1 <- res3a_branch1
I0726 13:43:56.134323 54378 net.cpp:395] bn3a_branch1 -> res3a_branch1 (in-place)
I0726 13:43:56.135932 54378 net.cpp:150] Setting up bn3a_branch1
I0726 13:43:56.135948 54378 net.cpp:157] Top shape: 16 512 28 28 (6422528)
I0726 13:43:56.135951 54378 net.cpp:165] Memory required for data: 1846476864
I0726 13:43:56.135980 54378 layer_factory.hpp:77] Creating layer scale3a_branch1
I0726 13:43:56.136004 54378 net.cpp:100] Creating Layer scale3a_branch1
I0726 13:43:56.136008 54378 net.cpp:434] scale3a_branch1 <- res3a_branch1
I0726 13:43:56.136015 54378 net.cpp:395] scale3a_branch1 -> res3a_branch1 (in-place)
I0726 13:43:56.136073 54378 layer_factory.hpp:77] Creating layer scale3a_branch1
I0726 13:43:56.136193 54378 net.cpp:150] Setting up scale3a_branch1
I0726 13:43:56.136200 54378 net.cpp:157] Top shape: 16 512 28 28 (6422528)
I0726 13:43:56.136204 54378 net.cpp:165] Memory required for data: 1872166976
I0726 13:43:56.136209 54378 layer_factory.hpp:77] Creating layer res3a_branch2a
I0726 13:43:56.136219 54378 net.cpp:100] Creating Layer res3a_branch2a
I0726 13:43:56.136225 54378 net.cpp:434] res3a_branch2a <- res2c_res2c_relu_0_split_1
I0726 13:43:56.136232 54378 net.cpp:408] res3a_branch2a -> res3a_branch2a
I0726 13:43:56.138208 54378 net.cpp:150] Setting up res3a_branch2a
I0726 13:43:56.138223 54378 net.cpp:157] Top shape: 16 128 28 28 (1605632)
I0726 13:43:56.138226 54378 net.cpp:165] Memory required for data: 1878589504
I0726 13:43:56.138249 54378 layer_factory.hpp:77] Creating layer bn3a_branch2a
I0726 13:43:56.138258 54378 net.cpp:100] Creating Layer bn3a_branch2a
I0726 13:43:56.138262 54378 net.cpp:434] bn3a_branch2a <- res3a_branch2a
I0726 13:43:56.138267 54378 net.cpp:395] bn3a_branch2a -> res3a_branch2a (in-place)
I0726 13:43:56.138468 54378 net.cpp:150] Setting up bn3a_branch2a
I0726 13:43:56.138476 54378 net.cpp:157] Top shape: 16 128 28 28 (1605632)
I0726 13:43:56.138479 54378 net.cpp:165] Memory required for data: 1885012032
I0726 13:43:56.138486 54378 layer_factory.hpp:77] Creating layer scale3a_branch2a
I0726 13:43:56.138499 54378 net.cpp:100] Creating Layer scale3a_branch2a
I0726 13:43:56.138502 54378 net.cpp:434] scale3a_branch2a <- res3a_branch2a
I0726 13:43:56.138507 54378 net.cpp:395] scale3a_branch2a -> res3a_branch2a (in-place)
I0726 13:43:56.138546 54378 layer_factory.hpp:77] Creating layer scale3a_branch2a
I0726 13:43:56.138644 54378 net.cpp:150] Setting up scale3a_branch2a
I0726 13:43:56.138653 54378 net.cpp:157] Top shape: 16 128 28 28 (1605632)
I0726 13:43:56.138655 54378 net.cpp:165] Memory required for data: 1891434560
I0726 13:43:56.138660 54378 layer_factory.hpp:77] Creating layer res3a_branch2a_relu
I0726 13:43:56.138667 54378 net.cpp:100] Creating Layer res3a_branch2a_relu
I0726 13:43:56.138672 54378 net.cpp:434] res3a_branch2a_relu <- res3a_branch2a
I0726 13:43:56.138676 54378 net.cpp:395] res3a_branch2a_relu -> res3a_branch2a (in-place)
I0726 13:43:56.138834 54378 net.cpp:150] Setting up res3a_branch2a_relu
I0726 13:43:56.138844 54378 net.cpp:157] Top shape: 16 128 28 28 (1605632)
I0726 13:43:56.138846 54378 net.cpp:165] Memory required for data: 1897857088
I0726 13:43:56.138850 54378 layer_factory.hpp:77] Creating layer res3a_branch2b
I0726 13:43:56.138862 54378 net.cpp:100] Creating Layer res3a_branch2b
I0726 13:43:56.138867 54378 net.cpp:434] res3a_branch2b <- res3a_branch2a
I0726 13:43:56.138872 54378 net.cpp:408] res3a_branch2b -> res3a_branch2b
I0726 13:43:56.143404 54378 net.cpp:150] Setting up res3a_branch2b
I0726 13:43:56.143420 54378 net.cpp:157] Top shape: 16 128 28 28 (1605632)
I0726 13:43:56.143424 54378 net.cpp:165] Memory required for data: 1904279616
I0726 13:43:56.143447 54378 layer_factory.hpp:77] Creating layer bn3a_branch2b
I0726 13:43:56.143457 54378 net.cpp:100] Creating Layer bn3a_branch2b
I0726 13:43:56.143461 54378 net.cpp:434] bn3a_branch2b <- res3a_branch2b
I0726 13:43:56.143466 54378 net.cpp:395] bn3a_branch2b -> res3a_branch2b (in-place)
I0726 13:43:56.143707 54378 net.cpp:150] Setting up bn3a_branch2b
I0726 13:43:56.143715 54378 net.cpp:157] Top shape: 16 128 28 28 (1605632)
I0726 13:43:56.143719 54378 net.cpp:165] Memory required for data: 1910702144
I0726 13:43:56.143744 54378 layer_factory.hpp:77] Creating layer scale3a_branch2b
I0726 13:43:56.143751 54378 net.cpp:100] Creating Layer scale3a_branch2b
I0726 13:43:56.143779 54378 net.cpp:434] scale3a_branch2b <- res3a_branch2b
I0726 13:43:56.143785 54378 net.cpp:395] scale3a_branch2b -> res3a_branch2b (in-place)
I0726 13:43:56.143831 54378 layer_factory.hpp:77] Creating layer scale3a_branch2b
I0726 13:43:56.143954 54378 net.cpp:150] Setting up scale3a_branch2b
I0726 13:43:56.143965 54378 net.cpp:157] Top shape: 16 128 28 28 (1605632)
I0726 13:43:56.143967 54378 net.cpp:165] Memory required for data: 1917124672
I0726 13:43:56.143973 54378 layer_factory.hpp:77] Creating layer res3a_branch2b_relu
I0726 13:43:56.143980 54378 net.cpp:100] Creating Layer res3a_branch2b_relu
I0726 13:43:56.143985 54378 net.cpp:434] res3a_branch2b_relu <- res3a_branch2b
I0726 13:43:56.143988 54378 net.cpp:395] res3a_branch2b_relu -> res3a_branch2b (in-place)
I0726 13:43:56.144183 54378 net.cpp:150] Setting up res3a_branch2b_relu
I0726 13:43:56.144194 54378 net.cpp:157] Top shape: 16 128 28 28 (1605632)
I0726 13:43:56.144197 54378 net.cpp:165] Memory required for data: 1923547200
I0726 13:43:56.144201 54378 layer_factory.hpp:77] Creating layer res3a_branch2c
I0726 13:43:56.144212 54378 net.cpp:100] Creating Layer res3a_branch2c
I0726 13:43:56.144217 54378 net.cpp:434] res3a_branch2c <- res3a_branch2b
I0726 13:43:56.144222 54378 net.cpp:408] res3a_branch2c -> res3a_branch2c
I0726 13:43:56.146641 54378 net.cpp:150] Setting up res3a_branch2c
I0726 13:43:56.146656 54378 net.cpp:157] Top shape: 16 512 28 28 (6422528)
I0726 13:43:56.146659 54378 net.cpp:165] Memory required for data: 1949237312
I0726 13:43:56.146682 54378 layer_factory.hpp:77] Creating layer bn3a_branch2c
I0726 13:43:56.146702 54378 net.cpp:100] Creating Layer bn3a_branch2c
I0726 13:43:56.146723 54378 net.cpp:434] bn3a_branch2c <- res3a_branch2c
I0726 13:43:56.146728 54378 net.cpp:395] bn3a_branch2c -> res3a_branch2c (in-place)
I0726 13:43:56.146919 54378 net.cpp:150] Setting up bn3a_branch2c
I0726 13:43:56.146926 54378 net.cpp:157] Top shape: 16 512 28 28 (6422528)
I0726 13:43:56.146929 54378 net.cpp:165] Memory required for data: 1974927424
I0726 13:43:56.146939 54378 layer_factory.hpp:77] Creating layer scale3a_branch2c
I0726 13:43:56.146950 54378 net.cpp:100] Creating Layer scale3a_branch2c
I0726 13:43:56.146952 54378 net.cpp:434] scale3a_branch2c <- res3a_branch2c
I0726 13:43:56.146956 54378 net.cpp:395] scale3a_branch2c -> res3a_branch2c (in-place)
I0726 13:43:56.146996 54378 layer_factory.hpp:77] Creating layer scale3a_branch2c
I0726 13:43:56.147099 54378 net.cpp:150] Setting up scale3a_branch2c
I0726 13:43:56.147107 54378 net.cpp:157] Top shape: 16 512 28 28 (6422528)
I0726 13:43:56.147111 54378 net.cpp:165] Memory required for data: 2000617536
I0726 13:43:56.147116 54378 layer_factory.hpp:77] Creating layer res3a
I0726 13:43:56.147125 54378 net.cpp:100] Creating Layer res3a
I0726 13:43:56.147130 54378 net.cpp:434] res3a <- res3a_branch1
I0726 13:43:56.147133 54378 net.cpp:434] res3a <- res3a_branch2c
I0726 13:43:56.147138 54378 net.cpp:408] res3a -> res3a
I0726 13:43:56.147163 54378 net.cpp:150] Setting up res3a
I0726 13:43:56.147171 54378 net.cpp:157] Top shape: 16 512 28 28 (6422528)
I0726 13:43:56.147173 54378 net.cpp:165] Memory required for data: 2026307648
I0726 13:43:56.147176 54378 layer_factory.hpp:77] Creating layer res3a_relu
I0726 13:43:56.147181 54378 net.cpp:100] Creating Layer res3a_relu
I0726 13:43:56.147184 54378 net.cpp:434] res3a_relu <- res3a
I0726 13:43:56.147192 54378 net.cpp:395] res3a_relu -> res3a (in-place)
I0726 13:43:56.147369 54378 net.cpp:150] Setting up res3a_relu
I0726 13:43:56.147380 54378 net.cpp:157] Top shape: 16 512 28 28 (6422528)
I0726 13:43:56.147383 54378 net.cpp:165] Memory required for data: 2051997760
I0726 13:43:56.147387 54378 layer_factory.hpp:77] Creating layer res3a_res3a_relu_0_split
I0726 13:43:56.147395 54378 net.cpp:100] Creating Layer res3a_res3a_relu_0_split
I0726 13:43:56.147400 54378 net.cpp:434] res3a_res3a_relu_0_split <- res3a
I0726 13:43:56.147419 54378 net.cpp:408] res3a_res3a_relu_0_split -> res3a_res3a_relu_0_split_0
I0726 13:43:56.147426 54378 net.cpp:408] res3a_res3a_relu_0_split -> res3a_res3a_relu_0_split_1
I0726 13:43:56.147470 54378 net.cpp:150] Setting up res3a_res3a_relu_0_split
I0726 13:43:56.147478 54378 net.cpp:157] Top shape: 16 512 28 28 (6422528)
I0726 13:43:56.147482 54378 net.cpp:157] Top shape: 16 512 28 28 (6422528)
I0726 13:43:56.147485 54378 net.cpp:165] Memory required for data: 2103377984
I0726 13:43:56.147488 54378 layer_factory.hpp:77] Creating layer res3b1_branch2a
I0726 13:43:56.147498 54378 net.cpp:100] Creating Layer res3b1_branch2a
I0726 13:43:56.147503 54378 net.cpp:434] res3b1_branch2a <- res3a_res3a_relu_0_split_0
I0726 13:43:56.147509 54378 net.cpp:408] res3b1_branch2a -> res3b1_branch2a
I0726 13:43:56.149884 54378 net.cpp:150] Setting up res3b1_branch2a
I0726 13:43:56.149899 54378 net.cpp:157] Top shape: 16 128 28 28 (1605632)
I0726 13:43:56.149904 54378 net.cpp:165] Memory required for data: 2109800512
I0726 13:43:56.149925 54378 layer_factory.hpp:77] Creating layer bn3b1_branch2a
I0726 13:43:56.149931 54378 net.cpp:100] Creating Layer bn3b1_branch2a
I0726 13:43:56.149935 54378 net.cpp:434] bn3b1_branch2a <- res3b1_branch2a
I0726 13:43:56.149941 54378 net.cpp:395] bn3b1_branch2a -> res3b1_branch2a (in-place)
I0726 13:43:56.150151 54378 net.cpp:150] Setting up bn3b1_branch2a
I0726 13:43:56.150158 54378 net.cpp:157] Top shape: 16 128 28 28 (1605632)
I0726 13:43:56.150162 54378 net.cpp:165] Memory required for data: 2116223040
I0726 13:43:56.150169 54378 layer_factory.hpp:77] Creating layer scale3b1_branch2a
I0726 13:43:56.150176 54378 net.cpp:100] Creating Layer scale3b1_branch2a
I0726 13:43:56.150180 54378 net.cpp:434] scale3b1_branch2a <- res3b1_branch2a
I0726 13:43:56.150184 54378 net.cpp:395] scale3b1_branch2a -> res3b1_branch2a (in-place)
I0726 13:43:56.150221 54378 layer_factory.hpp:77] Creating layer scale3b1_branch2a
I0726 13:43:56.150321 54378 net.cpp:150] Setting up scale3b1_branch2a
I0726 13:43:56.150328 54378 net.cpp:157] Top shape: 16 128 28 28 (1605632)
I0726 13:43:56.150331 54378 net.cpp:165] Memory required for data: 2122645568
I0726 13:43:56.150337 54378 layer_factory.hpp:77] Creating layer res3b1_branch2a_relu
I0726 13:43:56.150344 54378 net.cpp:100] Creating Layer res3b1_branch2a_relu
I0726 13:43:56.150349 54378 net.cpp:434] res3b1_branch2a_relu <- res3b1_branch2a
I0726 13:43:56.150353 54378 net.cpp:395] res3b1_branch2a_relu -> res3b1_branch2a (in-place)
I0726 13:43:56.150516 54378 net.cpp:150] Setting up res3b1_branch2a_relu
I0726 13:43:56.150527 54378 net.cpp:157] Top shape: 16 128 28 28 (1605632)
I0726 13:43:56.150530 54378 net.cpp:165] Memory required for data: 2129068096
I0726 13:43:56.150533 54378 layer_factory.hpp:77] Creating layer res3b1_branch2b
I0726 13:43:56.150543 54378 net.cpp:100] Creating Layer res3b1_branch2b
I0726 13:43:56.150548 54378 net.cpp:434] res3b1_branch2b <- res3b1_branch2a
I0726 13:43:56.150553 54378 net.cpp:408] res3b1_branch2b -> res3b1_branch2b
I0726 13:43:56.156337 54378 net.cpp:150] Setting up res3b1_branch2b
I0726 13:43:56.156354 54378 net.cpp:157] Top shape: 16 128 28 28 (1605632)
I0726 13:43:56.156358 54378 net.cpp:165] Memory required for data: 2135490624
I0726 13:43:56.156381 54378 layer_factory.hpp:77] Creating layer bn3b1_branch2b
I0726 13:43:56.156390 54378 net.cpp:100] Creating Layer bn3b1_branch2b
I0726 13:43:56.156394 54378 net.cpp:434] bn3b1_branch2b <- res3b1_branch2b
I0726 13:43:56.156399 54378 net.cpp:395] bn3b1_branch2b -> res3b1_branch2b (in-place)
I0726 13:43:56.156610 54378 net.cpp:150] Setting up bn3b1_branch2b
I0726 13:43:56.156620 54378 net.cpp:157] Top shape: 16 128 28 28 (1605632)
I0726 13:43:56.156622 54378 net.cpp:165] Memory required for data: 2141913152
I0726 13:43:56.156630 54378 layer_factory.hpp:77] Creating layer scale3b1_branch2b
I0726 13:43:56.156641 54378 net.cpp:100] Creating Layer scale3b1_branch2b
I0726 13:43:56.156646 54378 net.cpp:434] scale3b1_branch2b <- res3b1_branch2b
I0726 13:43:56.156652 54378 net.cpp:395] scale3b1_branch2b -> res3b1_branch2b (in-place)
I0726 13:43:56.156723 54378 layer_factory.hpp:77] Creating layer scale3b1_branch2b
I0726 13:43:56.156829 54378 net.cpp:150] Setting up scale3b1_branch2b
I0726 13:43:56.156839 54378 net.cpp:157] Top shape: 16 128 28 28 (1605632)
I0726 13:43:56.156842 54378 net.cpp:165] Memory required for data: 2148335680
I0726 13:43:56.156848 54378 layer_factory.hpp:77] Creating layer res3b1_branch2b_relu
I0726 13:43:56.156853 54378 net.cpp:100] Creating Layer res3b1_branch2b_relu
I0726 13:43:56.156858 54378 net.cpp:434] res3b1_branch2b_relu <- res3b1_branch2b
I0726 13:43:56.156863 54378 net.cpp:395] res3b1_branch2b_relu -> res3b1_branch2b (in-place)
I0726 13:43:56.157335 54378 net.cpp:150] Setting up res3b1_branch2b_relu
I0726 13:43:56.157349 54378 net.cpp:157] Top shape: 16 128 28 28 (1605632)
I0726 13:43:56.157352 54378 net.cpp:165] Memory required for data: 2154758208
I0726 13:43:56.157373 54378 layer_factory.hpp:77] Creating layer res3b1_branch2c
I0726 13:43:56.157389 54378 net.cpp:100] Creating Layer res3b1_branch2c
I0726 13:43:56.157393 54378 net.cpp:434] res3b1_branch2c <- res3b1_branch2b
I0726 13:43:56.157416 54378 net.cpp:408] res3b1_branch2c -> res3b1_branch2c
I0726 13:43:56.159675 54378 net.cpp:150] Setting up res3b1_branch2c
I0726 13:43:56.159688 54378 net.cpp:157] Top shape: 16 512 28 28 (6422528)
I0726 13:43:56.159692 54378 net.cpp:165] Memory required for data: 2180448320
I0726 13:43:56.159713 54378 layer_factory.hpp:77] Creating layer bn3b1_branch2c
I0726 13:43:56.159721 54378 net.cpp:100] Creating Layer bn3b1_branch2c
I0726 13:43:56.159725 54378 net.cpp:434] bn3b1_branch2c <- res3b1_branch2c
I0726 13:43:56.159731 54378 net.cpp:395] bn3b1_branch2c -> res3b1_branch2c (in-place)
I0726 13:43:56.159936 54378 net.cpp:150] Setting up bn3b1_branch2c
I0726 13:43:56.159945 54378 net.cpp:157] Top shape: 16 512 28 28 (6422528)
I0726 13:43:56.159948 54378 net.cpp:165] Memory required for data: 2206138432
I0726 13:43:56.159955 54378 layer_factory.hpp:77] Creating layer scale3b1_branch2c
I0726 13:43:56.159962 54378 net.cpp:100] Creating Layer scale3b1_branch2c
I0726 13:43:56.159970 54378 net.cpp:434] scale3b1_branch2c <- res3b1_branch2c
I0726 13:43:56.159974 54378 net.cpp:395] scale3b1_branch2c -> res3b1_branch2c (in-place)
I0726 13:43:56.160013 54378 layer_factory.hpp:77] Creating layer scale3b1_branch2c
I0726 13:43:56.160118 54378 net.cpp:150] Setting up scale3b1_branch2c
I0726 13:43:56.160126 54378 net.cpp:157] Top shape: 16 512 28 28 (6422528)
I0726 13:43:56.160130 54378 net.cpp:165] Memory required for data: 2231828544
I0726 13:43:56.160135 54378 layer_factory.hpp:77] Creating layer res3b1
I0726 13:43:56.160142 54378 net.cpp:100] Creating Layer res3b1
I0726 13:43:56.160147 54378 net.cpp:434] res3b1 <- res3a_res3a_relu_0_split_1
I0726 13:43:56.160151 54378 net.cpp:434] res3b1 <- res3b1_branch2c
I0726 13:43:56.160156 54378 net.cpp:408] res3b1 -> res3b1
I0726 13:43:56.160182 54378 net.cpp:150] Setting up res3b1
I0726 13:43:56.160192 54378 net.cpp:157] Top shape: 16 512 28 28 (6422528)
I0726 13:43:56.160194 54378 net.cpp:165] Memory required for data: 2257518656
I0726 13:43:56.160197 54378 layer_factory.hpp:77] Creating layer res3b1_relu
I0726 13:43:56.160202 54378 net.cpp:100] Creating Layer res3b1_relu
I0726 13:43:56.160205 54378 net.cpp:434] res3b1_relu <- res3b1
I0726 13:43:56.160209 54378 net.cpp:395] res3b1_relu -> res3b1 (in-place)
I0726 13:43:56.160642 54378 net.cpp:150] Setting up res3b1_relu
I0726 13:43:56.160656 54378 net.cpp:157] Top shape: 16 512 28 28 (6422528)
I0726 13:43:56.160660 54378 net.cpp:165] Memory required for data: 2283208768
I0726 13:43:56.160681 54378 layer_factory.hpp:77] Creating layer res3b1_res3b1_relu_0_split
I0726 13:43:56.160689 54378 net.cpp:100] Creating Layer res3b1_res3b1_relu_0_split
I0726 13:43:56.160692 54378 net.cpp:434] res3b1_res3b1_relu_0_split <- res3b1
I0726 13:43:56.160697 54378 net.cpp:408] res3b1_res3b1_relu_0_split -> res3b1_res3b1_relu_0_split_0
I0726 13:43:56.160720 54378 net.cpp:408] res3b1_res3b1_relu_0_split -> res3b1_res3b1_relu_0_split_1
I0726 13:43:56.160774 54378 net.cpp:150] Setting up res3b1_res3b1_relu_0_split
I0726 13:43:56.160782 54378 net.cpp:157] Top shape: 16 512 28 28 (6422528)
I0726 13:43:56.160785 54378 net.cpp:157] Top shape: 16 512 28 28 (6422528)
I0726 13:43:56.160789 54378 net.cpp:165] Memory required for data: 2334588992
I0726 13:43:56.160792 54378 layer_factory.hpp:77] Creating layer res3b2_branch2a
I0726 13:43:56.160802 54378 net.cpp:100] Creating Layer res3b2_branch2a
I0726 13:43:56.160807 54378 net.cpp:434] res3b2_branch2a <- res3b1_res3b1_relu_0_split_0
I0726 13:43:56.160815 54378 net.cpp:408] res3b2_branch2a -> res3b2_branch2a
I0726 13:43:56.163283 54378 net.cpp:150] Setting up res3b2_branch2a
I0726 13:43:56.163298 54378 net.cpp:157] Top shape: 16 128 28 28 (1605632)
I0726 13:43:56.163302 54378 net.cpp:165] Memory required for data: 2341011520
I0726 13:43:56.163326 54378 layer_factory.hpp:77] Creating layer bn3b2_branch2a
I0726 13:43:56.163332 54378 net.cpp:100] Creating Layer bn3b2_branch2a
I0726 13:43:56.163336 54378 net.cpp:434] bn3b2_branch2a <- res3b2_branch2a
I0726 13:43:56.163343 54378 net.cpp:395] bn3b2_branch2a -> res3b2_branch2a (in-place)
I0726 13:43:56.163576 54378 net.cpp:150] Setting up bn3b2_branch2a
I0726 13:43:56.163584 54378 net.cpp:157] Top shape: 16 128 28 28 (1605632)
I0726 13:43:56.163589 54378 net.cpp:165] Memory required for data: 2347434048
I0726 13:43:56.163595 54378 layer_factory.hpp:77] Creating layer scale3b2_branch2a
I0726 13:43:56.163616 54378 net.cpp:100] Creating Layer scale3b2_branch2a
I0726 13:43:56.163621 54378 net.cpp:434] scale3b2_branch2a <- res3b2_branch2a
I0726 13:43:56.163626 54378 net.cpp:395] scale3b2_branch2a -> res3b2_branch2a (in-place)
I0726 13:43:56.163663 54378 layer_factory.hpp:77] Creating layer scale3b2_branch2a
I0726 13:43:56.163765 54378 net.cpp:150] Setting up scale3b2_branch2a
I0726 13:43:56.163774 54378 net.cpp:157] Top shape: 16 128 28 28 (1605632)
I0726 13:43:56.163776 54378 net.cpp:165] Memory required for data: 2353856576
I0726 13:43:56.163782 54378 layer_factory.hpp:77] Creating layer res3b2_branch2a_relu
I0726 13:43:56.163787 54378 net.cpp:100] Creating Layer res3b2_branch2a_relu
I0726 13:43:56.163790 54378 net.cpp:434] res3b2_branch2a_relu <- res3b2_branch2a
I0726 13:43:56.163796 54378 net.cpp:395] res3b2_branch2a_relu -> res3b2_branch2a (in-place)
I0726 13:43:56.163960 54378 net.cpp:150] Setting up res3b2_branch2a_relu
I0726 13:43:56.163970 54378 net.cpp:157] Top shape: 16 128 28 28 (1605632)
I0726 13:43:56.163975 54378 net.cpp:165] Memory required for data: 2360279104
I0726 13:43:56.163978 54378 layer_factory.hpp:77] Creating layer res3b2_branch2b
I0726 13:43:56.163986 54378 net.cpp:100] Creating Layer res3b2_branch2b
I0726 13:43:56.163991 54378 net.cpp:434] res3b2_branch2b <- res3b2_branch2a
I0726 13:43:56.164000 54378 net.cpp:408] res3b2_branch2b -> res3b2_branch2b
I0726 13:43:56.168560 54378 net.cpp:150] Setting up res3b2_branch2b
I0726 13:43:56.168576 54378 net.cpp:157] Top shape: 16 128 28 28 (1605632)
I0726 13:43:56.168578 54378 net.cpp:165] Memory required for data: 2366701632
I0726 13:43:56.168602 54378 layer_factory.hpp:77] Creating layer bn3b2_branch2b
I0726 13:43:56.168612 54378 net.cpp:100] Creating Layer bn3b2_branch2b
I0726 13:43:56.168614 54378 net.cpp:434] bn3b2_branch2b <- res3b2_branch2b
I0726 13:43:56.168619 54378 net.cpp:395] bn3b2_branch2b -> res3b2_branch2b (in-place)
I0726 13:43:56.168833 54378 net.cpp:150] Setting up bn3b2_branch2b
I0726 13:43:56.168841 54378 net.cpp:157] Top shape: 16 128 28 28 (1605632)
I0726 13:43:56.168844 54378 net.cpp:165] Memory required for data: 2373124160
I0726 13:43:56.168853 54378 layer_factory.hpp:77] Creating layer scale3b2_branch2b
I0726 13:43:56.168860 54378 net.cpp:100] Creating Layer scale3b2_branch2b
I0726 13:43:56.168867 54378 net.cpp:434] scale3b2_branch2b <- res3b2_branch2b
I0726 13:43:56.168872 54378 net.cpp:395] scale3b2_branch2b -> res3b2_branch2b (in-place)
I0726 13:43:56.168910 54378 layer_factory.hpp:77] Creating layer scale3b2_branch2b
I0726 13:43:56.169018 54378 net.cpp:150] Setting up scale3b2_branch2b
I0726 13:43:56.169037 54378 net.cpp:157] Top shape: 16 128 28 28 (1605632)
I0726 13:43:56.169041 54378 net.cpp:165] Memory required for data: 2379546688
I0726 13:43:56.169046 54378 layer_factory.hpp:77] Creating layer res3b2_branch2b_relu
I0726 13:43:56.169051 54378 net.cpp:100] Creating Layer res3b2_branch2b_relu
I0726 13:43:56.169055 54378 net.cpp:434] res3b2_branch2b_relu <- res3b2_branch2b
I0726 13:43:56.169061 54378 net.cpp:395] res3b2_branch2b_relu -> res3b2_branch2b (in-place)
I0726 13:43:56.169227 54378 net.cpp:150] Setting up res3b2_branch2b_relu
I0726 13:43:56.169237 54378 net.cpp:157] Top shape: 16 128 28 28 (1605632)
I0726 13:43:56.169240 54378 net.cpp:165] Memory required for data: 2385969216
I0726 13:43:56.169244 54378 layer_factory.hpp:77] Creating layer res3b2_branch2c
I0726 13:43:56.169255 54378 net.cpp:100] Creating Layer res3b2_branch2c
I0726 13:43:56.169260 54378 net.cpp:434] res3b2_branch2c <- res3b2_branch2b
I0726 13:43:56.169266 54378 net.cpp:408] res3b2_branch2c -> res3b2_branch2c
I0726 13:43:56.171774 54378 net.cpp:150] Setting up res3b2_branch2c
I0726 13:43:56.171790 54378 net.cpp:157] Top shape: 16 512 28 28 (6422528)
I0726 13:43:56.171794 54378 net.cpp:165] Memory required for data: 2411659328
I0726 13:43:56.171816 54378 layer_factory.hpp:77] Creating layer bn3b2_branch2c
I0726 13:43:56.171824 54378 net.cpp:100] Creating Layer bn3b2_branch2c
I0726 13:43:56.171828 54378 net.cpp:434] bn3b2_branch2c <- res3b2_branch2c
I0726 13:43:56.171833 54378 net.cpp:395] bn3b2_branch2c -> res3b2_branch2c (in-place)
I0726 13:43:56.172061 54378 net.cpp:150] Setting up bn3b2_branch2c
I0726 13:43:56.172070 54378 net.cpp:157] Top shape: 16 512 28 28 (6422528)
I0726 13:43:56.172073 54378 net.cpp:165] Memory required for data: 2437349440
I0726 13:43:56.172081 54378 layer_factory.hpp:77] Creating layer scale3b2_branch2c
I0726 13:43:56.172092 54378 net.cpp:100] Creating Layer scale3b2_branch2c
I0726 13:43:56.172096 54378 net.cpp:434] scale3b2_branch2c <- res3b2_branch2c
I0726 13:43:56.172101 54378 net.cpp:395] scale3b2_branch2c -> res3b2_branch2c (in-place)
I0726 13:43:56.172139 54378 layer_factory.hpp:77] Creating layer scale3b2_branch2c
I0726 13:43:56.172245 54378 net.cpp:150] Setting up scale3b2_branch2c
I0726 13:43:56.172252 54378 net.cpp:157] Top shape: 16 512 28 28 (6422528)
I0726 13:43:56.172255 54378 net.cpp:165] Memory required for data: 2463039552
I0726 13:43:56.172261 54378 layer_factory.hpp:77] Creating layer res3b2
I0726 13:43:56.172271 54378 net.cpp:100] Creating Layer res3b2
I0726 13:43:56.172274 54378 net.cpp:434] res3b2 <- res3b1_res3b1_relu_0_split_1
I0726 13:43:56.172279 54378 net.cpp:434] res3b2 <- res3b2_branch2c
I0726 13:43:56.172283 54378 net.cpp:408] res3b2 -> res3b2
I0726 13:43:56.172309 54378 net.cpp:150] Setting up res3b2
I0726 13:43:56.172317 54378 net.cpp:157] Top shape: 16 512 28 28 (6422528)
I0726 13:43:56.172319 54378 net.cpp:165] Memory required for data: 2488729664
I0726 13:43:56.172322 54378 layer_factory.hpp:77] Creating layer res3b2_relu
I0726 13:43:56.172327 54378 net.cpp:100] Creating Layer res3b2_relu
I0726 13:43:56.172330 54378 net.cpp:434] res3b2_relu <- res3b2
I0726 13:43:56.172336 54378 net.cpp:395] res3b2_relu -> res3b2 (in-place)
I0726 13:43:56.172487 54378 net.cpp:150] Setting up res3b2_relu
I0726 13:43:56.172495 54378 net.cpp:157] Top shape: 16 512 28 28 (6422528)
I0726 13:43:56.172498 54378 net.cpp:165] Memory required for data: 2514419776
I0726 13:43:56.172502 54378 layer_factory.hpp:77] Creating layer res3b2_res3b2_relu_0_split
I0726 13:43:56.172508 54378 net.cpp:100] Creating Layer res3b2_res3b2_relu_0_split
I0726 13:43:56.172511 54378 net.cpp:434] res3b2_res3b2_relu_0_split <- res3b2
I0726 13:43:56.172518 54378 net.cpp:408] res3b2_res3b2_relu_0_split -> res3b2_res3b2_relu_0_split_0
I0726 13:43:56.172524 54378 net.cpp:408] res3b2_res3b2_relu_0_split -> res3b2_res3b2_relu_0_split_1
I0726 13:43:56.172566 54378 net.cpp:150] Setting up res3b2_res3b2_relu_0_split
I0726 13:43:56.172574 54378 net.cpp:157] Top shape: 16 512 28 28 (6422528)
I0726 13:43:56.172590 54378 net.cpp:157] Top shape: 16 512 28 28 (6422528)
I0726 13:43:56.172593 54378 net.cpp:165] Memory required for data: 2565800000
I0726 13:43:56.172596 54378 layer_factory.hpp:77] Creating layer res3b3_branch2a
I0726 13:43:56.172605 54378 net.cpp:100] Creating Layer res3b3_branch2a
I0726 13:43:56.172611 54378 net.cpp:434] res3b3_branch2a <- res3b2_res3b2_relu_0_split_0
I0726 13:43:56.172616 54378 net.cpp:408] res3b3_branch2a -> res3b3_branch2a
I0726 13:43:56.176260 54378 net.cpp:150] Setting up res3b3_branch2a
I0726 13:43:56.176276 54378 net.cpp:157] Top shape: 16 128 28 28 (1605632)
I0726 13:43:56.176280 54378 net.cpp:165] Memory required for data: 2572222528
I0726 13:43:56.176303 54378 layer_factory.hpp:77] Creating layer bn3b3_branch2a
I0726 13:43:56.176316 54378 net.cpp:100] Creating Layer bn3b3_branch2a
I0726 13:43:56.176319 54378 net.cpp:434] bn3b3_branch2a <- res3b3_branch2a
I0726 13:43:56.176342 54378 net.cpp:395] bn3b3_branch2a -> res3b3_branch2a (in-place)
I0726 13:43:56.176538 54378 net.cpp:150] Setting up bn3b3_branch2a
I0726 13:43:56.176548 54378 net.cpp:157] Top shape: 16 128 28 28 (1605632)
I0726 13:43:56.176550 54378 net.cpp:165] Memory required for data: 2578645056
I0726 13:43:56.176582 54378 layer_factory.hpp:77] Creating layer scale3b3_branch2a
I0726 13:43:56.176592 54378 net.cpp:100] Creating Layer scale3b3_branch2a
I0726 13:43:56.176596 54378 net.cpp:434] scale3b3_branch2a <- res3b3_branch2a
I0726 13:43:56.176604 54378 net.cpp:395] scale3b3_branch2a -> res3b3_branch2a (in-place)
I0726 13:43:56.176642 54378 layer_factory.hpp:77] Creating layer scale3b3_branch2a
I0726 13:43:56.176748 54378 net.cpp:150] Setting up scale3b3_branch2a
I0726 13:43:56.176755 54378 net.cpp:157] Top shape: 16 128 28 28 (1605632)
I0726 13:43:56.176759 54378 net.cpp:165] Memory required for data: 2585067584
I0726 13:43:56.176764 54378 layer_factory.hpp:77] Creating layer res3b3_branch2a_relu
I0726 13:43:56.176769 54378 net.cpp:100] Creating Layer res3b3_branch2a_relu
I0726 13:43:56.176772 54378 net.cpp:434] res3b3_branch2a_relu <- res3b3_branch2a
I0726 13:43:56.176777 54378 net.cpp:395] res3b3_branch2a_relu -> res3b3_branch2a (in-place)
I0726 13:43:56.176941 54378 net.cpp:150] Setting up res3b3_branch2a_relu
I0726 13:43:56.176952 54378 net.cpp:157] Top shape: 16 128 28 28 (1605632)
I0726 13:43:56.176955 54378 net.cpp:165] Memory required for data: 2591490112
I0726 13:43:56.176959 54378 layer_factory.hpp:77] Creating layer res3b3_branch2b
I0726 13:43:56.176967 54378 net.cpp:100] Creating Layer res3b3_branch2b
I0726 13:43:56.176972 54378 net.cpp:434] res3b3_branch2b <- res3b3_branch2a
I0726 13:43:56.176980 54378 net.cpp:408] res3b3_branch2b -> res3b3_branch2b
I0726 13:43:56.181557 54378 net.cpp:150] Setting up res3b3_branch2b
I0726 13:43:56.181573 54378 net.cpp:157] Top shape: 16 128 28 28 (1605632)
I0726 13:43:56.181576 54378 net.cpp:165] Memory required for data: 2597912640
I0726 13:43:56.181601 54378 layer_factory.hpp:77] Creating layer bn3b3_branch2b
I0726 13:43:56.181609 54378 net.cpp:100] Creating Layer bn3b3_branch2b
I0726 13:43:56.181612 54378 net.cpp:434] bn3b3_branch2b <- res3b3_branch2b
I0726 13:43:56.181617 54378 net.cpp:395] bn3b3_branch2b -> res3b3_branch2b (in-place)
I0726 13:43:56.181838 54378 net.cpp:150] Setting up bn3b3_branch2b
I0726 13:43:56.181846 54378 net.cpp:157] Top shape: 16 128 28 28 (1605632)
I0726 13:43:56.181850 54378 net.cpp:165] Memory required for data: 2604335168
I0726 13:43:56.181859 54378 layer_factory.hpp:77] Creating layer scale3b3_branch2b
I0726 13:43:56.181871 54378 net.cpp:100] Creating Layer scale3b3_branch2b
I0726 13:43:56.181875 54378 net.cpp:434] scale3b3_branch2b <- res3b3_branch2b
I0726 13:43:56.181879 54378 net.cpp:395] scale3b3_branch2b -> res3b3_branch2b (in-place)
I0726 13:43:56.181919 54378 layer_factory.hpp:77] Creating layer scale3b3_branch2b
I0726 13:43:56.182029 54378 net.cpp:150] Setting up scale3b3_branch2b
I0726 13:43:56.182036 54378 net.cpp:157] Top shape: 16 128 28 28 (1605632)
I0726 13:43:56.182039 54378 net.cpp:165] Memory required for data: 2610757696
I0726 13:43:56.182060 54378 layer_factory.hpp:77] Creating layer res3b3_branch2b_relu
I0726 13:43:56.182068 54378 net.cpp:100] Creating Layer res3b3_branch2b_relu
I0726 13:43:56.182073 54378 net.cpp:434] res3b3_branch2b_relu <- res3b3_branch2b
I0726 13:43:56.182096 54378 net.cpp:395] res3b3_branch2b_relu -> res3b3_branch2b (in-place)
I0726 13:43:56.182575 54378 net.cpp:150] Setting up res3b3_branch2b_relu
I0726 13:43:56.182591 54378 net.cpp:157] Top shape: 16 128 28 28 (1605632)
I0726 13:43:56.182612 54378 net.cpp:165] Memory required for data: 2617180224
I0726 13:43:56.182616 54378 layer_factory.hpp:77] Creating layer res3b3_branch2c
I0726 13:43:56.182626 54378 net.cpp:100] Creating Layer res3b3_branch2c
I0726 13:43:56.182631 54378 net.cpp:434] res3b3_branch2c <- res3b3_branch2b
I0726 13:43:56.182636 54378 net.cpp:408] res3b3_branch2c -> res3b3_branch2c
I0726 13:43:56.184862 54378 net.cpp:150] Setting up res3b3_branch2c
I0726 13:43:56.184877 54378 net.cpp:157] Top shape: 16 512 28 28 (6422528)
I0726 13:43:56.184898 54378 net.cpp:165] Memory required for data: 2642870336
I0726 13:43:56.184903 54378 layer_factory.hpp:77] Creating layer bn3b3_branch2c
I0726 13:43:56.184909 54378 net.cpp:100] Creating Layer bn3b3_branch2c
I0726 13:43:56.184912 54378 net.cpp:434] bn3b3_branch2c <- res3b3_branch2c
I0726 13:43:56.184917 54378 net.cpp:395] bn3b3_branch2c -> res3b3_branch2c (in-place)
I0726 13:43:56.185132 54378 net.cpp:150] Setting up bn3b3_branch2c
I0726 13:43:56.185140 54378 net.cpp:157] Top shape: 16 512 28 28 (6422528)
I0726 13:43:56.185143 54378 net.cpp:165] Memory required for data: 2668560448
I0726 13:43:56.185150 54378 layer_factory.hpp:77] Creating layer scale3b3_branch2c
I0726 13:43:56.185163 54378 net.cpp:100] Creating Layer scale3b3_branch2c
I0726 13:43:56.185166 54378 net.cpp:434] scale3b3_branch2c <- res3b3_branch2c
I0726 13:43:56.185171 54378 net.cpp:395] scale3b3_branch2c -> res3b3_branch2c (in-place)
I0726 13:43:56.185220 54378 layer_factory.hpp:77] Creating layer scale3b3_branch2c
I0726 13:43:56.185329 54378 net.cpp:150] Setting up scale3b3_branch2c
I0726 13:43:56.185338 54378 net.cpp:157] Top shape: 16 512 28 28 (6422528)
I0726 13:43:56.185340 54378 net.cpp:165] Memory required for data: 2694250560
I0726 13:43:56.185346 54378 layer_factory.hpp:77] Creating layer res3b3
I0726 13:43:56.185353 54378 net.cpp:100] Creating Layer res3b3
I0726 13:43:56.185359 54378 net.cpp:434] res3b3 <- res3b2_res3b2_relu_0_split_1
I0726 13:43:56.185362 54378 net.cpp:434] res3b3 <- res3b3_branch2c
I0726 13:43:56.185369 54378 net.cpp:408] res3b3 -> res3b3
I0726 13:43:56.185395 54378 net.cpp:150] Setting up res3b3
I0726 13:43:56.185401 54378 net.cpp:157] Top shape: 16 512 28 28 (6422528)
I0726 13:43:56.185405 54378 net.cpp:165] Memory required for data: 2719940672
I0726 13:43:56.185408 54378 layer_factory.hpp:77] Creating layer res3b3_relu
I0726 13:43:56.185415 54378 net.cpp:100] Creating Layer res3b3_relu
I0726 13:43:56.185418 54378 net.cpp:434] res3b3_relu <- res3b3
I0726 13:43:56.185422 54378 net.cpp:395] res3b3_relu -> res3b3 (in-place)
I0726 13:43:56.185878 54378 net.cpp:150] Setting up res3b3_relu
I0726 13:43:56.185894 54378 net.cpp:157] Top shape: 16 512 28 28 (6422528)
I0726 13:43:56.185915 54378 net.cpp:165] Memory required for data: 2745630784
I0726 13:43:56.185920 54378 layer_factory.hpp:77] Creating layer res3b3_res3b3_relu_0_split
I0726 13:43:56.185926 54378 net.cpp:100] Creating Layer res3b3_res3b3_relu_0_split
I0726 13:43:56.185930 54378 net.cpp:434] res3b3_res3b3_relu_0_split <- res3b3
I0726 13:43:56.185935 54378 net.cpp:408] res3b3_res3b3_relu_0_split -> res3b3_res3b3_relu_0_split_0
I0726 13:43:56.185957 54378 net.cpp:408] res3b3_res3b3_relu_0_split -> res3b3_res3b3_relu_0_split_1
I0726 13:43:56.186002 54378 net.cpp:150] Setting up res3b3_res3b3_relu_0_split
I0726 13:43:56.186009 54378 net.cpp:157] Top shape: 16 512 28 28 (6422528)
I0726 13:43:56.186012 54378 net.cpp:157] Top shape: 16 512 28 28 (6422528)
I0726 13:43:56.186015 54378 net.cpp:165] Memory required for data: 2797011008
I0726 13:43:56.186018 54378 layer_factory.hpp:77] Creating layer res4a_branch1
I0726 13:43:56.186041 54378 net.cpp:100] Creating Layer res4a_branch1
I0726 13:43:56.186048 54378 net.cpp:434] res4a_branch1 <- res3b3_res3b3_relu_0_split_0
I0726 13:43:56.186055 54378 net.cpp:408] res4a_branch1 -> res4a_branch1
I0726 13:43:56.200213 54378 net.cpp:150] Setting up res4a_branch1
I0726 13:43:56.200269 54378 net.cpp:157] Top shape: 16 1024 14 14 (3211264)
I0726 13:43:56.200274 54378 net.cpp:165] Memory required for data: 2809856064
I0726 13:43:56.200281 54378 layer_factory.hpp:77] Creating layer bn4a_branch1
I0726 13:43:56.200294 54378 net.cpp:100] Creating Layer bn4a_branch1
I0726 13:43:56.200297 54378 net.cpp:434] bn4a_branch1 <- res4a_branch1
I0726 13:43:56.200322 54378 net.cpp:395] bn4a_branch1 -> res4a_branch1 (in-place)
I0726 13:43:56.200546 54378 net.cpp:150] Setting up bn4a_branch1
I0726 13:43:56.200556 54378 net.cpp:157] Top shape: 16 1024 14 14 (3211264)
I0726 13:43:56.200558 54378 net.cpp:165] Memory required for data: 2822701120
I0726 13:43:56.200567 54378 layer_factory.hpp:77] Creating layer scale4a_branch1
I0726 13:43:56.200573 54378 net.cpp:100] Creating Layer scale4a_branch1
I0726 13:43:56.200583 54378 net.cpp:434] scale4a_branch1 <- res4a_branch1
I0726 13:43:56.200588 54378 net.cpp:395] scale4a_branch1 -> res4a_branch1 (in-place)
I0726 13:43:56.200633 54378 layer_factory.hpp:77] Creating layer scale4a_branch1
I0726 13:43:56.200742 54378 net.cpp:150] Setting up scale4a_branch1
I0726 13:43:56.200750 54378 net.cpp:157] Top shape: 16 1024 14 14 (3211264)
I0726 13:43:56.200754 54378 net.cpp:165] Memory required for data: 2835546176
I0726 13:43:56.200760 54378 layer_factory.hpp:77] Creating layer res4a_branch2a
I0726 13:43:56.200773 54378 net.cpp:100] Creating Layer res4a_branch2a
I0726 13:43:56.200778 54378 net.cpp:434] res4a_branch2a <- res3b3_res3b3_relu_0_split_1
I0726 13:43:56.200785 54378 net.cpp:408] res4a_branch2a -> res4a_branch2a
I0726 13:43:56.205936 54378 net.cpp:150] Setting up res4a_branch2a
I0726 13:43:56.205953 54378 net.cpp:157] Top shape: 16 256 14 14 (802816)
I0726 13:43:56.205957 54378 net.cpp:165] Memory required for data: 2838757440
I0726 13:43:56.205981 54378 layer_factory.hpp:77] Creating layer bn4a_branch2a
I0726 13:43:56.205991 54378 net.cpp:100] Creating Layer bn4a_branch2a
I0726 13:43:56.205994 54378 net.cpp:434] bn4a_branch2a <- res4a_branch2a
I0726 13:43:56.205999 54378 net.cpp:395] bn4a_branch2a -> res4a_branch2a (in-place)
I0726 13:43:56.206219 54378 net.cpp:150] Setting up bn4a_branch2a
I0726 13:43:56.206228 54378 net.cpp:157] Top shape: 16 256 14 14 (802816)
I0726 13:43:56.206230 54378 net.cpp:165] Memory required for data: 2841968704
I0726 13:43:56.206239 54378 layer_factory.hpp:77] Creating layer scale4a_branch2a
I0726 13:43:56.206250 54378 net.cpp:100] Creating Layer scale4a_branch2a
I0726 13:43:56.206261 54378 net.cpp:434] scale4a_branch2a <- res4a_branch2a
I0726 13:43:56.206265 54378 net.cpp:395] scale4a_branch2a -> res4a_branch2a (in-place)
I0726 13:43:56.206310 54378 layer_factory.hpp:77] Creating layer scale4a_branch2a
I0726 13:43:56.206415 54378 net.cpp:150] Setting up scale4a_branch2a
I0726 13:43:56.206423 54378 net.cpp:157] Top shape: 16 256 14 14 (802816)
I0726 13:43:56.206426 54378 net.cpp:165] Memory required for data: 2845179968
I0726 13:43:56.206432 54378 layer_factory.hpp:77] Creating layer res4a_branch2a_relu
I0726 13:43:56.206441 54378 net.cpp:100] Creating Layer res4a_branch2a_relu
I0726 13:43:56.206449 54378 net.cpp:434] res4a_branch2a_relu <- res4a_branch2a
I0726 13:43:56.206454 54378 net.cpp:395] res4a_branch2a_relu -> res4a_branch2a (in-place)
I0726 13:43:56.206614 54378 net.cpp:150] Setting up res4a_branch2a_relu
I0726 13:43:56.206624 54378 net.cpp:157] Top shape: 16 256 14 14 (802816)
I0726 13:43:56.206627 54378 net.cpp:165] Memory required for data: 2848391232
I0726 13:43:56.206630 54378 layer_factory.hpp:77] Creating layer res4a_branch2b
I0726 13:43:56.206643 54378 net.cpp:100] Creating Layer res4a_branch2b
I0726 13:43:56.206648 54378 net.cpp:434] res4a_branch2b <- res4a_branch2a
I0726 13:43:56.206676 54378 net.cpp:408] res4a_branch2b -> res4a_branch2b
I0726 13:43:56.222590 54378 net.cpp:150] Setting up res4a_branch2b
I0726 13:43:56.222645 54378 net.cpp:157] Top shape: 16 256 14 14 (802816)
I0726 13:43:56.222651 54378 net.cpp:165] Memory required for data: 2851602496
I0726 13:43:56.222661 54378 layer_factory.hpp:77] Creating layer bn4a_branch2b
I0726 13:43:56.222676 54378 net.cpp:100] Creating Layer bn4a_branch2b
I0726 13:43:56.222681 54378 net.cpp:434] bn4a_branch2b <- res4a_branch2b
I0726 13:43:56.222703 54378 net.cpp:395] bn4a_branch2b -> res4a_branch2b (in-place)
I0726 13:43:56.222920 54378 net.cpp:150] Setting up bn4a_branch2b
I0726 13:43:56.222929 54378 net.cpp:157] Top shape: 16 256 14 14 (802816)
I0726 13:43:56.222934 54378 net.cpp:165] Memory required for data: 2854813760
I0726 13:43:56.222940 54378 layer_factory.hpp:77] Creating layer scale4a_branch2b
I0726 13:43:56.222949 54378 net.cpp:100] Creating Layer scale4a_branch2b
I0726 13:43:56.222956 54378 net.cpp:434] scale4a_branch2b <- res4a_branch2b
I0726 13:43:56.222960 54378 net.cpp:395] scale4a_branch2b -> res4a_branch2b (in-place)
I0726 13:43:56.223011 54378 layer_factory.hpp:77] Creating layer scale4a_branch2b
I0726 13:43:56.223120 54378 net.cpp:150] Setting up scale4a_branch2b
I0726 13:43:56.223129 54378 net.cpp:157] Top shape: 16 256 14 14 (802816)
I0726 13:43:56.223131 54378 net.cpp:165] Memory required for data: 2858025024
I0726 13:43:56.223137 54378 layer_factory.hpp:77] Creating layer res4a_branch2b_relu
I0726 13:43:56.223146 54378 net.cpp:100] Creating Layer res4a_branch2b_relu
I0726 13:43:56.223153 54378 net.cpp:434] res4a_branch2b_relu <- res4a_branch2b
I0726 13:43:56.223157 54378 net.cpp:395] res4a_branch2b_relu -> res4a_branch2b (in-place)
I0726 13:43:56.223364 54378 net.cpp:150] Setting up res4a_branch2b_relu
I0726 13:43:56.223376 54378 net.cpp:157] Top shape: 16 256 14 14 (802816)
I0726 13:43:56.223381 54378 net.cpp:165] Memory required for data: 2861236288
I0726 13:43:56.223384 54378 layer_factory.hpp:77] Creating layer res4a_branch2c
I0726 13:43:56.223397 54378 net.cpp:100] Creating Layer res4a_branch2c
I0726 13:43:56.223403 54378 net.cpp:434] res4a_branch2c <- res4a_branch2b
I0726 13:43:56.223409 54378 net.cpp:408] res4a_branch2c -> res4a_branch2c
I0726 13:43:56.230275 54378 net.cpp:150] Setting up res4a_branch2c
I0726 13:43:56.230294 54378 net.cpp:157] Top shape: 16 1024 14 14 (3211264)
I0726 13:43:56.230315 54378 net.cpp:165] Memory required for data: 2874081344
I0726 13:43:56.230321 54378 layer_factory.hpp:77] Creating layer bn4a_branch2c
I0726 13:43:56.230330 54378 net.cpp:100] Creating Layer bn4a_branch2c
I0726 13:43:56.230334 54378 net.cpp:434] bn4a_branch2c <- res4a_branch2c
I0726 13:43:56.230340 54378 net.cpp:395] bn4a_branch2c -> res4a_branch2c (in-place)
I0726 13:43:56.230566 54378 net.cpp:150] Setting up bn4a_branch2c
I0726 13:43:56.230576 54378 net.cpp:157] Top shape: 16 1024 14 14 (3211264)
I0726 13:43:56.230579 54378 net.cpp:165] Memory required for data: 2886926400
I0726 13:43:56.230589 54378 layer_factory.hpp:77] Creating layer scale4a_branch2c
I0726 13:43:56.230600 54378 net.cpp:100] Creating Layer scale4a_branch2c
I0726 13:43:56.230609 54378 net.cpp:434] scale4a_branch2c <- res4a_branch2c
I0726 13:43:56.230614 54378 net.cpp:395] scale4a_branch2c -> res4a_branch2c (in-place)
I0726 13:43:56.230656 54378 layer_factory.hpp:77] Creating layer scale4a_branch2c
I0726 13:43:56.230772 54378 net.cpp:150] Setting up scale4a_branch2c
I0726 13:43:56.230779 54378 net.cpp:157] Top shape: 16 1024 14 14 (3211264)
I0726 13:43:56.230782 54378 net.cpp:165] Memory required for data: 2899771456
I0726 13:43:56.230788 54378 layer_factory.hpp:77] Creating layer res4a
I0726 13:43:56.230796 54378 net.cpp:100] Creating Layer res4a
I0726 13:43:56.230804 54378 net.cpp:434] res4a <- res4a_branch1
I0726 13:43:56.230809 54378 net.cpp:434] res4a <- res4a_branch2c
I0726 13:43:56.230813 54378 net.cpp:408] res4a -> res4a
I0726 13:43:56.230840 54378 net.cpp:150] Setting up res4a
I0726 13:43:56.230847 54378 net.cpp:157] Top shape: 16 1024 14 14 (3211264)
I0726 13:43:56.230870 54378 net.cpp:165] Memory required for data: 2912616512
I0726 13:43:56.230872 54378 layer_factory.hpp:77] Creating layer res4a_relu
I0726 13:43:56.230880 54378 net.cpp:100] Creating Layer res4a_relu
I0726 13:43:56.230882 54378 net.cpp:434] res4a_relu <- res4a
I0726 13:43:56.230888 54378 net.cpp:395] res4a_relu -> res4a (in-place)
I0726 13:43:56.231053 54378 net.cpp:150] Setting up res4a_relu
I0726 13:43:56.231062 54378 net.cpp:157] Top shape: 16 1024 14 14 (3211264)
I0726 13:43:56.231065 54378 net.cpp:165] Memory required for data: 2925461568
I0726 13:43:56.231070 54378 layer_factory.hpp:77] Creating layer res4a_res4a_relu_0_split
I0726 13:43:56.231076 54378 net.cpp:100] Creating Layer res4a_res4a_relu_0_split
I0726 13:43:56.231078 54378 net.cpp:434] res4a_res4a_relu_0_split <- res4a
I0726 13:43:56.231091 54378 net.cpp:408] res4a_res4a_relu_0_split -> res4a_res4a_relu_0_split_0
I0726 13:43:56.231098 54378 net.cpp:408] res4a_res4a_relu_0_split -> res4a_res4a_relu_0_split_1
I0726 13:43:56.231139 54378 net.cpp:150] Setting up res4a_res4a_relu_0_split
I0726 13:43:56.231148 54378 net.cpp:157] Top shape: 16 1024 14 14 (3211264)
I0726 13:43:56.231153 54378 net.cpp:157] Top shape: 16 1024 14 14 (3211264)
I0726 13:43:56.231154 54378 net.cpp:165] Memory required for data: 2951151680
I0726 13:43:56.231158 54378 layer_factory.hpp:77] Creating layer res4b1_branch2a
I0726 13:43:56.231194 54378 net.cpp:100] Creating Layer res4b1_branch2a
I0726 13:43:56.231199 54378 net.cpp:434] res4b1_branch2a <- res4a_res4a_relu_0_split_0
I0726 13:43:56.231204 54378 net.cpp:408] res4b1_branch2a -> res4b1_branch2a
I0726 13:43:56.239709 54378 net.cpp:150] Setting up res4b1_branch2a
I0726 13:43:56.239735 54378 net.cpp:157] Top shape: 16 256 14 14 (802816)
I0726 13:43:56.239758 54378 net.cpp:165] Memory required for data: 2954362944
I0726 13:43:56.239764 54378 layer_factory.hpp:77] Creating layer bn4b1_branch2a
I0726 13:43:56.239773 54378 net.cpp:100] Creating Layer bn4b1_branch2a
I0726 13:43:56.239778 54378 net.cpp:434] bn4b1_branch2a <- res4b1_branch2a
I0726 13:43:56.239783 54378 net.cpp:395] bn4b1_branch2a -> res4b1_branch2a (in-place)
I0726 13:43:56.240000 54378 net.cpp:150] Setting up bn4b1_branch2a
I0726 13:43:56.240008 54378 net.cpp:157] Top shape: 16 256 14 14 (802816)
I0726 13:43:56.240011 54378 net.cpp:165] Memory required for data: 2957574208
I0726 13:43:56.240018 54378 layer_factory.hpp:77] Creating layer scale4b1_branch2a
I0726 13:43:56.240026 54378 net.cpp:100] Creating Layer scale4b1_branch2a
I0726 13:43:56.240033 54378 net.cpp:434] scale4b1_branch2a <- res4b1_branch2a
I0726 13:43:56.240038 54378 net.cpp:395] scale4b1_branch2a -> res4b1_branch2a (in-place)
I0726 13:43:56.240087 54378 layer_factory.hpp:77] Creating layer scale4b1_branch2a
I0726 13:43:56.240193 54378 net.cpp:150] Setting up scale4b1_branch2a
I0726 13:43:56.240201 54378 net.cpp:157] Top shape: 16 256 14 14 (802816)
I0726 13:43:56.240205 54378 net.cpp:165] Memory required for data: 2960785472
I0726 13:43:56.240211 54378 layer_factory.hpp:77] Creating layer res4b1_branch2a_relu
I0726 13:43:56.240219 54378 net.cpp:100] Creating Layer res4b1_branch2a_relu
I0726 13:43:56.240226 54378 net.cpp:434] res4b1_branch2a_relu <- res4b1_branch2a
I0726 13:43:56.240232 54378 net.cpp:395] res4b1_branch2a_relu -> res4b1_branch2a (in-place)
I0726 13:43:56.240401 54378 net.cpp:150] Setting up res4b1_branch2a_relu
I0726 13:43:56.240409 54378 net.cpp:157] Top shape: 16 256 14 14 (802816)
I0726 13:43:56.240412 54378 net.cpp:165] Memory required for data: 2963996736
I0726 13:43:56.240417 54378 layer_factory.hpp:77] Creating layer res4b1_branch2b
I0726 13:43:56.240427 54378 net.cpp:100] Creating Layer res4b1_branch2b
I0726 13:43:56.240432 54378 net.cpp:434] res4b1_branch2b <- res4b1_branch2a
I0726 13:43:56.240437 54378 net.cpp:408] res4b1_branch2b -> res4b1_branch2b
I0726 13:43:56.256317 54378 net.cpp:150] Setting up res4b1_branch2b
I0726 13:43:56.256371 54378 net.cpp:157] Top shape: 16 256 14 14 (802816)
I0726 13:43:56.256374 54378 net.cpp:165] Memory required for data: 2967208000
I0726 13:43:56.256407 54378 layer_factory.hpp:77] Creating layer bn4b1_branch2b
I0726 13:43:56.256439 54378 net.cpp:100] Creating Layer bn4b1_branch2b
I0726 13:43:56.256444 54378 net.cpp:434] bn4b1_branch2b <- res4b1_branch2b
I0726 13:43:56.256451 54378 net.cpp:395] bn4b1_branch2b -> res4b1_branch2b (in-place)
I0726 13:43:56.256670 54378 net.cpp:150] Setting up bn4b1_branch2b
I0726 13:43:56.256680 54378 net.cpp:157] Top shape: 16 256 14 14 (802816)
I0726 13:43:56.256683 54378 net.cpp:165] Memory required for data: 2970419264
I0726 13:43:56.256692 54378 layer_factory.hpp:77] Creating layer scale4b1_branch2b
I0726 13:43:56.256700 54378 net.cpp:100] Creating Layer scale4b1_branch2b
I0726 13:43:56.256707 54378 net.cpp:434] scale4b1_branch2b <- res4b1_branch2b
I0726 13:43:56.256712 54378 net.cpp:395] scale4b1_branch2b -> res4b1_branch2b (in-place)
I0726 13:43:56.256764 54378 layer_factory.hpp:77] Creating layer scale4b1_branch2b
I0726 13:43:56.256875 54378 net.cpp:150] Setting up scale4b1_branch2b
I0726 13:43:56.256883 54378 net.cpp:157] Top shape: 16 256 14 14 (802816)
I0726 13:43:56.256887 54378 net.cpp:165] Memory required for data: 2973630528
I0726 13:43:56.256893 54378 layer_factory.hpp:77] Creating layer res4b1_branch2b_relu
I0726 13:43:56.256902 54378 net.cpp:100] Creating Layer res4b1_branch2b_relu
I0726 13:43:56.256908 54378 net.cpp:434] res4b1_branch2b_relu <- res4b1_branch2b
I0726 13:43:56.256912 54378 net.cpp:395] res4b1_branch2b_relu -> res4b1_branch2b (in-place)
I0726 13:43:56.257086 54378 net.cpp:150] Setting up res4b1_branch2b_relu
I0726 13:43:56.257095 54378 net.cpp:157] Top shape: 16 256 14 14 (802816)
I0726 13:43:56.257098 54378 net.cpp:165] Memory required for data: 2976841792
I0726 13:43:56.257102 54378 layer_factory.hpp:77] Creating layer res4b1_branch2c
I0726 13:43:56.257117 54378 net.cpp:100] Creating Layer res4b1_branch2c
I0726 13:43:56.257122 54378 net.cpp:434] res4b1_branch2c <- res4b1_branch2b
I0726 13:43:56.257128 54378 net.cpp:408] res4b1_branch2c -> res4b1_branch2c
I0726 13:43:56.264035 54378 net.cpp:150] Setting up res4b1_branch2c
I0726 13:43:56.264055 54378 net.cpp:157] Top shape: 16 1024 14 14 (3211264)
I0726 13:43:56.264058 54378 net.cpp:165] Memory required for data: 2989686848
I0726 13:43:56.264081 54378 layer_factory.hpp:77] Creating layer bn4b1_branch2c
I0726 13:43:56.264108 54378 net.cpp:100] Creating Layer bn4b1_branch2c
I0726 13:43:56.264112 54378 net.cpp:434] bn4b1_branch2c <- res4b1_branch2c
I0726 13:43:56.264117 54378 net.cpp:395] bn4b1_branch2c -> res4b1_branch2c (in-place)
I0726 13:43:56.264333 54378 net.cpp:150] Setting up bn4b1_branch2c
I0726 13:43:56.264343 54378 net.cpp:157] Top shape: 16 1024 14 14 (3211264)
I0726 13:43:56.264346 54378 net.cpp:165] Memory required for data: 3002531904
I0726 13:43:56.264355 54378 layer_factory.hpp:77] Creating layer scale4b1_branch2c
I0726 13:43:56.264366 54378 net.cpp:100] Creating Layer scale4b1_branch2c
I0726 13:43:56.264375 54378 net.cpp:434] scale4b1_branch2c <- res4b1_branch2c
I0726 13:43:56.264380 54378 net.cpp:395] scale4b1_branch2c -> res4b1_branch2c (in-place)
I0726 13:43:56.264422 54378 layer_factory.hpp:77] Creating layer scale4b1_branch2c
I0726 13:43:56.264539 54378 net.cpp:150] Setting up scale4b1_branch2c
I0726 13:43:56.264547 54378 net.cpp:157] Top shape: 16 1024 14 14 (3211264)
I0726 13:43:56.264551 54378 net.cpp:165] Memory required for data: 3015376960
I0726 13:43:56.264557 54378 layer_factory.hpp:77] Creating layer res4b1
I0726 13:43:56.264565 54378 net.cpp:100] Creating Layer res4b1
I0726 13:43:56.264572 54378 net.cpp:434] res4b1 <- res4a_res4a_relu_0_split_1
I0726 13:43:56.264577 54378 net.cpp:434] res4b1 <- res4b1_branch2c
I0726 13:43:56.264581 54378 net.cpp:408] res4b1 -> res4b1
I0726 13:43:56.264609 54378 net.cpp:150] Setting up res4b1
I0726 13:43:56.264616 54378 net.cpp:157] Top shape: 16 1024 14 14 (3211264)
I0726 13:43:56.264619 54378 net.cpp:165] Memory required for data: 3028222016
I0726 13:43:56.264623 54378 layer_factory.hpp:77] Creating layer res4b1_relu
I0726 13:43:56.264631 54378 net.cpp:100] Creating Layer res4b1_relu
I0726 13:43:56.264648 54378 net.cpp:434] res4b1_relu <- res4b1
I0726 13:43:56.264655 54378 net.cpp:395] res4b1_relu -> res4b1 (in-place)
I0726 13:43:56.265131 54378 net.cpp:150] Setting up res4b1_relu
I0726 13:43:56.265146 54378 net.cpp:157] Top shape: 16 1024 14 14 (3211264)
I0726 13:43:56.265149 54378 net.cpp:165] Memory required for data: 3041067072
I0726 13:43:56.265171 54378 layer_factory.hpp:77] Creating layer res4b1_res4b1_relu_0_split
I0726 13:43:56.265177 54378 net.cpp:100] Creating Layer res4b1_res4b1_relu_0_split
I0726 13:43:56.265182 54378 net.cpp:434] res4b1_res4b1_relu_0_split <- res4b1
I0726 13:43:56.265187 54378 net.cpp:408] res4b1_res4b1_relu_0_split -> res4b1_res4b1_relu_0_split_0
I0726 13:43:56.265210 54378 net.cpp:408] res4b1_res4b1_relu_0_split -> res4b1_res4b1_relu_0_split_1
I0726 13:43:56.265256 54378 net.cpp:150] Setting up res4b1_res4b1_relu_0_split
I0726 13:43:56.265264 54378 net.cpp:157] Top shape: 16 1024 14 14 (3211264)
I0726 13:43:56.265267 54378 net.cpp:157] Top shape: 16 1024 14 14 (3211264)
I0726 13:43:56.265270 54378 net.cpp:165] Memory required for data: 3066757184
I0726 13:43:56.265274 54378 layer_factory.hpp:77] Creating layer res4b2_branch2a
I0726 13:43:56.265283 54378 net.cpp:100] Creating Layer res4b2_branch2a
I0726 13:43:56.265290 54378 net.cpp:434] res4b2_branch2a <- res4b1_res4b1_relu_0_split_0
I0726 13:43:56.265295 54378 net.cpp:408] res4b2_branch2a -> res4b2_branch2a
I0726 13:43:56.273524 54378 net.cpp:150] Setting up res4b2_branch2a
I0726 13:43:56.273545 54378 net.cpp:157] Top shape: 16 256 14 14 (802816)
I0726 13:43:56.273566 54378 net.cpp:165] Memory required for data: 3069968448
I0726 13:43:56.273573 54378 layer_factory.hpp:77] Creating layer bn4b2_branch2a
I0726 13:43:56.273581 54378 net.cpp:100] Creating Layer bn4b2_branch2a
I0726 13:43:56.273586 54378 net.cpp:434] bn4b2_branch2a <- res4b2_branch2a
I0726 13:43:56.273592 54378 net.cpp:395] bn4b2_branch2a -> res4b2_branch2a (in-place)
I0726 13:43:56.273823 54378 net.cpp:150] Setting up bn4b2_branch2a
I0726 13:43:56.273831 54378 net.cpp:157] Top shape: 16 256 14 14 (802816)
I0726 13:43:56.273834 54378 net.cpp:165] Memory required for data: 3073179712
I0726 13:43:56.273843 54378 layer_factory.hpp:77] Creating layer scale4b2_branch2a
I0726 13:43:56.273849 54378 net.cpp:100] Creating Layer scale4b2_branch2a
I0726 13:43:56.273857 54378 net.cpp:434] scale4b2_branch2a <- res4b2_branch2a
I0726 13:43:56.273862 54378 net.cpp:395] scale4b2_branch2a -> res4b2_branch2a (in-place)
I0726 13:43:56.273908 54378 layer_factory.hpp:77] Creating layer scale4b2_branch2a
I0726 13:43:56.274021 54378 net.cpp:150] Setting up scale4b2_branch2a
I0726 13:43:56.274030 54378 net.cpp:157] Top shape: 16 256 14 14 (802816)
I0726 13:43:56.274034 54378 net.cpp:165] Memory required for data: 3076390976
I0726 13:43:56.274039 54378 layer_factory.hpp:77] Creating layer res4b2_branch2a_relu
I0726 13:43:56.274046 54378 net.cpp:100] Creating Layer res4b2_branch2a_relu
I0726 13:43:56.274055 54378 net.cpp:434] res4b2_branch2a_relu <- res4b2_branch2a
I0726 13:43:56.274061 54378 net.cpp:395] res4b2_branch2a_relu -> res4b2_branch2a (in-place)
I0726 13:43:56.274224 54378 net.cpp:150] Setting up res4b2_branch2a_relu
I0726 13:43:56.274235 54378 net.cpp:157] Top shape: 16 256 14 14 (802816)
I0726 13:43:56.274238 54378 net.cpp:165] Memory required for data: 3079602240
I0726 13:43:56.274241 54378 layer_factory.hpp:77] Creating layer res4b2_branch2b
I0726 13:43:56.274252 54378 net.cpp:100] Creating Layer res4b2_branch2b
I0726 13:43:56.274257 54378 net.cpp:434] res4b2_branch2b <- res4b2_branch2a
I0726 13:43:56.274266 54378 net.cpp:408] res4b2_branch2b -> res4b2_branch2b
I0726 13:43:56.295047 54378 net.cpp:150] Setting up res4b2_branch2b
I0726 13:43:56.295114 54378 net.cpp:157] Top shape: 16 256 14 14 (802816)
I0726 13:43:56.295121 54378 net.cpp:165] Memory required for data: 3082813504
I0726 13:43:56.295133 54378 layer_factory.hpp:77] Creating layer bn4b2_branch2b
I0726 13:43:56.295193 54378 net.cpp:100] Creating Layer bn4b2_branch2b
I0726 13:43:56.295207 54378 net.cpp:434] bn4b2_branch2b <- res4b2_branch2b
I0726 13:43:56.295238 54378 net.cpp:395] bn4b2_branch2b -> res4b2_branch2b (in-place)
I0726 13:43:56.295538 54378 net.cpp:150] Setting up bn4b2_branch2b
I0726 13:43:56.295547 54378 net.cpp:157] Top shape: 16 256 14 14 (802816)
I0726 13:43:56.295552 54378 net.cpp:165] Memory required for data: 3086024768
I0726 13:43:56.295575 54378 layer_factory.hpp:77] Creating layer scale4b2_branch2b
I0726 13:43:56.295584 54378 net.cpp:100] Creating Layer scale4b2_branch2b
I0726 13:43:56.295588 54378 net.cpp:434] scale4b2_branch2b <- res4b2_branch2b
I0726 13:43:56.295593 54378 net.cpp:395] scale4b2_branch2b -> res4b2_branch2b (in-place)
I0726 13:43:56.295670 54378 layer_factory.hpp:77] Creating layer scale4b2_branch2b
I0726 13:43:56.295815 54378 net.cpp:150] Setting up scale4b2_branch2b
I0726 13:43:56.295825 54378 net.cpp:157] Top shape: 16 256 14 14 (802816)
I0726 13:43:56.295827 54378 net.cpp:165] Memory required for data: 3089236032
I0726 13:43:56.295835 54378 layer_factory.hpp:77] Creating layer res4b2_branch2b_relu
I0726 13:43:56.295850 54378 net.cpp:100] Creating Layer res4b2_branch2b_relu
I0726 13:43:56.295855 54378 net.cpp:434] res4b2_branch2b_relu <- res4b2_branch2b
I0726 13:43:56.295859 54378 net.cpp:395] res4b2_branch2b_relu -> res4b2_branch2b (in-place)
I0726 13:43:56.296038 54378 net.cpp:150] Setting up res4b2_branch2b_relu
I0726 13:43:56.296048 54378 net.cpp:157] Top shape: 16 256 14 14 (802816)
I0726 13:43:56.296051 54378 net.cpp:165] Memory required for data: 3092447296
I0726 13:43:56.296056 54378 layer_factory.hpp:77] Creating layer res4b2_branch2c
I0726 13:43:56.296067 54378 net.cpp:100] Creating Layer res4b2_branch2c
I0726 13:43:56.296072 54378 net.cpp:434] res4b2_branch2c <- res4b2_branch2b
I0726 13:43:56.296079 54378 net.cpp:408] res4b2_branch2c -> res4b2_branch2c
I0726 13:43:56.303040 54378 net.cpp:150] Setting up res4b2_branch2c
I0726 13:43:56.303059 54378 net.cpp:157] Top shape: 16 1024 14 14 (3211264)
I0726 13:43:56.303081 54378 net.cpp:165] Memory required for data: 3105292352
I0726 13:43:56.303087 54378 layer_factory.hpp:77] Creating layer bn4b2_branch2c
I0726 13:43:56.303097 54378 net.cpp:100] Creating Layer bn4b2_branch2c
I0726 13:43:56.303102 54378 net.cpp:434] bn4b2_branch2c <- res4b2_branch2c
I0726 13:43:56.303107 54378 net.cpp:395] bn4b2_branch2c -> res4b2_branch2c (in-place)
I0726 13:43:56.303390 54378 net.cpp:150] Setting up bn4b2_branch2c
I0726 13:43:56.303400 54378 net.cpp:157] Top shape: 16 1024 14 14 (3211264)
I0726 13:43:56.303403 54378 net.cpp:165] Memory required for data: 3118137408
I0726 13:43:56.303411 54378 layer_factory.hpp:77] Creating layer scale4b2_branch2c
I0726 13:43:56.303418 54378 net.cpp:100] Creating Layer scale4b2_branch2c
I0726 13:43:56.303429 54378 net.cpp:434] scale4b2_branch2c <- res4b2_branch2c
I0726 13:43:56.303436 54378 net.cpp:395] scale4b2_branch2c -> res4b2_branch2c (in-place)
I0726 13:43:56.303481 54378 layer_factory.hpp:77] Creating layer scale4b2_branch2c
I0726 13:43:56.303620 54378 net.cpp:150] Setting up scale4b2_branch2c
I0726 13:43:56.303647 54378 net.cpp:157] Top shape: 16 1024 14 14 (3211264)
I0726 13:43:56.303650 54378 net.cpp:165] Memory required for data: 3130982464
I0726 13:43:56.303656 54378 layer_factory.hpp:77] Creating layer res4b2
I0726 13:43:56.303670 54378 net.cpp:100] Creating Layer res4b2
I0726 13:43:56.303678 54378 net.cpp:434] res4b2 <- res4b1_res4b1_relu_0_split_1
I0726 13:43:56.303681 54378 net.cpp:434] res4b2 <- res4b2_branch2c
I0726 13:43:56.303686 54378 net.cpp:408] res4b2 -> res4b2
I0726 13:43:56.303716 54378 net.cpp:150] Setting up res4b2
I0726 13:43:56.303724 54378 net.cpp:157] Top shape: 16 1024 14 14 (3211264)
I0726 13:43:56.303726 54378 net.cpp:165] Memory required for data: 3143827520
I0726 13:43:56.303730 54378 layer_factory.hpp:77] Creating layer res4b2_relu
I0726 13:43:56.303737 54378 net.cpp:100] Creating Layer res4b2_relu
I0726 13:43:56.303742 54378 net.cpp:434] res4b2_relu <- res4b2
I0726 13:43:56.303746 54378 net.cpp:395] res4b2_relu -> res4b2 (in-place)
I0726 13:43:56.303908 54378 net.cpp:150] Setting up res4b2_relu
I0726 13:43:56.303932 54378 net.cpp:157] Top shape: 16 1024 14 14 (3211264)
I0726 13:43:56.303936 54378 net.cpp:165] Memory required for data: 3156672576
I0726 13:43:56.303939 54378 layer_factory.hpp:77] Creating layer res4b2_res4b2_relu_0_split
I0726 13:43:56.303947 54378 net.cpp:100] Creating Layer res4b2_res4b2_relu_0_split
I0726 13:43:56.303952 54378 net.cpp:434] res4b2_res4b2_relu_0_split <- res4b2
I0726 13:43:56.303957 54378 net.cpp:408] res4b2_res4b2_relu_0_split -> res4b2_res4b2_relu_0_split_0
I0726 13:43:56.303962 54378 net.cpp:408] res4b2_res4b2_relu_0_split -> res4b2_res4b2_relu_0_split_1
I0726 13:43:56.304010 54378 net.cpp:150] Setting up res4b2_res4b2_relu_0_split
I0726 13:43:56.304018 54378 net.cpp:157] Top shape: 16 1024 14 14 (3211264)
I0726 13:43:56.304021 54378 net.cpp:157] Top shape: 16 1024 14 14 (3211264)
I0726 13:43:56.304024 54378 net.cpp:165] Memory required for data: 3182362688
I0726 13:43:56.304028 54378 layer_factory.hpp:77] Creating layer res4b3_branch2a
I0726 13:43:56.304038 54378 net.cpp:100] Creating Layer res4b3_branch2a
I0726 13:43:56.304042 54378 net.cpp:434] res4b3_branch2a <- res4b2_res4b2_relu_0_split_0
I0726 13:43:56.304050 54378 net.cpp:408] res4b3_branch2a -> res4b3_branch2a
I0726 13:43:56.312413 54378 net.cpp:150] Setting up res4b3_branch2a
I0726 13:43:56.312436 54378 net.cpp:157] Top shape: 16 256 14 14 (802816)
I0726 13:43:56.312458 54378 net.cpp:165] Memory required for data: 3185573952
I0726 13:43:56.312464 54378 layer_factory.hpp:77] Creating layer bn4b3_branch2a
I0726 13:43:56.312476 54378 net.cpp:100] Creating Layer bn4b3_branch2a
I0726 13:43:56.312481 54378 net.cpp:434] bn4b3_branch2a <- res4b3_branch2a
I0726 13:43:56.312505 54378 net.cpp:395] bn4b3_branch2a -> res4b3_branch2a (in-place)
I0726 13:43:56.312721 54378 net.cpp:150] Setting up bn4b3_branch2a
I0726 13:43:56.312728 54378 net.cpp:157] Top shape: 16 256 14 14 (802816)
I0726 13:43:56.312732 54378 net.cpp:165] Memory required for data: 3188785216
I0726 13:43:56.312741 54378 layer_factory.hpp:77] Creating layer scale4b3_branch2a
I0726 13:43:56.312752 54378 net.cpp:100] Creating Layer scale4b3_branch2a
I0726 13:43:56.312762 54378 net.cpp:434] scale4b3_branch2a <- res4b3_branch2a
I0726 13:43:56.312767 54378 net.cpp:395] scale4b3_branch2a -> res4b3_branch2a (in-place)
I0726 13:43:56.312814 54378 layer_factory.hpp:77] Creating layer scale4b3_branch2a
I0726 13:43:56.312930 54378 net.cpp:150] Setting up scale4b3_branch2a
I0726 13:43:56.312938 54378 net.cpp:157] Top shape: 16 256 14 14 (802816)
I0726 13:43:56.312942 54378 net.cpp:165] Memory required for data: 3191996480
I0726 13:43:56.312948 54378 layer_factory.hpp:77] Creating layer res4b3_branch2a_relu
I0726 13:43:56.312961 54378 net.cpp:100] Creating Layer res4b3_branch2a_relu
I0726 13:43:56.312965 54378 net.cpp:434] res4b3_branch2a_relu <- res4b3_branch2a
I0726 13:43:56.312970 54378 net.cpp:395] res4b3_branch2a_relu -> res4b3_branch2a (in-place)
I0726 13:43:56.313133 54378 net.cpp:150] Setting up res4b3_branch2a_relu
I0726 13:43:56.313143 54378 net.cpp:157] Top shape: 16 256 14 14 (802816)
I0726 13:43:56.313146 54378 net.cpp:165] Memory required for data: 3195207744
I0726 13:43:56.313149 54378 layer_factory.hpp:77] Creating layer res4b3_branch2b
I0726 13:43:56.313160 54378 net.cpp:100] Creating Layer res4b3_branch2b
I0726 13:43:56.313165 54378 net.cpp:434] res4b3_branch2b <- res4b3_branch2a
I0726 13:43:56.313172 54378 net.cpp:408] res4b3_branch2b -> res4b3_branch2b
I0726 13:43:56.329231 54378 net.cpp:150] Setting up res4b3_branch2b
I0726 13:43:56.329288 54378 net.cpp:157] Top shape: 16 256 14 14 (802816)
I0726 13:43:56.329293 54378 net.cpp:165] Memory required for data: 3198419008
I0726 13:43:56.329301 54378 layer_factory.hpp:77] Creating layer bn4b3_branch2b
I0726 13:43:56.329313 54378 net.cpp:100] Creating Layer bn4b3_branch2b
I0726 13:43:56.329319 54378 net.cpp:434] bn4b3_branch2b <- res4b3_branch2b
I0726 13:43:56.329344 54378 net.cpp:395] bn4b3_branch2b -> res4b3_branch2b (in-place)
I0726 13:43:56.329571 54378 net.cpp:150] Setting up bn4b3_branch2b
I0726 13:43:56.329598 54378 net.cpp:157] Top shape: 16 256 14 14 (802816)
I0726 13:43:56.329602 54378 net.cpp:165] Memory required for data: 3201630272
I0726 13:43:56.329612 54378 layer_factory.hpp:77] Creating layer scale4b3_branch2b
I0726 13:43:56.329625 54378 net.cpp:100] Creating Layer scale4b3_branch2b
I0726 13:43:56.329634 54378 net.cpp:434] scale4b3_branch2b <- res4b3_branch2b
I0726 13:43:56.329639 54378 net.cpp:395] scale4b3_branch2b -> res4b3_branch2b (in-place)
I0726 13:43:56.329694 54378 layer_factory.hpp:77] Creating layer scale4b3_branch2b
I0726 13:43:56.329808 54378 net.cpp:150] Setting up scale4b3_branch2b
I0726 13:43:56.329816 54378 net.cpp:157] Top shape: 16 256 14 14 (802816)
I0726 13:43:56.329819 54378 net.cpp:165] Memory required for data: 3204841536
I0726 13:43:56.329825 54378 layer_factory.hpp:77] Creating layer res4b3_branch2b_relu
I0726 13:43:56.329835 54378 net.cpp:100] Creating Layer res4b3_branch2b_relu
I0726 13:43:56.329841 54378 net.cpp:434] res4b3_branch2b_relu <- res4b3_branch2b
I0726 13:43:56.329846 54378 net.cpp:395] res4b3_branch2b_relu -> res4b3_branch2b (in-place)
I0726 13:43:56.330024 54378 net.cpp:150] Setting up res4b3_branch2b_relu
I0726 13:43:56.330034 54378 net.cpp:157] Top shape: 16 256 14 14 (802816)
I0726 13:43:56.330036 54378 net.cpp:165] Memory required for data: 3208052800
I0726 13:43:56.330039 54378 layer_factory.hpp:77] Creating layer res4b3_branch2c
I0726 13:43:56.330052 54378 net.cpp:100] Creating Layer res4b3_branch2c
I0726 13:43:56.330057 54378 net.cpp:434] res4b3_branch2c <- res4b3_branch2b
I0726 13:43:56.330065 54378 net.cpp:408] res4b3_branch2c -> res4b3_branch2c
I0726 13:43:56.336946 54378 net.cpp:150] Setting up res4b3_branch2c
I0726 13:43:56.336964 54378 net.cpp:157] Top shape: 16 1024 14 14 (3211264)
I0726 13:43:56.336968 54378 net.cpp:165] Memory required for data: 3220897856
I0726 13:43:56.336990 54378 layer_factory.hpp:77] Creating layer bn4b3_branch2c
I0726 13:43:56.336998 54378 net.cpp:100] Creating Layer bn4b3_branch2c
I0726 13:43:56.337002 54378 net.cpp:434] bn4b3_branch2c <- res4b3_branch2c
I0726 13:43:56.337009 54378 net.cpp:395] bn4b3_branch2c -> res4b3_branch2c (in-place)
I0726 13:43:56.337266 54378 net.cpp:150] Setting up bn4b3_branch2c
I0726 13:43:56.337275 54378 net.cpp:157] Top shape: 16 1024 14 14 (3211264)
I0726 13:43:56.337278 54378 net.cpp:165] Memory required for data: 3233742912
I0726 13:43:56.337288 54378 layer_factory.hpp:77] Creating layer scale4b3_branch2c
I0726 13:43:56.337301 54378 net.cpp:100] Creating Layer scale4b3_branch2c
I0726 13:43:56.337311 54378 net.cpp:434] scale4b3_branch2c <- res4b3_branch2c
I0726 13:43:56.337314 54378 net.cpp:395] scale4b3_branch2c -> res4b3_branch2c (in-place)
I0726 13:43:56.337358 54378 layer_factory.hpp:77] Creating layer scale4b3_branch2c
I0726 13:43:56.337478 54378 net.cpp:150] Setting up scale4b3_branch2c
I0726 13:43:56.337487 54378 net.cpp:157] Top shape: 16 1024 14 14 (3211264)
I0726 13:43:56.337491 54378 net.cpp:165] Memory required for data: 3246587968
I0726 13:43:56.337496 54378 layer_factory.hpp:77] Creating layer res4b3
I0726 13:43:56.337502 54378 net.cpp:100] Creating Layer res4b3
I0726 13:43:56.337512 54378 net.cpp:434] res4b3 <- res4b2_res4b2_relu_0_split_1
I0726 13:43:56.337517 54378 net.cpp:434] res4b3 <- res4b3_branch2c
I0726 13:43:56.337524 54378 net.cpp:408] res4b3 -> res4b3
I0726 13:43:56.337553 54378 net.cpp:150] Setting up res4b3
I0726 13:43:56.337559 54378 net.cpp:157] Top shape: 16 1024 14 14 (3211264)
I0726 13:43:56.337563 54378 net.cpp:165] Memory required for data: 3259433024
I0726 13:43:56.337565 54378 layer_factory.hpp:77] Creating layer res4b3_relu
I0726 13:43:56.337574 54378 net.cpp:100] Creating Layer res4b3_relu
I0726 13:43:56.337576 54378 net.cpp:434] res4b3_relu <- res4b3
I0726 13:43:56.337580 54378 net.cpp:395] res4b3_relu -> res4b3 (in-place)
I0726 13:43:56.338042 54378 net.cpp:150] Setting up res4b3_relu
I0726 13:43:56.338057 54378 net.cpp:157] Top shape: 16 1024 14 14 (3211264)
I0726 13:43:56.338059 54378 net.cpp:165] Memory required for data: 3272278080
I0726 13:43:56.338096 54378 layer_factory.hpp:77] Creating layer res4b3_res4b3_relu_0_split
I0726 13:43:56.338120 54378 net.cpp:100] Creating Layer res4b3_res4b3_relu_0_split
I0726 13:43:56.338124 54378 net.cpp:434] res4b3_res4b3_relu_0_split <- res4b3
I0726 13:43:56.338129 54378 net.cpp:408] res4b3_res4b3_relu_0_split -> res4b3_res4b3_relu_0_split_0
I0726 13:43:56.338135 54378 net.cpp:408] res4b3_res4b3_relu_0_split -> res4b3_res4b3_relu_0_split_1
I0726 13:43:56.338186 54378 net.cpp:150] Setting up res4b3_res4b3_relu_0_split
I0726 13:43:56.338193 54378 net.cpp:157] Top shape: 16 1024 14 14 (3211264)
I0726 13:43:56.338197 54378 net.cpp:157] Top shape: 16 1024 14 14 (3211264)
I0726 13:43:56.338199 54378 net.cpp:165] Memory required for data: 3297968192
I0726 13:43:56.338222 54378 layer_factory.hpp:77] Creating layer res4b4_branch2a
I0726 13:43:56.338232 54378 net.cpp:100] Creating Layer res4b4_branch2a
I0726 13:43:56.338237 54378 net.cpp:434] res4b4_branch2a <- res4b3_res4b3_relu_0_split_0
I0726 13:43:56.338243 54378 net.cpp:408] res4b4_branch2a -> res4b4_branch2a
I0726 13:43:56.346483 54378 net.cpp:150] Setting up res4b4_branch2a
I0726 13:43:56.346506 54378 net.cpp:157] Top shape: 16 256 14 14 (802816)
I0726 13:43:56.346527 54378 net.cpp:165] Memory required for data: 3301179456
I0726 13:43:56.346534 54378 layer_factory.hpp:77] Creating layer bn4b4_branch2a
I0726 13:43:56.346545 54378 net.cpp:100] Creating Layer bn4b4_branch2a
I0726 13:43:56.346550 54378 net.cpp:434] bn4b4_branch2a <- res4b4_branch2a
I0726 13:43:56.346555 54378 net.cpp:395] bn4b4_branch2a -> res4b4_branch2a (in-place)
I0726 13:43:56.346777 54378 net.cpp:150] Setting up bn4b4_branch2a
I0726 13:43:56.346786 54378 net.cpp:157] Top shape: 16 256 14 14 (802816)
I0726 13:43:56.346791 54378 net.cpp:165] Memory required for data: 3304390720
I0726 13:43:56.346797 54378 layer_factory.hpp:77] Creating layer scale4b4_branch2a
I0726 13:43:56.346804 54378 net.cpp:100] Creating Layer scale4b4_branch2a
I0726 13:43:56.346812 54378 net.cpp:434] scale4b4_branch2a <- res4b4_branch2a
I0726 13:43:56.346817 54378 net.cpp:395] scale4b4_branch2a -> res4b4_branch2a (in-place)
I0726 13:43:56.346865 54378 layer_factory.hpp:77] Creating layer scale4b4_branch2a
I0726 13:43:56.346979 54378 net.cpp:150] Setting up scale4b4_branch2a
I0726 13:43:56.346987 54378 net.cpp:157] Top shape: 16 256 14 14 (802816)
I0726 13:43:56.346990 54378 net.cpp:165] Memory required for data: 3307601984
I0726 13:43:56.346997 54378 layer_factory.hpp:77] Creating layer res4b4_branch2a_relu
I0726 13:43:56.347005 54378 net.cpp:100] Creating Layer res4b4_branch2a_relu
I0726 13:43:56.347012 54378 net.cpp:434] res4b4_branch2a_relu <- res4b4_branch2a
I0726 13:43:56.347017 54378 net.cpp:395] res4b4_branch2a_relu -> res4b4_branch2a (in-place)
I0726 13:43:56.347182 54378 net.cpp:150] Setting up res4b4_branch2a_relu
I0726 13:43:56.347196 54378 net.cpp:157] Top shape: 16 256 14 14 (802816)
I0726 13:43:56.347201 54378 net.cpp:165] Memory required for data: 3310813248
I0726 13:43:56.347204 54378 layer_factory.hpp:77] Creating layer res4b4_branch2b
I0726 13:43:56.347215 54378 net.cpp:100] Creating Layer res4b4_branch2b
I0726 13:43:56.347220 54378 net.cpp:434] res4b4_branch2b <- res4b4_branch2a
I0726 13:43:56.347229 54378 net.cpp:408] res4b4_branch2b -> res4b4_branch2b
I0726 13:43:56.363291 54378 net.cpp:150] Setting up res4b4_branch2b
I0726 13:43:56.363364 54378 net.cpp:157] Top shape: 16 256 14 14 (802816)
I0726 13:43:56.363386 54378 net.cpp:165] Memory required for data: 3314024512
I0726 13:43:56.363394 54378 layer_factory.hpp:77] Creating layer bn4b4_branch2b
I0726 13:43:56.363409 54378 net.cpp:100] Creating Layer bn4b4_branch2b
I0726 13:43:56.363415 54378 net.cpp:434] bn4b4_branch2b <- res4b4_branch2b
I0726 13:43:56.363422 54378 net.cpp:395] bn4b4_branch2b -> res4b4_branch2b (in-place)
I0726 13:43:56.363742 54378 net.cpp:150] Setting up bn4b4_branch2b
I0726 13:43:56.363767 54378 net.cpp:157] Top shape: 16 256 14 14 (802816)
I0726 13:43:56.363770 54378 net.cpp:165] Memory required for data: 3317235776
I0726 13:43:56.363816 54378 layer_factory.hpp:77] Creating layer scale4b4_branch2b
I0726 13:43:56.363823 54378 net.cpp:100] Creating Layer scale4b4_branch2b
I0726 13:43:56.363827 54378 net.cpp:434] scale4b4_branch2b <- res4b4_branch2b
I0726 13:43:56.363833 54378 net.cpp:395] scale4b4_branch2b -> res4b4_branch2b (in-place)
I0726 13:43:56.363888 54378 layer_factory.hpp:77] Creating layer scale4b4_branch2b
I0726 13:43:56.364004 54378 net.cpp:150] Setting up scale4b4_branch2b
I0726 13:43:56.364014 54378 net.cpp:157] Top shape: 16 256 14 14 (802816)
I0726 13:43:56.364017 54378 net.cpp:165] Memory required for data: 3320447040
I0726 13:43:56.364024 54378 layer_factory.hpp:77] Creating layer res4b4_branch2b_relu
I0726 13:43:56.364030 54378 net.cpp:100] Creating Layer res4b4_branch2b_relu
I0726 13:43:56.364038 54378 net.cpp:434] res4b4_branch2b_relu <- res4b4_branch2b
I0726 13:43:56.364043 54378 net.cpp:395] res4b4_branch2b_relu -> res4b4_branch2b (in-place)
I0726 13:43:56.364222 54378 net.cpp:150] Setting up res4b4_branch2b_relu
I0726 13:43:56.364230 54378 net.cpp:157] Top shape: 16 256 14 14 (802816)
I0726 13:43:56.364234 54378 net.cpp:165] Memory required for data: 3323658304
I0726 13:43:56.364238 54378 layer_factory.hpp:77] Creating layer res4b4_branch2c
I0726 13:43:56.364251 54378 net.cpp:100] Creating Layer res4b4_branch2c
I0726 13:43:56.364256 54378 net.cpp:434] res4b4_branch2c <- res4b4_branch2b
I0726 13:43:56.364262 54378 net.cpp:408] res4b4_branch2c -> res4b4_branch2c
I0726 13:43:56.371168 54378 net.cpp:150] Setting up res4b4_branch2c
I0726 13:43:56.371186 54378 net.cpp:157] Top shape: 16 1024 14 14 (3211264)
I0726 13:43:56.371191 54378 net.cpp:165] Memory required for data: 3336503360
I0726 13:43:56.371214 54378 layer_factory.hpp:77] Creating layer bn4b4_branch2c
I0726 13:43:56.371224 54378 net.cpp:100] Creating Layer bn4b4_branch2c
I0726 13:43:56.371228 54378 net.cpp:434] bn4b4_branch2c <- res4b4_branch2c
I0726 13:43:56.371233 54378 net.cpp:395] bn4b4_branch2c -> res4b4_branch2c (in-place)
I0726 13:43:56.371495 54378 net.cpp:150] Setting up bn4b4_branch2c
I0726 13:43:56.371505 54378 net.cpp:157] Top shape: 16 1024 14 14 (3211264)
I0726 13:43:56.371507 54378 net.cpp:165] Memory required for data: 3349348416
I0726 13:43:56.371515 54378 layer_factory.hpp:77] Creating layer scale4b4_branch2c
I0726 13:43:56.371528 54378 net.cpp:100] Creating Layer scale4b4_branch2c
I0726 13:43:56.371539 54378 net.cpp:434] scale4b4_branch2c <- res4b4_branch2c
I0726 13:43:56.371544 54378 net.cpp:395] scale4b4_branch2c -> res4b4_branch2c (in-place)
I0726 13:43:56.371608 54378 layer_factory.hpp:77] Creating layer scale4b4_branch2c
I0726 13:43:56.371753 54378 net.cpp:150] Setting up scale4b4_branch2c
I0726 13:43:56.371762 54378 net.cpp:157] Top shape: 16 1024 14 14 (3211264)
I0726 13:43:56.371764 54378 net.cpp:165] Memory required for data: 3362193472
I0726 13:43:56.371770 54378 layer_factory.hpp:77] Creating layer res4b4
I0726 13:43:56.371779 54378 net.cpp:100] Creating Layer res4b4
I0726 13:43:56.371788 54378 net.cpp:434] res4b4 <- res4b3_res4b3_relu_0_split_1
I0726 13:43:56.371791 54378 net.cpp:434] res4b4 <- res4b4_branch2c
I0726 13:43:56.371796 54378 net.cpp:408] res4b4 -> res4b4
I0726 13:43:56.371826 54378 net.cpp:150] Setting up res4b4
I0726 13:43:56.371834 54378 net.cpp:157] Top shape: 16 1024 14 14 (3211264)
I0726 13:43:56.371836 54378 net.cpp:165] Memory required for data: 3375038528
I0726 13:43:56.371840 54378 layer_factory.hpp:77] Creating layer res4b4_relu
I0726 13:43:56.371845 54378 net.cpp:100] Creating Layer res4b4_relu
I0726 13:43:56.371850 54378 net.cpp:434] res4b4_relu <- res4b4
I0726 13:43:56.371855 54378 net.cpp:395] res4b4_relu -> res4b4 (in-place)
I0726 13:43:56.372020 54378 net.cpp:150] Setting up res4b4_relu
I0726 13:43:56.372028 54378 net.cpp:157] Top shape: 16 1024 14 14 (3211264)
I0726 13:43:56.372031 54378 net.cpp:165] Memory required for data: 3387883584
I0726 13:43:56.372035 54378 layer_factory.hpp:77] Creating layer res4b4_res4b4_relu_0_split
I0726 13:43:56.372042 54378 net.cpp:100] Creating Layer res4b4_res4b4_relu_0_split
I0726 13:43:56.372061 54378 net.cpp:434] res4b4_res4b4_relu_0_split <- res4b4
I0726 13:43:56.372069 54378 net.cpp:408] res4b4_res4b4_relu_0_split -> res4b4_res4b4_relu_0_split_0
I0726 13:43:56.372077 54378 net.cpp:408] res4b4_res4b4_relu_0_split -> res4b4_res4b4_relu_0_split_1
I0726 13:43:56.372123 54378 net.cpp:150] Setting up res4b4_res4b4_relu_0_split
I0726 13:43:56.372131 54378 net.cpp:157] Top shape: 16 1024 14 14 (3211264)
I0726 13:43:56.372135 54378 net.cpp:157] Top shape: 16 1024 14 14 (3211264)
I0726 13:43:56.372138 54378 net.cpp:165] Memory required for data: 3413573696
I0726 13:43:56.372141 54378 layer_factory.hpp:77] Creating layer res4b5_branch2a
I0726 13:43:56.372153 54378 net.cpp:100] Creating Layer res4b5_branch2a
I0726 13:43:56.372159 54378 net.cpp:434] res4b5_branch2a <- res4b4_res4b4_relu_0_split_0
I0726 13:43:56.372164 54378 net.cpp:408] res4b5_branch2a -> res4b5_branch2a
I0726 13:43:56.380297 54378 net.cpp:150] Setting up res4b5_branch2a
I0726 13:43:56.380321 54378 net.cpp:157] Top shape: 16 256 14 14 (802816)
I0726 13:43:56.380344 54378 net.cpp:165] Memory required for data: 3416784960
I0726 13:43:56.380349 54378 layer_factory.hpp:77] Creating layer bn4b5_branch2a
I0726 13:43:56.380359 54378 net.cpp:100] Creating Layer bn4b5_branch2a
I0726 13:43:56.380364 54378 net.cpp:434] bn4b5_branch2a <- res4b5_branch2a
I0726 13:43:56.380369 54378 net.cpp:395] bn4b5_branch2a -> res4b5_branch2a (in-place)
I0726 13:43:56.380609 54378 net.cpp:150] Setting up bn4b5_branch2a
I0726 13:43:56.380617 54378 net.cpp:157] Top shape: 16 256 14 14 (802816)
I0726 13:43:56.380620 54378 net.cpp:165] Memory required for data: 3419996224
I0726 13:43:56.380628 54378 layer_factory.hpp:77] Creating layer scale4b5_branch2a
I0726 13:43:56.380640 54378 net.cpp:100] Creating Layer scale4b5_branch2a
I0726 13:43:56.380650 54378 net.cpp:434] scale4b5_branch2a <- res4b5_branch2a
I0726 13:43:56.380656 54378 net.cpp:395] scale4b5_branch2a -> res4b5_branch2a (in-place)
I0726 13:43:56.380707 54378 layer_factory.hpp:77] Creating layer scale4b5_branch2a
I0726 13:43:56.380820 54378 net.cpp:150] Setting up scale4b5_branch2a
I0726 13:43:56.380828 54378 net.cpp:157] Top shape: 16 256 14 14 (802816)
I0726 13:43:56.380831 54378 net.cpp:165] Memory required for data: 3423207488
I0726 13:43:56.380838 54378 layer_factory.hpp:77] Creating layer res4b5_branch2a_relu
I0726 13:43:56.380851 54378 net.cpp:100] Creating Layer res4b5_branch2a_relu
I0726 13:43:56.380856 54378 net.cpp:434] res4b5_branch2a_relu <- res4b5_branch2a
I0726 13:43:56.380861 54378 net.cpp:395] res4b5_branch2a_relu -> res4b5_branch2a (in-place)
I0726 13:43:56.381026 54378 net.cpp:150] Setting up res4b5_branch2a_relu
I0726 13:43:56.381036 54378 net.cpp:157] Top shape: 16 256 14 14 (802816)
I0726 13:43:56.381038 54378 net.cpp:165] Memory required for data: 3426418752
I0726 13:43:56.381042 54378 layer_factory.hpp:77] Creating layer res4b5_branch2b
I0726 13:43:56.381054 54378 net.cpp:100] Creating Layer res4b5_branch2b
I0726 13:43:56.381059 54378 net.cpp:434] res4b5_branch2b <- res4b5_branch2a
I0726 13:43:56.381065 54378 net.cpp:408] res4b5_branch2b -> res4b5_branch2b
I0726 13:43:56.397163 54378 net.cpp:150] Setting up res4b5_branch2b
I0726 13:43:56.397219 54378 net.cpp:157] Top shape: 16 256 14 14 (802816)
I0726 13:43:56.397224 54378 net.cpp:165] Memory required for data: 3429630016
I0726 13:43:56.397233 54378 layer_factory.hpp:77] Creating layer bn4b5_branch2b
I0726 13:43:56.397266 54378 net.cpp:100] Creating Layer bn4b5_branch2b
I0726 13:43:56.397271 54378 net.cpp:434] bn4b5_branch2b <- res4b5_branch2b
I0726 13:43:56.397296 54378 net.cpp:395] bn4b5_branch2b -> res4b5_branch2b (in-place)
I0726 13:43:56.397532 54378 net.cpp:150] Setting up bn4b5_branch2b
I0726 13:43:56.397541 54378 net.cpp:157] Top shape: 16 256 14 14 (802816)
I0726 13:43:56.397545 54378 net.cpp:165] Memory required for data: 3432841280
I0726 13:43:56.397552 54378 layer_factory.hpp:77] Creating layer scale4b5_branch2b
I0726 13:43:56.397560 54378 net.cpp:100] Creating Layer scale4b5_branch2b
I0726 13:43:56.397569 54378 net.cpp:434] scale4b5_branch2b <- res4b5_branch2b
I0726 13:43:56.397599 54378 net.cpp:395] scale4b5_branch2b -> res4b5_branch2b (in-place)
I0726 13:43:56.397657 54378 layer_factory.hpp:77] Creating layer scale4b5_branch2b
I0726 13:43:56.397778 54378 net.cpp:150] Setting up scale4b5_branch2b
I0726 13:43:56.397786 54378 net.cpp:157] Top shape: 16 256 14 14 (802816)
I0726 13:43:56.397789 54378 net.cpp:165] Memory required for data: 3436052544
I0726 13:43:56.397797 54378 layer_factory.hpp:77] Creating layer res4b5_branch2b_relu
I0726 13:43:56.397804 54378 net.cpp:100] Creating Layer res4b5_branch2b_relu
I0726 13:43:56.397811 54378 net.cpp:434] res4b5_branch2b_relu <- res4b5_branch2b
I0726 13:43:56.397817 54378 net.cpp:395] res4b5_branch2b_relu -> res4b5_branch2b (in-place)
I0726 13:43:56.397995 54378 net.cpp:150] Setting up res4b5_branch2b_relu
I0726 13:43:56.398005 54378 net.cpp:157] Top shape: 16 256 14 14 (802816)
I0726 13:43:56.398008 54378 net.cpp:165] Memory required for data: 3439263808
I0726 13:43:56.398012 54378 layer_factory.hpp:77] Creating layer res4b5_branch2c
I0726 13:43:56.398025 54378 net.cpp:100] Creating Layer res4b5_branch2c
I0726 13:43:56.398030 54378 net.cpp:434] res4b5_branch2c <- res4b5_branch2b
I0726 13:43:56.398037 54378 net.cpp:408] res4b5_branch2c -> res4b5_branch2c
I0726 13:43:56.405110 54378 net.cpp:150] Setting up res4b5_branch2c
I0726 13:43:56.405129 54378 net.cpp:157] Top shape: 16 1024 14 14 (3211264)
I0726 13:43:56.405133 54378 net.cpp:165] Memory required for data: 3452108864
I0726 13:43:56.405155 54378 layer_factory.hpp:77] Creating layer bn4b5_branch2c
I0726 13:43:56.405166 54378 net.cpp:100] Creating Layer bn4b5_branch2c
I0726 13:43:56.405171 54378 net.cpp:434] bn4b5_branch2c <- res4b5_branch2c
I0726 13:43:56.405176 54378 net.cpp:395] bn4b5_branch2c -> res4b5_branch2c (in-place)
I0726 13:43:56.405426 54378 net.cpp:150] Setting up bn4b5_branch2c
I0726 13:43:56.405436 54378 net.cpp:157] Top shape: 16 1024 14 14 (3211264)
I0726 13:43:56.405438 54378 net.cpp:165] Memory required for data: 3464953920
I0726 13:43:56.405447 54378 layer_factory.hpp:77] Creating layer scale4b5_branch2c
I0726 13:43:56.405458 54378 net.cpp:100] Creating Layer scale4b5_branch2c
I0726 13:43:56.405462 54378 net.cpp:434] scale4b5_branch2c <- res4b5_branch2c
I0726 13:43:56.405468 54378 net.cpp:395] scale4b5_branch2c -> res4b5_branch2c (in-place)
I0726 13:43:56.405521 54378 layer_factory.hpp:77] Creating layer scale4b5_branch2c
I0726 13:43:56.405645 54378 net.cpp:150] Setting up scale4b5_branch2c
I0726 13:43:56.405653 54378 net.cpp:157] Top shape: 16 1024 14 14 (3211264)
I0726 13:43:56.405656 54378 net.cpp:165] Memory required for data: 3477798976
I0726 13:43:56.405705 54378 layer_factory.hpp:77] Creating layer res4b5
I0726 13:43:56.405715 54378 net.cpp:100] Creating Layer res4b5
I0726 13:43:56.405720 54378 net.cpp:434] res4b5 <- res4b4_res4b4_relu_0_split_1
I0726 13:43:56.405725 54378 net.cpp:434] res4b5 <- res4b5_branch2c
I0726 13:43:56.405730 54378 net.cpp:408] res4b5 -> res4b5
I0726 13:43:56.405763 54378 net.cpp:150] Setting up res4b5
I0726 13:43:56.405771 54378 net.cpp:157] Top shape: 16 1024 14 14 (3211264)
I0726 13:43:56.405773 54378 net.cpp:165] Memory required for data: 3490644032
I0726 13:43:56.405777 54378 layer_factory.hpp:77] Creating layer res4b5_relu
I0726 13:43:56.405783 54378 net.cpp:100] Creating Layer res4b5_relu
I0726 13:43:56.405787 54378 net.cpp:434] res4b5_relu <- res4b5
I0726 13:43:56.405791 54378 net.cpp:395] res4b5_relu -> res4b5 (in-place)
I0726 13:43:56.406271 54378 net.cpp:150] Setting up res4b5_relu
I0726 13:43:56.406286 54378 net.cpp:157] Top shape: 16 1024 14 14 (3211264)
I0726 13:43:56.406288 54378 net.cpp:165] Memory required for data: 3503489088
I0726 13:43:56.406311 54378 layer_factory.hpp:77] Creating layer res4b5_res4b5_relu_0_split
I0726 13:43:56.406318 54378 net.cpp:100] Creating Layer res4b5_res4b5_relu_0_split
I0726 13:43:56.406322 54378 net.cpp:434] res4b5_res4b5_relu_0_split <- res4b5
I0726 13:43:56.406327 54378 net.cpp:408] res4b5_res4b5_relu_0_split -> res4b5_res4b5_relu_0_split_0
I0726 13:43:56.406366 54378 net.cpp:408] res4b5_res4b5_relu_0_split -> res4b5_res4b5_relu_0_split_1
I0726 13:43:56.406417 54378 net.cpp:150] Setting up res4b5_res4b5_relu_0_split
I0726 13:43:56.406442 54378 net.cpp:157] Top shape: 16 1024 14 14 (3211264)
I0726 13:43:56.406446 54378 net.cpp:157] Top shape: 16 1024 14 14 (3211264)
I0726 13:43:56.406450 54378 net.cpp:165] Memory required for data: 3529179200
I0726 13:43:56.406452 54378 layer_factory.hpp:77] Creating layer res4b6_branch2a
I0726 13:43:56.406469 54378 net.cpp:100] Creating Layer res4b6_branch2a
I0726 13:43:56.406474 54378 net.cpp:434] res4b6_branch2a <- res4b5_res4b5_relu_0_split_0
I0726 13:43:56.406482 54378 net.cpp:408] res4b6_branch2a -> res4b6_branch2a
I0726 13:43:56.414655 54378 net.cpp:150] Setting up res4b6_branch2a
I0726 13:43:56.414677 54378 net.cpp:157] Top shape: 16 256 14 14 (802816)
I0726 13:43:56.414700 54378 net.cpp:165] Memory required for data: 3532390464
I0726 13:43:56.414705 54378 layer_factory.hpp:77] Creating layer bn4b6_branch2a
I0726 13:43:56.414713 54378 net.cpp:100] Creating Layer bn4b6_branch2a
I0726 13:43:56.414719 54378 net.cpp:434] bn4b6_branch2a <- res4b6_branch2a
I0726 13:43:56.414742 54378 net.cpp:395] bn4b6_branch2a -> res4b6_branch2a (in-place)
I0726 13:43:56.414965 54378 net.cpp:150] Setting up bn4b6_branch2a
I0726 13:43:56.414974 54378 net.cpp:157] Top shape: 16 256 14 14 (802816)
I0726 13:43:56.414978 54378 net.cpp:165] Memory required for data: 3535601728
I0726 13:43:56.414986 54378 layer_factory.hpp:77] Creating layer scale4b6_branch2a
I0726 13:43:56.414999 54378 net.cpp:100] Creating Layer scale4b6_branch2a
I0726 13:43:56.415009 54378 net.cpp:434] scale4b6_branch2a <- res4b6_branch2a
I0726 13:43:56.415014 54378 net.cpp:395] scale4b6_branch2a -> res4b6_branch2a (in-place)
I0726 13:43:56.415063 54378 layer_factory.hpp:77] Creating layer scale4b6_branch2a
I0726 13:43:56.415185 54378 net.cpp:150] Setting up scale4b6_branch2a
I0726 13:43:56.415194 54378 net.cpp:157] Top shape: 16 256 14 14 (802816)
I0726 13:43:56.415197 54378 net.cpp:165] Memory required for data: 3538812992
I0726 13:43:56.415204 54378 layer_factory.hpp:77] Creating layer res4b6_branch2a_relu
I0726 13:43:56.415210 54378 net.cpp:100] Creating Layer res4b6_branch2a_relu
I0726 13:43:56.415213 54378 net.cpp:434] res4b6_branch2a_relu <- res4b6_branch2a
I0726 13:43:56.415220 54378 net.cpp:395] res4b6_branch2a_relu -> res4b6_branch2a (in-place)
I0726 13:43:56.415441 54378 net.cpp:150] Setting up res4b6_branch2a_relu
I0726 13:43:56.415452 54378 net.cpp:157] Top shape: 16 256 14 14 (802816)
I0726 13:43:56.415455 54378 net.cpp:165] Memory required for data: 3542024256
I0726 13:43:56.415458 54378 layer_factory.hpp:77] Creating layer res4b6_branch2b
I0726 13:43:56.415472 54378 net.cpp:100] Creating Layer res4b6_branch2b
I0726 13:43:56.415478 54378 net.cpp:434] res4b6_branch2b <- res4b6_branch2a
I0726 13:43:56.415487 54378 net.cpp:408] res4b6_branch2b -> res4b6_branch2b
I0726 13:43:56.431964 54378 net.cpp:150] Setting up res4b6_branch2b
I0726 13:43:56.432019 54378 net.cpp:157] Top shape: 16 256 14 14 (802816)
I0726 13:43:56.432024 54378 net.cpp:165] Memory required for data: 3545235520
I0726 13:43:56.432034 54378 layer_factory.hpp:77] Creating layer bn4b6_branch2b
I0726 13:43:56.432049 54378 net.cpp:100] Creating Layer bn4b6_branch2b
I0726 13:43:56.432054 54378 net.cpp:434] bn4b6_branch2b <- res4b6_branch2b
I0726 13:43:56.432080 54378 net.cpp:395] bn4b6_branch2b -> res4b6_branch2b (in-place)
I0726 13:43:56.432318 54378 net.cpp:150] Setting up bn4b6_branch2b
I0726 13:43:56.432327 54378 net.cpp:157] Top shape: 16 256 14 14 (802816)
I0726 13:43:56.432330 54378 net.cpp:165] Memory required for data: 3548446784
I0726 13:43:56.432338 54378 layer_factory.hpp:77] Creating layer scale4b6_branch2b
I0726 13:43:56.432353 54378 net.cpp:100] Creating Layer scale4b6_branch2b
I0726 13:43:56.432363 54378 net.cpp:434] scale4b6_branch2b <- res4b6_branch2b
I0726 13:43:56.432368 54378 net.cpp:395] scale4b6_branch2b -> res4b6_branch2b (in-place)
I0726 13:43:56.432422 54378 layer_factory.hpp:77] Creating layer scale4b6_branch2b
I0726 13:43:56.432564 54378 net.cpp:150] Setting up scale4b6_branch2b
I0726 13:43:56.432572 54378 net.cpp:157] Top shape: 16 256 14 14 (802816)
I0726 13:43:56.432576 54378 net.cpp:165] Memory required for data: 3551658048
I0726 13:43:56.432582 54378 layer_factory.hpp:77] Creating layer res4b6_branch2b_relu
I0726 13:43:56.432590 54378 net.cpp:100] Creating Layer res4b6_branch2b_relu
I0726 13:43:56.432598 54378 net.cpp:434] res4b6_branch2b_relu <- res4b6_branch2b
I0726 13:43:56.432602 54378 net.cpp:395] res4b6_branch2b_relu -> res4b6_branch2b (in-place)
I0726 13:43:56.432780 54378 net.cpp:150] Setting up res4b6_branch2b_relu
I0726 13:43:56.432788 54378 net.cpp:157] Top shape: 16 256 14 14 (802816)
I0726 13:43:56.432791 54378 net.cpp:165] Memory required for data: 3554869312
I0726 13:43:56.432796 54378 layer_factory.hpp:77] Creating layer res4b6_branch2c
I0726 13:43:56.432808 54378 net.cpp:100] Creating Layer res4b6_branch2c
I0726 13:43:56.432813 54378 net.cpp:434] res4b6_branch2c <- res4b6_branch2b
I0726 13:43:56.432821 54378 net.cpp:408] res4b6_branch2c -> res4b6_branch2c
I0726 13:43:56.439801 54378 net.cpp:150] Setting up res4b6_branch2c
I0726 13:43:56.439821 54378 net.cpp:157] Top shape: 16 1024 14 14 (3211264)
I0726 13:43:56.439841 54378 net.cpp:165] Memory required for data: 3567714368
I0726 13:43:56.439847 54378 layer_factory.hpp:77] Creating layer bn4b6_branch2c
I0726 13:43:56.439858 54378 net.cpp:100] Creating Layer bn4b6_branch2c
I0726 13:43:56.439862 54378 net.cpp:434] bn4b6_branch2c <- res4b6_branch2c
I0726 13:43:56.439867 54378 net.cpp:395] bn4b6_branch2c -> res4b6_branch2c (in-place)
I0726 13:43:56.440122 54378 net.cpp:150] Setting up bn4b6_branch2c
I0726 13:43:56.440134 54378 net.cpp:157] Top shape: 16 1024 14 14 (3211264)
I0726 13:43:56.440136 54378 net.cpp:165] Memory required for data: 3580559424
I0726 13:43:56.440145 54378 layer_factory.hpp:77] Creating layer scale4b6_branch2c
I0726 13:43:56.440156 54378 net.cpp:100] Creating Layer scale4b6_branch2c
I0726 13:43:56.440160 54378 net.cpp:434] scale4b6_branch2c <- res4b6_branch2c
I0726 13:43:56.440165 54378 net.cpp:395] scale4b6_branch2c -> res4b6_branch2c (in-place)
I0726 13:43:56.440212 54378 layer_factory.hpp:77] Creating layer scale4b6_branch2c
I0726 13:43:56.440340 54378 net.cpp:150] Setting up scale4b6_branch2c
I0726 13:43:56.440348 54378 net.cpp:157] Top shape: 16 1024 14 14 (3211264)
I0726 13:43:56.440351 54378 net.cpp:165] Memory required for data: 3593404480
I0726 13:43:56.440357 54378 layer_factory.hpp:77] Creating layer res4b6
I0726 13:43:56.440366 54378 net.cpp:100] Creating Layer res4b6
I0726 13:43:56.440373 54378 net.cpp:434] res4b6 <- res4b5_res4b5_relu_0_split_1
I0726 13:43:56.440377 54378 net.cpp:434] res4b6 <- res4b6_branch2c
I0726 13:43:56.440382 54378 net.cpp:408] res4b6 -> res4b6
I0726 13:43:56.440413 54378 net.cpp:150] Setting up res4b6
I0726 13:43:56.440420 54378 net.cpp:157] Top shape: 16 1024 14 14 (3211264)
I0726 13:43:56.440423 54378 net.cpp:165] Memory required for data: 3606249536
I0726 13:43:56.440426 54378 layer_factory.hpp:77] Creating layer res4b6_relu
I0726 13:43:56.440433 54378 net.cpp:100] Creating Layer res4b6_relu
I0726 13:43:56.440438 54378 net.cpp:434] res4b6_relu <- res4b6
I0726 13:43:56.440443 54378 net.cpp:395] res4b6_relu -> res4b6 (in-place)
I0726 13:43:56.440608 54378 net.cpp:150] Setting up res4b6_relu
I0726 13:43:56.440616 54378 net.cpp:157] Top shape: 16 1024 14 14 (3211264)
I0726 13:43:56.440619 54378 net.cpp:165] Memory required for data: 3619094592
…
I0726 13:43:58.291211 54378 net.cpp:150] Setting up bn4b20_branch2a
I0726 13:43:58.291220 54378 net.cpp:157] Top shape: 15 256 14 14 (752640)
I0726 13:43:58.291224 54378 net.cpp:165] Memory required for data: 4831948980
I0726 13:43:58.291359 54378 layer_factory.hpp:77] Creating layer scale4b20_branch2a
I0726 13:43:58.291370 54378 net.cpp:100] Creating Layer scale4b20_branch2a
I0726 13:43:58.291374 54378 net.cpp:434] scale4b20_branch2a <- res4b20_branch2a
I0726 13:43:58.291379 54378 net.cpp:395] scale4b20_branch2a -> res4b20_branch2a (in-place)
I0726 13:43:58.291442 54378 layer_factory.hpp:77] Creating layer scale4b20_branch2a
I0726 13:43:58.291610 54378 net.cpp:150] Setting up scale4b20_branch2a
I0726 13:43:58.291618 54378 net.cpp:157] Top shape: 15 256 14 14 (752640)
I0726 13:43:58.291621 54378 net.cpp:165] Memory required for data: 4834959540
I0726 13:43:58.291627 54378 layer_factory.hpp:77] Creating layer res4b20_branch2a_relu
I0726 13:43:58.291633 54378 net.cpp:100] Creating Layer res4b20_branch2a_relu
I0726 13:43:58.291636 54378 net.cpp:434] res4b20_branch2a_relu <- res4b20_branch2a
I0726 13:43:58.291642 54378 net.cpp:395] res4b20_branch2a_relu -> res4b20_branch2a (in-place)
I0726 13:43:58.292323 54378 net.cpp:150] Setting up res4b20_branch2a_relu
I0726 13:43:58.292336 54378 net.cpp:157] Top shape: 15 256 14 14 (752640)
I0726 13:43:58.292340 54378 net.cpp:165] Memory required for data: 4837970100
I0726 13:43:58.292361 54378 layer_factory.hpp:77] Creating layer res4b20_branch2b
I0726 13:43:58.292372 54378 net.cpp:100] Creating Layer res4b20_branch2b
I0726 13:43:58.292376 54378 net.cpp:434] res4b20_branch2b <- res4b20_branch2a
I0726 13:43:58.292383 54378 net.cpp:408] res4b20_branch2b -> res4b20_branch2b
I0726 13:43:58.309113 54378 net.cpp:150] Setting up res4b20_branch2b
I0726 13:43:58.309165 54378 net.cpp:157] Top shape: 15 256 14 14 (752640)
I0726 13:43:58.309170 54378 net.cpp:165] Memory required for data: 4840980660
I0726 13:43:58.309180 54378 layer_factory.hpp:77] Creating layer bn4b20_branch2b
I0726 13:43:58.309192 54378 net.cpp:100] Creating Layer bn4b20_branch2b
I0726 13:43:58.309198 54378 net.cpp:434] bn4b20_branch2b <- res4b20_branch2b
I0726 13:43:58.309208 54378 net.cpp:395] bn4b20_branch2b -> res4b20_branch2b (in-place)
I0726 13:43:58.309471 54378 net.cpp:150] Setting up bn4b20_branch2b
I0726 13:43:58.309480 54378 net.cpp:157] Top shape: 15 256 14 14 (752640)
I0726 13:43:58.309484 54378 net.cpp:165] Memory required for data: 4843991220
I0726 13:43:58.309492 54378 layer_factory.hpp:77] Creating layer scale4b20_branch2b
I0726 13:43:58.309500 54378 net.cpp:100] Creating Layer scale4b20_branch2b
I0726 13:43:58.309514 54378 net.cpp:434] scale4b20_branch2b <- res4b20_branch2b
I0726 13:43:58.309520 54378 net.cpp:395] scale4b20_branch2b -> res4b20_branch2b (in-place)
I0726 13:43:58.309579 54378 layer_factory.hpp:77] Creating layer scale4b20_branch2b
I0726 13:43:58.309717 54378 net.cpp:150] Setting up scale4b20_branch2b
I0726 13:43:58.309725 54378 net.cpp:157] Top shape: 15 256 14 14 (752640)
I0726 13:43:58.309728 54378 net.cpp:165] Memory required for data: 4847001780
I0726 13:43:58.309734 54378 layer_factory.hpp:77] Creating layer res4b20_branch2b_relu
I0726 13:43:58.309743 54378 net.cpp:100] Creating Layer res4b20_branch2b_relu
I0726 13:43:58.309751 54378 net.cpp:434] res4b20_branch2b_relu <- res4b20_branch2b
I0726 13:43:58.309756 54378 net.cpp:395] res4b20_branch2b_relu -> res4b20_branch2b (in-place)
I0726 13:43:58.309967 54378 net.cpp:150] Setting up res4b20_branch2b_relu
I0726 13:43:58.309976 54378 net.cpp:157] Top shape: 15 256 14 14 (752640)
I0726 13:43:58.309979 54378 net.cpp:165] Memory required for data: 4850012340
I0726 13:43:58.309983 54378 layer_factory.hpp:77] Creating layer res4b20_branch2c
I0726 13:43:58.310019 54378 net.cpp:100] Creating Layer res4b20_branch2c
I0726 13:43:58.310026 54378 net.cpp:434] res4b20_branch2c <- res4b20_branch2b
I0726 13:43:58.310034 54378 net.cpp:408] res4b20_branch2c -> res4b20_branch2c
I0726 13:43:58.318652 54378 net.cpp:150] Setting up res4b20_branch2c
I0726 13:43:58.318675 54378 net.cpp:157] Top shape: 15 1024 14 14 (3010560)
I0726 13:43:58.318696 54378 net.cpp:165] Memory required for data: 4862054580
I0726 13:43:58.318702 54378 layer_factory.hpp:77] Creating layer bn4b20_branch2c
I0726 13:43:58.318714 54378 net.cpp:100] Creating Layer bn4b20_branch2c
I0726 13:43:58.318719 54378 net.cpp:434] bn4b20_branch2c <- res4b20_branch2c
I0726 13:43:58.318723 54378 net.cpp:395] bn4b20_branch2c -> res4b20_branch2c (in-place)
I0726 13:43:58.319011 54378 net.cpp:150] Setting up bn4b20_branch2c
I0726 13:43:58.319036 54378 net.cpp:157] Top shape: 15 1024 14 14 (3010560)
I0726 13:43:58.319039 54378 net.cpp:165] Memory required for data: 4874096820
I0726 13:43:58.319066 54378 layer_factory.hpp:77] Creating layer scale4b20_branch2c
I0726 13:43:58.319072 54378 net.cpp:100] Creating Layer scale4b20_branch2c
I0726 13:43:58.319077 54378 net.cpp:434] scale4b20_branch2c <- res4b20_branch2c
I0726 13:43:58.319080 54378 net.cpp:395] scale4b20_branch2c -> res4b20_branch2c (in-place)
I0726 13:43:58.319149 54378 layer_factory.hpp:77] Creating layer scale4b20_branch2c
I0726 13:43:58.319346 54378 net.cpp:150] Setting up scale4b20_branch2c
I0726 13:43:58.319356 54378 net.cpp:157] Top shape: 15 1024 14 14 (3010560)
I0726 13:43:58.319360 54378 net.cpp:165] Memory required for data: 4886139060
I0726 13:43:58.319365 54378 layer_factory.hpp:77] Creating layer res4b20
I0726 13:43:58.319373 54378 net.cpp:100] Creating Layer res4b20
I0726 13:43:58.319378 54378 net.cpp:434] res4b20 <- res4b19_res4b19_relu_0_split_1
I0726 13:43:58.319383 54378 net.cpp:434] res4b20 <- res4b20_branch2c
I0726 13:43:58.319388 54378 net.cpp:408] res4b20 -> res4b20
I0726 13:43:58.319423 54378 net.cpp:150] Setting up res4b20
I0726 13:43:58.319432 54378 net.cpp:157] Top shape: 15 1024 14 14 (3010560)
I0726 13:43:58.319434 54378 net.cpp:165] Memory required for data: 4898181300
I0726 13:43:58.319437 54378 layer_factory.hpp:77] Creating layer res4b20_relu
I0726 13:43:58.319442 54378 net.cpp:100] Creating Layer res4b20_relu
I0726 13:43:58.319447 54378 net.cpp:434] res4b20_relu <- res4b20
I0726 13:43:58.319456 54378 net.cpp:395] res4b20_relu -> res4b20 (in-place)
I0726 13:43:58.319701 54378 net.cpp:150] Setting up res4b20_relu
I0726 13:43:58.319711 54378 net.cpp:157] Top shape: 15 1024 14 14 (3010560)
I0726 13:43:58.319715 54378 net.cpp:165] Memory required for data: 4910223540
I0726 13:43:58.319717 54378 layer_factory.hpp:77] Creating layer res4b20_res4b20_relu_0_split
I0726 13:43:58.319722 54378 net.cpp:100] Creating Layer res4b20_res4b20_relu_0_split
I0726 13:43:58.319726 54378 net.cpp:434] res4b20_res4b20_relu_0_split <- res4b20
I0726 13:43:58.319733 54378 net.cpp:408] res4b20_res4b20_relu_0_split -> res4b20_res4b20_relu_0_split_0
I0726 13:43:58.319739 54378 net.cpp:408] res4b20_res4b20_relu_0_split -> res4b20_res4b20_relu_0_split_1
I0726 13:43:58.319798 54378 net.cpp:150] Setting up res4b20_res4b20_relu_0_split
I0726 13:43:58.319819 54378 net.cpp:157] Top shape: 15 1024 14 14 (3010560)
I0726 13:43:58.319823 54378 net.cpp:157] Top shape: 15 1024 14 14 (3010560)
I0726 13:43:58.319825 54378 net.cpp:165] Memory required for data: 4934308020
I0726 13:43:58.319828 54378 layer_factory.hpp:77] Creating layer res4b21_branch2a
I0726 13:43:58.319839 54378 net.cpp:100] Creating Layer res4b21_branch2a
I0726 13:43:58.319844 54378 net.cpp:434] res4b21_branch2a <- res4b20_res4b20_relu_0_split_0
I0726 13:43:58.319849 54378 net.cpp:408] res4b21_branch2a -> res4b21_branch2a
I0726 13:43:58.326969 54378 net.cpp:150] Setting up res4b21_branch2a
I0726 13:43:58.326987 54378 net.cpp:157] Top shape: 15 256 14 14 (752640)
I0726 13:43:58.327008 54378 net.cpp:165] Memory required for data: 4937318580
I0726 13:43:58.327013 54378 layer_factory.hpp:77] Creating layer bn4b21_branch2a
I0726 13:43:58.327041 54378 net.cpp:100] Creating Layer bn4b21_branch2a
I0726 13:43:58.327046 54378 net.cpp:434] bn4b21_branch2a <- res4b21_branch2a
I0726 13:43:58.327051 54378 net.cpp:395] bn4b21_branch2a -> res4b21_branch2a (in-place)
I0726 13:43:58.327355 54378 net.cpp:150] Setting up bn4b21_branch2a
I0726 13:43:58.327365 54378 net.cpp:157] Top shape: 15 256 14 14 (752640)
I0726 13:43:58.327368 54378 net.cpp:165] Memory required for data: 4940329140
I0726 13:43:58.327392 54378 layer_factory.hpp:77] Creating layer scale4b21_branch2a
I0726 13:43:58.327400 54378 net.cpp:100] Creating Layer scale4b21_branch2a
I0726 13:43:58.327404 54378 net.cpp:434] scale4b21_branch2a <- res4b21_branch2a
I0726 13:43:58.327409 54378 net.cpp:395] scale4b21_branch2a -> res4b21_branch2a (in-place)
I0726 13:43:58.327468 54378 layer_factory.hpp:77] Creating layer scale4b21_branch2a
I0726 13:43:58.327630 54378 net.cpp:150] Setting up scale4b21_branch2a
I0726 13:43:58.327637 54378 net.cpp:157] Top shape: 15 256 14 14 (752640)
I0726 13:43:58.327641 54378 net.cpp:165] Memory required for data: 4943339700
I0726 13:43:58.327646 54378 layer_factory.hpp:77] Creating layer res4b21_branch2a_relu
I0726 13:43:58.327653 54378 net.cpp:100] Creating Layer res4b21_branch2a_relu
I0726 13:43:58.327657 54378 net.cpp:434] res4b21_branch2a_relu <- res4b21_branch2a
I0726 13:43:58.327661 54378 net.cpp:395] res4b21_branch2a_relu -> res4b21_branch2a (in-place)
I0726 13:43:58.327880 54378 net.cpp:150] Setting up res4b21_branch2a_relu
I0726 13:43:58.327889 54378 net.cpp:157] Top shape: 15 256 14 14 (752640)
I0726 13:43:58.327893 54378 net.cpp:165] Memory required for data: 4946350260
I0726 13:43:58.327898 54378 layer_factory.hpp:77] Creating layer res4b21_branch2b
I0726 13:43:58.327908 54378 net.cpp:100] Creating Layer res4b21_branch2b
I0726 13:43:58.327914 54378 net.cpp:434] res4b21_branch2b <- res4b21_branch2a
I0726 13:43:58.327919 54378 net.cpp:408] res4b21_branch2b -> res4b21_branch2b
I0726 13:43:58.344616 54378 net.cpp:150] Setting up res4b21_branch2b
I0726 13:43:58.344669 54378 net.cpp:157] Top shape: 15 256 14 14 (752640)
I0726 13:43:58.344673 54378 net.cpp:165] Memory required for data: 4949360820
I0726 13:43:58.344683 54378 layer_factory.hpp:77] Creating layer bn4b21_branch2b
I0726 13:43:58.344696 54378 net.cpp:100] Creating Layer bn4b21_branch2b
I0726 13:43:58.344703 54378 net.cpp:434] bn4b21_branch2b <- res4b21_branch2b
I0726 13:43:58.344709 54378 net.cpp:395] bn4b21_branch2b -> res4b21_branch2b (in-place)
I0726 13:43:58.344974 54378 net.cpp:150] Setting up bn4b21_branch2b
I0726 13:43:58.344985 54378 net.cpp:157] Top shape: 15 256 14 14 (752640)
I0726 13:43:58.344990 54378 net.cpp:165] Memory required for data: 4952371380
I0726 13:43:58.344996 54378 layer_factory.hpp:77] Creating layer scale4b21_branch2b
I0726 13:43:58.345005 54378 net.cpp:100] Creating Layer scale4b21_branch2b
I0726 13:43:58.345018 54378 net.cpp:434] scale4b21_branch2b <- res4b21_branch2b
I0726 13:43:58.345023 54378 net.cpp:395] scale4b21_branch2b -> res4b21_branch2b (in-place)
I0726 13:43:58.345086 54378 layer_factory.hpp:77] Creating layer scale4b21_branch2b
I0726 13:43:58.345226 54378 net.cpp:150] Setting up scale4b21_branch2b
I0726 13:43:58.345234 54378 net.cpp:157] Top shape: 15 256 14 14 (752640)
I0726 13:43:58.345237 54378 net.cpp:165] Memory required for data: 4955381940
I0726 13:43:58.345242 54378 layer_factory.hpp:77] Creating layer res4b21_branch2b_relu
I0726 13:43:58.345250 54378 net.cpp:100] Creating Layer res4b21_branch2b_relu
I0726 13:43:58.345260 54378 net.cpp:434] res4b21_branch2b_relu <- res4b21_branch2b
I0726 13:43:58.345264 54378 net.cpp:395] res4b21_branch2b_relu -> res4b21_branch2b (in-place)
I0726 13:43:58.345477 54378 net.cpp:150] Setting up res4b21_branch2b_relu
I0726 13:43:58.345487 54378 net.cpp:157] Top shape: 15 256 14 14 (752640)
I0726 13:43:58.345490 54378 net.cpp:165] Memory required for data: 4958392500
I0726 13:43:58.345495 54378 layer_factory.hpp:77] Creating layer res4b21_branch2c
I0726 13:43:58.345508 54378 net.cpp:100] Creating Layer res4b21_branch2c
I0726 13:43:58.345530 54378 net.cpp:434] res4b21_branch2c <- res4b21_branch2b
I0726 13:43:58.345537 54378 net.cpp:408] res4b21_branch2c -> res4b21_branch2c
I0726 13:43:58.354168 54378 net.cpp:150] Setting up res4b21_branch2c
I0726 13:43:58.354192 54378 net.cpp:157] Top shape: 15 1024 14 14 (3010560)
I0726 13:43:58.354213 54378 net.cpp:165] Memory required for data: 4970434740
I0726 13:43:58.354218 54378 layer_factory.hpp:77] Creating layer bn4b21_branch2c
I0726 13:43:58.354229 54378 net.cpp:100] Creating Layer bn4b21_branch2c
I0726 13:43:58.354234 54378 net.cpp:434] bn4b21_branch2c <- res4b21_branch2c
I0726 13:43:58.354239 54378 net.cpp:395] bn4b21_branch2c -> res4b21_branch2c (in-place)
I0726 13:43:58.354531 54378 net.cpp:150] Setting up bn4b21_branch2c
I0726 13:43:58.354555 54378 net.cpp:157] Top shape: 15 1024 14 14 (3010560)
I0726 13:43:58.354558 54378 net.cpp:165] Memory required for data: 4982476980
I0726 13:43:58.354581 54378 layer_factory.hpp:77] Creating layer scale4b21_branch2c
I0726 13:43:58.354588 54378 net.cpp:100] Creating Layer scale4b21_branch2c
I0726 13:43:58.354591 54378 net.cpp:434] scale4b21_branch2c <- res4b21_branch2c
I0726 13:43:58.354598 54378 net.cpp:395] scale4b21_branch2c -> res4b21_branch2c (in-place)
I0726 13:43:58.354665 54378 layer_factory.hpp:77] Creating layer scale4b21_branch2c
I0726 13:43:58.354832 54378 net.cpp:150] Setting up scale4b21_branch2c
I0726 13:43:58.354843 54378 net.cpp:157] Top shape: 15 1024 14 14 (3010560)
I0726 13:43:58.354846 54378 net.cpp:165] Memory required for data: 4994519220
I0726 13:43:58.354852 54378 layer_factory.hpp:77] Creating layer res4b21
I0726 13:43:58.354858 54378 net.cpp:100] Creating Layer res4b21
I0726 13:43:58.354862 54378 net.cpp:434] res4b21 <- res4b20_res4b20_relu_0_split_1
I0726 13:43:58.354866 54378 net.cpp:434] res4b21 <- res4b21_branch2c
I0726 13:43:58.354871 54378 net.cpp:408] res4b21 -> res4b21
I0726 13:43:58.354907 54378 net.cpp:150] Setting up res4b21
I0726 13:43:58.354913 54378 net.cpp:157] Top shape: 15 1024 14 14 (3010560)
I0726 13:43:58.354917 54378 net.cpp:165] Memory required for data: 5006561460
I0726 13:43:58.354919 54378 layer_factory.hpp:77] Creating layer res4b21_relu
I0726 13:43:58.354926 54378 net.cpp:100] Creating Layer res4b21_relu
I0726 13:43:58.354929 54378 net.cpp:434] res4b21_relu <- res4b21
I0726 13:43:58.354934 54378 net.cpp:395] res4b21_relu -> res4b21 (in-place)
I0726 13:43:58.355136 54378 net.cpp:150] Setting up res4b21_relu
I0726 13:43:58.355146 54378 net.cpp:157] Top shape: 15 1024 14 14 (3010560)
I0726 13:43:58.355149 54378 net.cpp:165] Memory required for data: 5018603700
I0726 13:43:58.355154 54378 layer_factory.hpp:77] Creating layer res4b21_res4b21_relu_0_split
I0726 13:43:58.355161 54378 net.cpp:100] Creating Layer res4b21_res4b21_relu_0_split
I0726 13:43:58.355165 54378 net.cpp:434] res4b21_res4b21_relu_0_split <- res4b21
I0726 13:43:58.355170 54378 net.cpp:408] res4b21_res4b21_relu_0_split -> res4b21_res4b21_relu_0_split_0
I0726 13:43:58.355176 54378 net.cpp:408] res4b21_res4b21_relu_0_split -> res4b21_res4b21_relu_0_split_1
I0726 13:43:58.355239 54378 net.cpp:150] Setting up res4b21_res4b21_relu_0_split
I0726 13:43:58.355247 54378 net.cpp:157] Top shape: 15 1024 14 14 (3010560)
I0726 13:43:58.355268 54378 net.cpp:157] Top shape: 15 1024 14 14 (3010560)
I0726 13:43:58.355271 54378 net.cpp:165] Memory required for data: 5042688180
I0726 13:43:58.355291 54378 layer_factory.hpp:77] Creating layer res4b22_branch2a
I0726 13:43:58.355303 54378 net.cpp:100] Creating Layer res4b22_branch2a
I0726 13:43:58.355306 54378 net.cpp:434] res4b22_branch2a <- res4b21_res4b21_relu_0_split_0
I0726 13:43:58.355324 54378 net.cpp:408] res4b22_branch2a -> res4b22_branch2a
I0726 13:43:58.362532 54378 net.cpp:150] Setting up res4b22_branch2a
I0726 13:43:58.362552 54378 net.cpp:157] Top shape: 15 256 14 14 (752640)
I0726 13:43:58.362555 54378 net.cpp:165] Memory required for data: 5045698740
I0726 13:43:58.362577 54378 layer_factory.hpp:77] Creating layer bn4b22_branch2a
I0726 13:43:58.362607 54378 net.cpp:100] Creating Layer bn4b22_branch2a
I0726 13:43:58.362612 54378 net.cpp:434] bn4b22_branch2a <- res4b22_branch2a
I0726 13:43:58.362619 54378 net.cpp:395] bn4b22_branch2a -> res4b22_branch2a (in-place)
I0726 13:43:58.362865 54378 net.cpp:150] Setting up bn4b22_branch2a
I0726 13:43:58.362875 54378 net.cpp:157] Top shape: 15 256 14 14 (752640)
I0726 13:43:58.362879 54378 net.cpp:165] Memory required for data: 5048709300
I0726 13:43:58.362884 54378 layer_factory.hpp:77] Creating layer scale4b22_branch2a
I0726 13:43:58.362891 54378 net.cpp:100] Creating Layer scale4b22_branch2a
I0726 13:43:58.362895 54378 net.cpp:434] scale4b22_branch2a <- res4b22_branch2a
I0726 13:43:58.362901 54378 net.cpp:395] scale4b22_branch2a -> res4b22_branch2a (in-place)
I0726 13:43:58.362972 54378 layer_factory.hpp:77] Creating layer scale4b22_branch2a
I0726 13:43:58.363114 54378 net.cpp:150] Setting up scale4b22_branch2a
I0726 13:43:58.363122 54378 net.cpp:157] Top shape: 15 256 14 14 (752640)
I0726 13:43:58.363126 54378 net.cpp:165] Memory required for data: 5051719860
I0726 13:43:58.363131 54378 layer_factory.hpp:77] Creating layer res4b22_branch2a_relu
I0726 13:43:58.363137 54378 net.cpp:100] Creating Layer res4b22_branch2a_relu
I0726 13:43:58.363142 54378 net.cpp:434] res4b22_branch2a_relu <- res4b22_branch2a
I0726 13:43:58.363145 54378 net.cpp:395] res4b22_branch2a_relu -> res4b22_branch2a (in-place)
I0726 13:43:58.363890 54378 net.cpp:150] Setting up res4b22_branch2a_relu
I0726 13:43:58.363904 54378 net.cpp:157] Top shape: 15 256 14 14 (752640)
I0726 13:43:58.363909 54378 net.cpp:165] Memory required for data: 5054730420
I0726 13:43:58.363929 54378 layer_factory.hpp:77] Creating layer res4b22_branch2b
I0726 13:43:58.363940 54378 net.cpp:100] Creating Layer res4b22_branch2b
I0726 13:43:58.363945 54378 net.cpp:434] res4b22_branch2b <- res4b22_branch2a
I0726 13:43:58.363950 54378 net.cpp:408] res4b22_branch2b -> res4b22_branch2b
I0726 13:43:58.380605 54378 net.cpp:150] Setting up res4b22_branch2b
I0726 13:43:58.380661 54378 net.cpp:157] Top shape: 15 256 14 14 (752640)
I0726 13:43:58.380666 54378 net.cpp:165] Memory required for data: 5057740980
I0726 13:43:58.380673 54378 layer_factory.hpp:77] Creating layer bn4b22_branch2b
I0726 13:43:58.380686 54378 net.cpp:100] Creating Layer bn4b22_branch2b
I0726 13:43:58.380692 54378 net.cpp:434] bn4b22_branch2b <- res4b22_branch2b
I0726 13:43:58.380699 54378 net.cpp:395] bn4b22_branch2b -> res4b22_branch2b (in-place)
I0726 13:43:58.380964 54378 net.cpp:150] Setting up bn4b22_branch2b
I0726 13:43:58.380973 54378 net.cpp:157] Top shape: 15 256 14 14 (752640)
I0726 13:43:58.380977 54378 net.cpp:165] Memory required for data: 5060751540
I0726 13:43:58.380985 54378 layer_factory.hpp:77] Creating layer scale4b22_branch2b
I0726 13:43:58.380991 54378 net.cpp:100] Creating Layer scale4b22_branch2b
I0726 13:43:58.381006 54378 net.cpp:434] scale4b22_branch2b <- res4b22_branch2b
I0726 13:43:58.381011 54378 net.cpp:395] scale4b22_branch2b -> res4b22_branch2b (in-place)
I0726 13:43:58.381073 54378 layer_factory.hpp:77] Creating layer scale4b22_branch2b
I0726 13:43:58.381220 54378 net.cpp:150] Setting up scale4b22_branch2b
I0726 13:43:58.381228 54378 net.cpp:157] Top shape: 15 256 14 14 (752640)
I0726 13:43:58.381232 54378 net.cpp:165] Memory required for data: 5063762100
I0726 13:43:58.381239 54378 layer_factory.hpp:77] Creating layer res4b22_branch2b_relu
I0726 13:43:58.381247 54378 net.cpp:100] Creating Layer res4b22_branch2b_relu
I0726 13:43:58.381254 54378 net.cpp:434] res4b22_branch2b_relu <- res4b22_branch2b
I0726 13:43:58.381260 54378 net.cpp:395] res4b22_branch2b_relu -> res4b22_branch2b (in-place)
I0726 13:43:58.381471 54378 net.cpp:150] Setting up res4b22_branch2b_relu
I0726 13:43:58.381480 54378 net.cpp:157] Top shape: 15 256 14 14 (752640)
I0726 13:43:58.381484 54378 net.cpp:165] Memory required for data: 5066772660
I0726 13:43:58.381487 54378 layer_factory.hpp:77] Creating layer res4b22_branch2c
I0726 13:43:58.381498 54378 net.cpp:100] Creating Layer res4b22_branch2c
I0726 13:43:58.381520 54378 net.cpp:434] res4b22_branch2c <- res4b22_branch2b
I0726 13:43:58.381530 54378 net.cpp:408] res4b22_branch2c -> res4b22_branch2c
I0726 13:43:58.390261 54378 net.cpp:150] Setting up res4b22_branch2c
I0726 13:43:58.390285 54378 net.cpp:157] Top shape: 15 1024 14 14 (3010560)
I0726 13:43:58.390305 54378 net.cpp:165] Memory required for data: 5078814900
I0726 13:43:58.390311 54378 layer_factory.hpp:77] Creating layer bn4b22_branch2c
I0726 13:43:58.390321 54378 net.cpp:100] Creating Layer bn4b22_branch2c
I0726 13:43:58.390326 54378 net.cpp:434] bn4b22_branch2c <- res4b22_branch2c
I0726 13:43:58.390333 54378 net.cpp:395] bn4b22_branch2c -> res4b22_branch2c (in-place)
I0726 13:43:58.390645 54378 net.cpp:150] Setting up bn4b22_branch2c
I0726 13:43:58.390655 54378 net.cpp:157] Top shape: 15 1024 14 14 (3010560)
I0726 13:43:58.390656 54378 net.cpp:165] Memory required for data: 5090857140
I0726 13:43:58.390681 54378 layer_factory.hpp:77] Creating layer scale4b22_branch2c
I0726 13:43:58.390688 54378 net.cpp:100] Creating Layer scale4b22_branch2c
I0726 13:43:58.390692 54378 net.cpp:434] scale4b22_branch2c <- res4b22_branch2c
I0726 13:43:58.390697 54378 net.cpp:395] scale4b22_branch2c -> res4b22_branch2c (in-place)
I0726 13:43:58.390764 54378 layer_factory.hpp:77] Creating layer scale4b22_branch2c
I0726 13:43:58.390938 54378 net.cpp:150] Setting up scale4b22_branch2c
I0726 13:43:58.390949 54378 net.cpp:157] Top shape: 15 1024 14 14 (3010560)
I0726 13:43:58.390951 54378 net.cpp:165] Memory required for data: 5102899380
I0726 13:43:58.390957 54378 layer_factory.hpp:77] Creating layer res4b22
I0726 13:43:58.390964 54378 net.cpp:100] Creating Layer res4b22
I0726 13:43:58.390974 54378 net.cpp:434] res4b22 <- res4b21_res4b21_relu_0_split_1
I0726 13:43:58.390980 54378 net.cpp:434] res4b22 <- res4b22_branch2c
I0726 13:43:58.390983 54378 net.cpp:408] res4b22 -> res4b22
I0726 13:43:58.391019 54378 net.cpp:150] Setting up res4b22
I0726 13:43:58.391028 54378 net.cpp:157] Top shape: 15 1024 14 14 (3010560)
I0726 13:43:58.391031 54378 net.cpp:165] Memory required for data: 5114941620
I0726 13:43:58.391034 54378 layer_factory.hpp:77] Creating layer res4b22_relu
I0726 13:43:58.391041 54378 net.cpp:100] Creating Layer res4b22_relu
I0726 13:43:58.391043 54378 net.cpp:434] res4b22_relu <- res4b22
I0726 13:43:58.391048 54378 net.cpp:395] res4b22_relu -> res4b22 (in-place)
I0726 13:43:58.391278 54378 net.cpp:150] Setting up res4b22_relu
I0726 13:43:58.391288 54378 net.cpp:157] Top shape: 15 1024 14 14 (3010560)
I0726 13:43:58.391293 54378 net.cpp:165] Memory required for data: 5126983860
I0726 13:43:58.391295 54378 layer_factory.hpp:77] Creating layer res4b22_res4b22_relu_0_split
I0726 13:43:58.391301 54378 net.cpp:100] Creating Layer res4b22_res4b22_relu_0_split
I0726 13:43:58.391305 54378 net.cpp:434] res4b22_res4b22_relu_0_split <- res4b22
I0726 13:43:58.391310 54378 net.cpp:408] res4b22_res4b22_relu_0_split -> res4b22_res4b22_relu_0_split_0
I0726 13:43:58.391316 54378 net.cpp:408] res4b22_res4b22_relu_0_split -> res4b22_res4b22_relu_0_split_1
I0726 13:43:58.391374 54378 net.cpp:150] Setting up res4b22_res4b22_relu_0_split
I0726 13:43:58.391381 54378 net.cpp:157] Top shape: 15 1024 14 14 (3010560)
I0726 13:43:58.391386 54378 net.cpp:157] Top shape: 15 1024 14 14 (3010560)
I0726 13:43:58.391388 54378 net.cpp:165] Memory required for data: 5151068340
I0726 13:43:58.391391 54378 layer_factory.hpp:77] Creating layer res5a_branch1
I0726 13:43:58.391402 54378 net.cpp:100] Creating Layer res5a_branch1
I0726 13:43:58.391407 54378 net.cpp:434] res5a_branch1 <- res4b22_res4b22_relu_0_split_0
I0726 13:43:58.391415 54378 net.cpp:408] res5a_branch1 -> res5a_branch1
I0726 13:43:58.443213 54378 net.cpp:150] Setting up res5a_branch1
I0726 13:43:58.443291 54378 net.cpp:157] Top shape: 15 2048 7 7 (1505280)
I0726 13:43:58.443297 54378 net.cpp:165] Memory required for data: 5157089460
I0726 13:43:58.443305 54378 layer_factory.hpp:77] Creating layer bn5a_branch1
I0726 13:43:58.443321 54378 net.cpp:100] Creating Layer bn5a_branch1
I0726 13:43:58.443328 54378 net.cpp:434] bn5a_branch1 <- res5a_branch1
I0726 13:43:58.443357 54378 net.cpp:395] bn5a_branch1 -> res5a_branch1 (in-place)
I0726 13:43:58.443773 54378 net.cpp:150] Setting up bn5a_branch1
I0726 13:43:58.443783 54378 net.cpp:157] Top shape: 15 2048 7 7 (1505280)
I0726 13:43:58.443785 54378 net.cpp:165] Memory required for data: 5163110580
I0726 13:43:58.443809 54378 layer_factory.hpp:77] Creating layer scale5a_branch1
I0726 13:43:58.443819 54378 net.cpp:100] Creating Layer scale5a_branch1
I0726 13:43:58.443822 54378 net.cpp:434] scale5a_branch1 <- res5a_branch1
I0726 13:43:58.443828 54378 net.cpp:395] scale5a_branch1 -> res5a_branch1 (in-place)
I0726 13:43:58.443902 54378 layer_factory.hpp:77] Creating layer scale5a_branch1
I0726 13:43:58.445497 54378 net.cpp:150] Setting up scale5a_branch1
I0726 13:43:58.445511 54378 net.cpp:157] Top shape: 15 2048 7 7 (1505280)
I0726 13:43:58.445514 54378 net.cpp:165] Memory required for data: 5169131700
I0726 13:43:58.445538 54378 layer_factory.hpp:77] Creating layer res5a_branch2a
I0726 13:43:58.445550 54378 net.cpp:100] Creating Layer res5a_branch2a
I0726 13:43:58.445557 54378 net.cpp:434] res5a_branch2a <- res4b22_res4b22_relu_0_split_1
I0726 13:43:58.445564 54378 net.cpp:408] res5a_branch2a -> res5a_branch2a
I0726 13:43:58.460144 54378 net.cpp:150] Setting up res5a_branch2a
I0726 13:43:58.460196 54378 net.cpp:157] Top shape: 15 512 7 7 (376320)
I0726 13:43:58.460201 54378 net.cpp:165] Memory required for data: 5170636980
I0726 13:43:58.460211 54378 layer_factory.hpp:77] Creating layer bn5a_branch2a
I0726 13:43:58.460229 54378 net.cpp:100] Creating Layer bn5a_branch2a
I0726 13:43:58.460235 54378 net.cpp:434] bn5a_branch2a <- res5a_branch2a
I0726 13:43:58.460242 54378 net.cpp:395] bn5a_branch2a -> res5a_branch2a (in-place)
I0726 13:43:58.460485 54378 net.cpp:150] Setting up bn5a_branch2a
I0726 13:43:58.460495 54378 net.cpp:157] Top shape: 15 512 7 7 (376320)
I0726 13:43:58.460499 54378 net.cpp:165] Memory required for data: 5172142260
I0726 13:43:58.460505 54378 layer_factory.hpp:77] Creating layer scale5a_branch2a
I0726 13:43:58.460513 54378 net.cpp:100] Creating Layer scale5a_branch2a
I0726 13:43:58.460517 54378 net.cpp:434] scale5a_branch2a <- res5a_branch2a
I0726 13:43:58.460525 54378 net.cpp:395] scale5a_branch2a -> res5a_branch2a (in-place)
I0726 13:43:58.460604 54378 layer_factory.hpp:77] Creating layer scale5a_branch2a
I0726 13:43:58.460736 54378 net.cpp:150] Setting up scale5a_branch2a
I0726 13:43:58.460744 54378 net.cpp:157] Top shape: 15 512 7 7 (376320)
I0726 13:43:58.460748 54378 net.cpp:165] Memory required for data: 5173647540
I0726 13:43:58.460755 54378 layer_factory.hpp:77] Creating layer res5a_branch2a_relu
I0726 13:43:58.460764 54378 net.cpp:100] Creating Layer res5a_branch2a_relu
I0726 13:43:58.460770 54378 net.cpp:434] res5a_branch2a_relu <- res5a_branch2a
I0726 13:43:58.460775 54378 net.cpp:395] res5a_branch2a_relu -> res5a_branch2a (in-place)
I0726 13:43:58.460983 54378 net.cpp:150] Setting up res5a_branch2a_relu
I0726 13:43:58.460994 54378 net.cpp:157] Top shape: 15 512 7 7 (376320)
I0726 13:43:58.460996 54378 net.cpp:165] Memory required for data: 5175152820
I0726 13:43:58.461000 54378 layer_factory.hpp:77] Creating layer res5a_branch2b
I0726 13:43:58.461009 54378 net.cpp:100] Creating Layer res5a_branch2b
I0726 13:43:58.461017 54378 net.cpp:434] res5a_branch2b <- res5a_branch2a
I0726 13:43:58.461024 54378 net.cpp:408] res5a_branch2b -> res5a_branch2b
I0726 13:43:58.519477 54378 net.cpp:150] Setting up res5a_branch2b
I0726 13:43:58.519536 54378 net.cpp:157] Top shape: 15 512 7 7 (376320)
I0726 13:43:58.519541 54378 net.cpp:165] Memory required for data: 5176658100
I0726 13:43:58.519551 54378 layer_factory.hpp:77] Creating layer bn5a_branch2b
I0726 13:43:58.519582 54378 net.cpp:100] Creating Layer bn5a_branch2b
I0726 13:43:58.519589 54378 net.cpp:434] bn5a_branch2b <- res5a_branch2b
I0726 13:43:58.519614 54378 net.cpp:395] bn5a_branch2b -> res5a_branch2b (in-place)
I0726 13:43:58.519913 54378 net.cpp:150] Setting up bn5a_branch2b
I0726 13:43:58.519923 54378 net.cpp:157] Top shape: 15 512 7 7 (376320)
I0726 13:43:58.519948 54378 net.cpp:165] Memory required for data: 5178163380
I0726 13:43:58.519956 54378 layer_factory.hpp:77] Creating layer scale5a_branch2b
I0726 13:43:58.519982 54378 net.cpp:100] Creating Layer scale5a_branch2b
I0726 13:43:58.519990 54378 net.cpp:434] scale5a_branch2b <- res5a_branch2b
I0726 13:43:58.519995 54378 net.cpp:395] scale5a_branch2b -> res5a_branch2b (in-place)
I0726 13:43:58.520073 54378 layer_factory.hpp:77] Creating layer scale5a_branch2b
I0726 13:43:58.520213 54378 net.cpp:150] Setting up scale5a_branch2b
I0726 13:43:58.520238 54378 net.cpp:157] Top shape: 15 512 7 7 (376320)
I0726 13:43:58.520242 54378 net.cpp:165] Memory required for data: 5179668660
I0726 13:43:58.520248 54378 layer_factory.hpp:77] Creating layer res5a_branch2b_relu
I0726 13:43:58.520257 54378 net.cpp:100] Creating Layer res5a_branch2b_relu
I0726 13:43:58.520265 54378 net.cpp:434] res5a_branch2b_relu <- res5a_branch2b
I0726 13:43:58.520269 54378 net.cpp:395] res5a_branch2b_relu -> res5a_branch2b (in-place)
I0726 13:43:58.520496 54378 net.cpp:150] Setting up res5a_branch2b_relu
I0726 13:43:58.520506 54378 net.cpp:157] Top shape: 15 512 7 7 (376320)
I0726 13:43:58.520512 54378 net.cpp:165] Memory required for data: 5181173940
I0726 13:43:58.520515 54378 layer_factory.hpp:77] Creating layer res5a_branch2c
I0726 13:43:58.520526 54378 net.cpp:100] Creating Layer res5a_branch2c
I0726 13:43:58.520531 54378 net.cpp:434] res5a_branch2c <- res5a_branch2b
I0726 13:43:58.520539 54378 net.cpp:408] res5a_branch2c -> res5a_branch2c
I0726 13:43:58.547752 54378 net.cpp:150] Setting up res5a_branch2c
I0726 13:43:58.547811 54378 net.cpp:157] Top shape: 15 2048 7 7 (1505280)
I0726 13:43:58.547816 54378 net.cpp:165] Memory required for data: 5187195060
I0726 13:43:58.547824 54378 layer_factory.hpp:77] Creating layer bn5a_branch2c
I0726 13:43:58.547842 54378 net.cpp:100] Creating Layer bn5a_branch2c
I0726 13:43:58.547848 54378 net.cpp:434] bn5a_branch2c <- res5a_branch2c
I0726 13:43:58.547873 54378 net.cpp:395] bn5a_branch2c -> res5a_branch2c (in-place)
I0726 13:43:58.548151 54378 net.cpp:150] Setting up bn5a_branch2c
I0726 13:43:58.548161 54378 net.cpp:157] Top shape: 15 2048 7 7 (1505280)
I0726 13:43:58.548163 54378 net.cpp:165] Memory required for data: 5193216180
I0726 13:43:58.548188 54378 layer_factory.hpp:77] Creating layer scale5a_branch2c
I0726 13:43:58.548213 54378 net.cpp:100] Creating Layer scale5a_branch2c
I0726 13:43:58.548218 54378 net.cpp:434] scale5a_branch2c <- res5a_branch2c
I0726 13:43:58.548223 54378 net.cpp:395] scale5a_branch2c -> res5a_branch2c (in-place)
I0726 13:43:58.548296 54378 layer_factory.hpp:77] Creating layer scale5a_branch2c
I0726 13:43:58.548435 54378 net.cpp:150] Setting up scale5a_branch2c
I0726 13:43:58.548444 54378 net.cpp:157] Top shape: 15 2048 7 7 (1505280)
I0726 13:43:58.548447 54378 net.cpp:165] Memory required for data: 5199237300
I0726 13:43:58.548454 54378 layer_factory.hpp:77] Creating layer res5a
I0726 13:43:58.548463 54378 net.cpp:100] Creating Layer res5a
I0726 13:43:58.548471 54378 net.cpp:434] res5a <- res5a_branch1
I0726 13:43:58.548475 54378 net.cpp:434] res5a <- res5a_branch2c
I0726 13:43:58.548480 54378 net.cpp:408] res5a -> res5a
I0726 13:43:58.548511 54378 net.cpp:150] Setting up res5a
I0726 13:43:58.548517 54378 net.cpp:157] Top shape: 15 2048 7 7 (1505280)
I0726 13:43:58.548521 54378 net.cpp:165] Memory required for data: 5205258420
I0726 13:43:58.548523 54378 layer_factory.hpp:77] Creating layer res5a_relu
I0726 13:43:58.548529 54378 net.cpp:100] Creating Layer res5a_relu
I0726 13:43:58.548533 54378 net.cpp:434] res5a_relu <- res5a
I0726 13:43:58.548538 54378 net.cpp:395] res5a_relu -> res5a (in-place)
I0726 13:43:58.548751 54378 net.cpp:150] Setting up res5a_relu
I0726 13:43:58.548761 54378 net.cpp:157] Top shape: 15 2048 7 7 (1505280)
I0726 13:43:58.548764 54378 net.cpp:165] Memory required for data: 5211279540
I0726 13:43:58.548768 54378 layer_factory.hpp:77] Creating layer res5a_res5a_relu_0_split
I0726 13:43:58.548774 54378 net.cpp:100] Creating Layer res5a_res5a_relu_0_split
I0726 13:43:58.548797 54378 net.cpp:434] res5a_res5a_relu_0_split <- res5a
I0726 13:43:58.548805 54378 net.cpp:408] res5a_res5a_relu_0_split -> res5a_res5a_relu_0_split_0
I0726 13:43:58.548811 54378 net.cpp:408] res5a_res5a_relu_0_split -> res5a_res5a_relu_0_split_1
I0726 13:43:58.548871 54378 net.cpp:150] Setting up res5a_res5a_relu_0_split
I0726 13:43:58.548877 54378 net.cpp:157] Top shape: 15 2048 7 7 (1505280)
I0726 13:43:58.548882 54378 net.cpp:157] Top shape: 15 2048 7 7 (1505280)
I0726 13:43:58.548884 54378 net.cpp:165] Memory required for data: 5223321780
I0726 13:43:58.548887 54378 layer_factory.hpp:77] Creating layer res5b_branch2a
I0726 13:43:58.548900 54378 net.cpp:100] Creating Layer res5b_branch2a
I0726 13:43:58.548905 54378 net.cpp:434] res5b_branch2a <- res5a_res5a_relu_0_split_0
I0726 13:43:58.548912 54378 net.cpp:408] res5b_branch2a -> res5b_branch2a
I0726 13:43:58.576225 54378 net.cpp:150] Setting up res5b_branch2a
I0726 13:43:58.576283 54378 net.cpp:157] Top shape: 15 512 7 7 (376320)
I0726 13:43:58.576287 54378 net.cpp:165] Memory required for data: 5224827060
I0726 13:43:58.576297 54378 layer_factory.hpp:77] Creating layer bn5b_branch2a
I0726 13:43:58.576313 54378 net.cpp:100] Creating Layer bn5b_branch2a
I0726 13:43:58.576337 54378 net.cpp:434] bn5b_branch2a <- res5b_branch2a
I0726 13:43:58.576344 54378 net.cpp:395] bn5b_branch2a -> res5b_branch2a (in-place)
I0726 13:43:58.576623 54378 net.cpp:150] Setting up bn5b_branch2a
I0726 13:43:58.576633 54378 net.cpp:157] Top shape: 15 512 7 7 (376320)
I0726 13:43:58.576652 54378 net.cpp:165] Memory required for data: 5226332340
I0726 13:43:58.576658 54378 layer_factory.hpp:77] Creating layer scale5b_branch2a
I0726 13:43:58.576684 54378 net.cpp:100] Creating Layer scale5b_branch2a
I0726 13:43:58.576689 54378 net.cpp:434] scale5b_branch2a <- res5b_branch2a
I0726 13:43:58.576694 54378 net.cpp:395] scale5b_branch2a -> res5b_branch2a (in-place)
I0726 13:43:58.576764 54378 layer_factory.hpp:77] Creating layer scale5b_branch2a
I0726 13:43:58.576901 54378 net.cpp:150] Setting up scale5b_branch2a
I0726 13:43:58.576913 54378 net.cpp:157] Top shape: 15 512 7 7 (376320)
I0726 13:43:58.576916 54378 net.cpp:165] Memory required for data: 5227837620
I0726 13:43:58.576923 54378 layer_factory.hpp:77] Creating layer res5b_branch2a_relu
I0726 13:43:58.576930 54378 net.cpp:100] Creating Layer res5b_branch2a_relu
I0726 13:43:58.576939 54378 net.cpp:434] res5b_branch2a_relu <- res5b_branch2a
I0726 13:43:58.576944 54378 net.cpp:395] res5b_branch2a_relu -> res5b_branch2a (in-place)
I0726 13:43:58.577709 54378 net.cpp:150] Setting up res5b_branch2a_relu
I0726 13:43:58.577723 54378 net.cpp:157] Top shape: 15 512 7 7 (376320)
I0726 13:43:58.577726 54378 net.cpp:165] Memory required for data: 5229342900
I0726 13:43:58.577747 54378 layer_factory.hpp:77] Creating layer res5b_branch2b
I0726 13:43:58.577762 54378 net.cpp:100] Creating Layer res5b_branch2b
I0726 13:43:58.577766 54378 net.cpp:434] res5b_branch2b <- res5b_branch2a
I0726 13:43:58.577788 54378 net.cpp:408] res5b_branch2b -> res5b_branch2b
I0726 13:43:58.635125 54378 net.cpp:150] Setting up res5b_branch2b
I0726 13:43:58.635192 54378 net.cpp:157] Top shape: 15 512 7 7 (376320)
I0726 13:43:58.635196 54378 net.cpp:165] Memory required for data: 5230848180
I0726 13:43:58.635205 54378 layer_factory.hpp:77] Creating layer bn5b_branch2b
I0726 13:43:58.635220 54378 net.cpp:100] Creating Layer bn5b_branch2b
I0726 13:43:58.635226 54378 net.cpp:434] bn5b_branch2b <- res5b_branch2b
I0726 13:43:58.635273 54378 net.cpp:395] bn5b_branch2b -> res5b_branch2b (in-place)
I0726 13:43:58.635602 54378 net.cpp:150] Setting up bn5b_branch2b
I0726 13:43:58.635628 54378 net.cpp:157] Top shape: 15 512 7 7 (376320)
I0726 13:43:58.635632 54378 net.cpp:165] Memory required for data: 5232353460
I0726 13:43:58.635655 54378 layer_factory.hpp:77] Creating layer scale5b_branch2b
I0726 13:43:58.635684 54378 net.cpp:100] Creating Layer scale5b_branch2b
I0726 13:43:58.635687 54378 net.cpp:434] scale5b_branch2b <- res5b_branch2b
I0726 13:43:58.635712 54378 net.cpp:395] scale5b_branch2b -> res5b_branch2b (in-place)
I0726 13:43:58.635788 54378 layer_factory.hpp:77] Creating layer scale5b_branch2b
I0726 13:43:58.635927 54378 net.cpp:150] Setting up scale5b_branch2b
I0726 13:43:58.635936 54378 net.cpp:157] Top shape: 15 512 7 7 (376320)
I0726 13:43:58.635939 54378 net.cpp:165] Memory required for data: 5233858740
I0726 13:43:58.635946 54378 layer_factory.hpp:77] Creating layer res5b_branch2b_relu
I0726 13:43:58.635953 54378 net.cpp:100] Creating Layer res5b_branch2b_relu
I0726 13:43:58.635962 54378 net.cpp:434] res5b_branch2b_relu <- res5b_branch2b
I0726 13:43:58.635968 54378 net.cpp:395] res5b_branch2b_relu -> res5b_branch2b (in-place)
I0726 13:43:58.636983 54378 net.cpp:150] Setting up res5b_branch2b_relu
I0726 13:43:58.636997 54378 net.cpp:157] Top shape: 15 512 7 7 (376320)
I0726 13:43:58.637001 54378 net.cpp:165] Memory required for data: 5235364020
I0726 13:43:58.637020 54378 layer_factory.hpp:77] Creating layer res5b_branch2c
I0726 13:43:58.637034 54378 net.cpp:100] Creating Layer res5b_branch2c
I0726 13:43:58.637038 54378 net.cpp:434] res5b_branch2c <- res5b_branch2b
I0726 13:43:58.637063 54378 net.cpp:408] res5b_branch2c -> res5b_branch2c
I0726 13:43:58.664360 54378 net.cpp:150] Setting up res5b_branch2c
I0726 13:43:58.664415 54378 net.cpp:157] Top shape: 15 2048 7 7 (1505280)
I0726 13:43:58.664419 54378 net.cpp:165] Memory required for data: 5241385140
I0726 13:43:58.664429 54378 layer_factory.hpp:77] Creating layer bn5b_branch2c
I0726 13:43:58.664443 54378 net.cpp:100] Creating Layer bn5b_branch2c
I0726 13:43:58.664449 54378 net.cpp:434] bn5b_branch2c <- res5b_branch2c
I0726 13:43:58.664475 54378 net.cpp:395] bn5b_branch2c -> res5b_branch2c (in-place)
I0726 13:43:58.664767 54378 net.cpp:150] Setting up bn5b_branch2c
I0726 13:43:58.664790 54378 net.cpp:157] Top shape: 15 2048 7 7 (1505280)
I0726 13:43:58.664794 54378 net.cpp:165] Memory required for data: 5247406260
I0726 13:43:58.664818 54378 layer_factory.hpp:77] Creating layer scale5b_branch2c
I0726 13:43:58.664825 54378 net.cpp:100] Creating Layer scale5b_branch2c
I0726 13:43:58.664829 54378 net.cpp:434] scale5b_branch2c <- res5b_branch2c
I0726 13:43:58.664834 54378 net.cpp:395] scale5b_branch2c -> res5b_branch2c (in-place)
I0726 13:43:58.664909 54378 layer_factory.hpp:77] Creating layer scale5b_branch2c
I0726 13:43:58.665051 54378 net.cpp:150] Setting up scale5b_branch2c
I0726 13:43:58.665060 54378 net.cpp:157] Top shape: 15 2048 7 7 (1505280)
I0726 13:43:58.665063 54378 net.cpp:165] Memory required for data: 5253427380
I0726 13:43:58.665071 54378 layer_factory.hpp:77] Creating layer res5b
I0726 13:43:58.665076 54378 net.cpp:100] Creating Layer res5b
I0726 13:43:58.665087 54378 net.cpp:434] res5b <- res5a_res5a_relu_0_split_1
I0726 13:43:58.665094 54378 net.cpp:434] res5b <- res5b_branch2c
I0726 13:43:58.665099 54378 net.cpp:408] res5b -> res5b
I0726 13:43:58.665128 54378 net.cpp:150] Setting up res5b
I0726 13:43:58.665134 54378 net.cpp:157] Top shape: 15 2048 7 7 (1505280)
I0726 13:43:58.665138 54378 net.cpp:165] Memory required for data: 5259448500
I0726 13:43:58.665141 54378 layer_factory.hpp:77] Creating layer res5b_relu
I0726 13:43:58.665151 54378 net.cpp:100] Creating Layer res5b_relu
I0726 13:43:58.665156 54378 net.cpp:434] res5b_relu <- res5b
I0726 13:43:58.665161 54378 net.cpp:395] res5b_relu -> res5b (in-place)
I0726 13:43:58.665381 54378 net.cpp:150] Setting up res5b_relu
I0726 13:43:58.665390 54378 net.cpp:157] Top shape: 15 2048 7 7 (1505280)
I0726 13:43:58.665395 54378 net.cpp:165] Memory required for data: 5265469620
I0726 13:43:58.665397 54378 layer_factory.hpp:77] Creating layer res5b_res5b_relu_0_split
I0726 13:43:58.665403 54378 net.cpp:100] Creating Layer res5b_res5b_relu_0_split
I0726 13:43:58.665407 54378 net.cpp:434] res5b_res5b_relu_0_split <- res5b
I0726 13:43:58.665415 54378 net.cpp:408] res5b_res5b_relu_0_split -> res5b_res5b_relu_0_split_0
I0726 13:43:58.665421 54378 net.cpp:408] res5b_res5b_relu_0_split -> res5b_res5b_relu_0_split_1
I0726 13:43:58.665484 54378 net.cpp:150] Setting up res5b_res5b_relu_0_split
I0726 13:43:58.665493 54378 net.cpp:157] Top shape: 15 2048 7 7 (1505280)
I0726 13:43:58.665498 54378 net.cpp:157] Top shape: 15 2048 7 7 (1505280)
I0726 13:43:58.665500 54378 net.cpp:165] Memory required for data: 5277511860
I0726 13:43:58.665503 54378 layer_factory.hpp:77] Creating layer res5c_branch2a
I0726 13:43:58.665513 54378 net.cpp:100] Creating Layer res5c_branch2a
I0726 13:43:58.665518 54378 net.cpp:434] res5c_branch2a <- res5b_res5b_relu_0_split_0
I0726 13:43:58.665525 54378 net.cpp:408] res5c_branch2a -> res5c_branch2a
I0726 13:43:58.692956 54378 net.cpp:150] Setting up res5c_branch2a
I0726 13:43:58.693013 54378 net.cpp:157] Top shape: 15 512 7 7 (376320)
I0726 13:43:58.693018 54378 net.cpp:165] Memory required for data: 5279017140
I0726 13:43:58.693027 54378 layer_factory.hpp:77] Creating layer bn5c_branch2a
I0726 13:43:58.693042 54378 net.cpp:100] Creating Layer bn5c_branch2a
I0726 13:43:58.693049 54378 net.cpp:434] bn5c_branch2a <- res5c_branch2a
I0726 13:43:58.693073 54378 net.cpp:395] bn5c_branch2a -> res5c_branch2a (in-place)
I0726 13:43:58.693358 54378 net.cpp:150] Setting up bn5c_branch2a
I0726 13:43:58.693383 54378 net.cpp:157] Top shape: 15 512 7 7 (376320)
I0726 13:43:58.693387 54378 net.cpp:165] Memory required for data: 5280522420
I0726 13:43:58.693411 54378 layer_factory.hpp:77] Creating layer scale5c_branch2a
I0726 13:43:58.693420 54378 net.cpp:100] Creating Layer scale5c_branch2a
I0726 13:43:58.693424 54378 net.cpp:434] scale5c_branch2a <- res5c_branch2a
I0726 13:43:58.693429 54378 net.cpp:395] scale5c_branch2a -> res5c_branch2a (in-place)
I0726 13:43:58.693501 54378 layer_factory.hpp:77] Creating layer scale5c_branch2a
I0726 13:43:58.693644 54378 net.cpp:150] Setting up scale5c_branch2a
I0726 13:43:58.693651 54378 net.cpp:157] Top shape: 15 512 7 7 (376320)
I0726 13:43:58.693655 54378 net.cpp:165] Memory required for data: 5282027700
I0726 13:43:58.693661 54378 layer_factory.hpp:77] Creating layer res5c_branch2a_relu
I0726 13:43:58.693668 54378 net.cpp:100] Creating Layer res5c_branch2a_relu
I0726 13:43:58.693676 54378 net.cpp:434] res5c_branch2a_relu <- res5c_branch2a
I0726 13:43:58.693683 54378 net.cpp:395] res5c_branch2a_relu -> res5c_branch2a (in-place)
I0726 13:43:58.693897 54378 net.cpp:150] Setting up res5c_branch2a_relu
I0726 13:43:58.693907 54378 net.cpp:157] Top shape: 15 512 7 7 (376320)
I0726 13:43:58.693910 54378 net.cpp:165] Memory required for data: 5283532980
I0726 13:43:58.693914 54378 layer_factory.hpp:77] Creating layer res5c_branch2b
I0726 13:43:58.693927 54378 net.cpp:100] Creating Layer res5c_branch2b
I0726 13:43:58.693933 54378 net.cpp:434] res5c_branch2b <- res5c_branch2a
I0726 13:43:58.693939 54378 net.cpp:408] res5c_branch2b -> res5c_branch2b
I0726 13:43:58.751986 54378 net.cpp:150] Setting up res5c_branch2b
I0726 13:43:58.752044 54378 net.cpp:157] Top shape: 15 512 7 7 (376320)
I0726 13:43:58.752049 54378 net.cpp:165] Memory required for data: 5285038260
I0726 13:43:58.752058 54378 layer_factory.hpp:77] Creating layer bn5c_branch2b
I0726 13:43:58.752074 54378 net.cpp:100] Creating Layer bn5c_branch2b
I0726 13:43:58.752079 54378 net.cpp:434] bn5c_branch2b <- res5c_branch2b
I0726 13:43:58.752104 54378 net.cpp:395] bn5c_branch2b -> res5c_branch2b (in-place)
I0726 13:43:58.752389 54378 net.cpp:150] Setting up bn5c_branch2b
I0726 13:43:58.752414 54378 net.cpp:157] Top shape: 15 512 7 7 (376320)
I0726 13:43:58.752418 54378 net.cpp:165] Memory required for data: 5286543540
I0726 13:43:58.752441 54378 layer_factory.hpp:77] Creating layer scale5c_branch2b
I0726 13:43:58.752450 54378 net.cpp:100] Creating Layer scale5c_branch2b
I0726 13:43:58.752454 54378 net.cpp:434] scale5c_branch2b <- res5c_branch2b
I0726 13:43:58.752460 54378 net.cpp:395] scale5c_branch2b -> res5c_branch2b (in-place)
I0726 13:43:58.752529 54378 layer_factory.hpp:77] Creating layer scale5c_branch2b
I0726 13:43:58.752671 54378 net.cpp:150] Setting up scale5c_branch2b
I0726 13:43:58.752681 54378 net.cpp:157] Top shape: 15 512 7 7 (376320)
I0726 13:43:58.752703 54378 net.cpp:165] Memory required for data: 5288048820
I0726 13:43:58.752710 54378 layer_factory.hpp:77] Creating layer res5c_branch2b_relu
I0726 13:43:58.752725 54378 net.cpp:100] Creating Layer res5c_branch2b_relu
I0726 13:43:58.752734 54378 net.cpp:434] res5c_branch2b_relu <- res5c_branch2b
I0726 13:43:58.752738 54378 net.cpp:395] res5c_branch2b_relu -> res5c_branch2b (in-place)
I0726 13:43:58.752959 54378 net.cpp:150] Setting up res5c_branch2b_relu
I0726 13:43:58.752967 54378 net.cpp:157] Top shape: 15 512 7 7 (376320)
I0726 13:43:58.752971 54378 net.cpp:165] Memory required for data: 5289554100
I0726 13:43:58.752974 54378 layer_factory.hpp:77] Creating layer res5c_branch2c
I0726 13:43:58.752987 54378 net.cpp:100] Creating Layer res5c_branch2c
I0726 13:43:58.752992 54378 net.cpp:434] res5c_branch2c <- res5c_branch2b
I0726 13:43:58.752998 54378 net.cpp:408] res5c_branch2c -> res5c_branch2c
I0726 13:43:58.782966 54378 net.cpp:150] Setting up res5c_branch2c
I0726 13:43:58.783030 54378 net.cpp:157] Top shape: 15 2048 7 7 (1505280)
I0726 13:43:58.783035 54378 net.cpp:165] Memory required for data: 5295575220
I0726 13:43:58.783052 54378 layer_factory.hpp:77] Creating layer bn5c_branch2c
I0726 13:43:58.783084 54378 net.cpp:100] Creating Layer bn5c_branch2c
I0726 13:43:58.783100 54378 net.cpp:434] bn5c_branch2c <- res5c_branch2c
I0726 13:43:58.783109 54378 net.cpp:395] bn5c_branch2c -> res5c_branch2c (in-place)
I0726 13:43:58.783524 54378 net.cpp:150] Setting up bn5c_branch2c
I0726 13:43:58.783535 54378 net.cpp:157] Top shape: 15 2048 7 7 (1505280)
I0726 13:43:58.783538 54378 net.cpp:165] Memory required for data: 5301596340
I0726 13:43:58.783563 54378 layer_factory.hpp:77] Creating layer scale5c_branch2c
I0726 13:43:58.783572 54378 net.cpp:100] Creating Layer scale5c_branch2c
I0726 13:43:58.783576 54378 net.cpp:434] scale5c_branch2c <- res5c_branch2c
I0726 13:43:58.783581 54378 net.cpp:395] scale5c_branch2c -> res5c_branch2c (in-place)
I0726 13:43:58.783740 54378 layer_factory.hpp:77] Creating layer scale5c_branch2c
I0726 13:43:58.783884 54378 net.cpp:150] Setting up scale5c_branch2c
I0726 13:43:58.783892 54378 net.cpp:157] Top shape: 15 2048 7 7 (1505280)
I0726 13:43:58.783895 54378 net.cpp:165] Memory required for data: 5307617460
I0726 13:43:58.783902 54378 layer_factory.hpp:77] Creating layer res5c
I0726 13:43:58.783911 54378 net.cpp:100] Creating Layer res5c
I0726 13:43:58.783920 54378 net.cpp:434] res5c <- res5b_res5b_relu_0_split_1
I0726 13:43:58.783924 54378 net.cpp:434] res5c <- res5c_branch2c
I0726 13:43:58.783931 54378 net.cpp:408] res5c -> res5c
I0726 13:43:58.783967 54378 net.cpp:150] Setting up res5c
I0726 13:43:58.783973 54378 net.cpp:157] Top shape: 15 2048 7 7 (1505280)
I0726 13:43:58.783977 54378 net.cpp:165] Memory required for data: 5313638580
I0726 13:43:58.783979 54378 layer_factory.hpp:77] Creating layer res5c_relu
I0726 13:43:58.783989 54378 net.cpp:100] Creating Layer res5c_relu
I0726 13:43:58.783994 54378 net.cpp:434] res5c_relu <- res5c
I0726 13:43:58.783998 54378 net.cpp:395] res5c_relu -> res5c (in-place)
I0726 13:43:58.784219 54378 net.cpp:150] Setting up res5c_relu
I0726 13:43:58.784229 54378 net.cpp:157] Top shape: 15 2048 7 7 (1505280)
I0726 13:43:58.784231 54378 net.cpp:165] Memory required for data: 5319659700
I0726 13:43:58.784235 54378 layer_factory.hpp:77] Creating layer pool5
I0726 13:43:58.784245 54378 net.cpp:100] Creating Layer pool5
I0726 13:43:58.784250 54378 net.cpp:434] pool5 <- res5c
I0726 13:43:58.784260 54378 net.cpp:408] pool5 -> pool5
I0726 13:43:58.785025 54378 net.cpp:150] Setting up pool5
I0726 13:43:58.785042 54378 net.cpp:157] Top shape: 15 2048 1 1 (30720)
I0726 13:43:58.785063 54378 net.cpp:165] Memory required for data: 5319782580
I0726 13:43:58.785065 54378 layer_factory.hpp:77] Creating layer fc_dog100
I0726 13:43:58.785074 54378 net.cpp:100] Creating Layer fc_dog100
I0726 13:43:58.785079 54378 net.cpp:434] fc_dog100 <- pool5
I0726 13:43:58.785104 54378 net.cpp:408] fc_dog100 -> fc_dog100
I0726 13:43:58.789921 54378 net.cpp:150] Setting up fc_dog100
I0726 13:43:58.789948 54378 net.cpp:157] Top shape: 15 100 (1500)
I0726 13:43:58.789952 54378 net.cpp:165] Memory required for data: 5319788580
I0726 13:43:58.789974 54378 layer_factory.hpp:77] Creating layer fc_dog100_fc_dog100_0_split
I0726 13:43:58.789983 54378 net.cpp:100] Creating Layer fc_dog100_fc_dog100_0_split
I0726 13:43:58.789985 54378 net.cpp:434] fc_dog100_fc_dog100_0_split <- fc_dog100
I0726 13:43:58.789990 54378 net.cpp:408] fc_dog100_fc_dog100_0_split -> fc_dog100_fc_dog100_0_split_0
I0726 13:43:58.789995 54378 net.cpp:408] fc_dog100_fc_dog100_0_split -> fc_dog100_fc_dog100_0_split_1
I0726 13:43:58.790055 54378 net.cpp:150] Setting up fc_dog100_fc_dog100_0_split
I0726 13:43:58.790061 54378 net.cpp:157] Top shape: 15 100 (1500)
I0726 13:43:58.790066 54378 net.cpp:157] Top shape: 15 100 (1500)
I0726 13:43:58.790068 54378 net.cpp:165] Memory required for data: 5319800580
I0726 13:43:58.790071 54378 layer_factory.hpp:77] Creating layer accuracy
I0726 13:43:58.790081 54378 net.cpp:100] Creating Layer accuracy
I0726 13:43:58.790107 54378 net.cpp:434] accuracy <- fc_dog100_fc_dog100_0_split_0
I0726 13:43:58.790112 54378 net.cpp:434] accuracy <- label_data_1_split_0
I0726 13:43:58.790117 54378 net.cpp:408] accuracy -> accuracy
…
