…
I0725 21:13:49.290997 70546 net.cpp:322] The NetState phase (0) differed from the phase (1) specified by a rule in layer accuracy
I0725 21:13:49.291786 70546 net.cpp:58] Initializing net from parameters: 
name: "Oxford102_Resnet50"
state {
  phase: TRAIN
  level: 0
  stage: ""
}
layer {
  name: "data"
  type: "Data"
  top: "data"
  top: "label"
  include {
    phase: TRAIN
  }
  transform_param {
    mirror: true
    crop_size: 224
    mean_file: "/raid/yuanyong/cifar10/lmdb/mean.binaryproto"
  }
  data_param {
    source: "/raid/yuanyong/cifar10/lmdb/train_lmdb"
    batch_size: 16
    backend: LMDB
  }
}
layer {
  name: "conv1"
  type: "Convolution"
  bottom: "data"
  top: "conv1"
  param {
    lr_mult: 1
    decay_mult: 1
  }
  param {
    lr_mult: 2
    decay_mult: 0
  }
  convolution_param {
    num_output: 64
    pad: 3
    kernel_size: 7
    stride: 2
    weight_filler {
      type: "msra"
    }
    bias_filler {
      type: "constant"
      value: 0
    }
  }
}
layer {
  name: "bn_conv1"
  type: "BatchNorm"
  bottom: "conv1"
  top: "conv1"
}
layer {
  name: "scale_conv1"
  type: "Scale"
  bottom: "conv1"
  top: "conv1"
  scale_param {
    bias_term: true
  }
}
layer {
  name: "conv1_relu"
  type: "ReLU"
  bottom: "conv1"
  top: "conv1"
}
layer {
  name: "pool1"
  type: "Pooling"
  bottom: "conv1"
  top: "pool1"
  pooling_param {
    pool: MAX
    kernel_size: 3
    stride: 2
  }
}
layer {
  name: "res2a_branch1"
  type: "Convolution"
  bottom: "pool1"
  top: "res2a_branch1"
  param {
    lr_mult: 1
    decay_mult: 1
  }
  convolution_param {
    num_output: 256
    bias_term: false
    pad: 0
    kernel_size: 1
    stride: 1
    weight_filler {
      type: "msra"
    }
  }
}
layer {
  name: "bn2a_branch1"
  type: "BatchNorm"
  bottom: "res2a_branch1"
  top: "res2a_branch1"
}
layer {
  name: "scale2a_branch1"
  type: "Scale"
  bottom: "res2a_branch1"
  top: "res2a_branch1"
  scale_param {
    bias_term: true
  }
}
layer {
  name: "res2a_branch2a"
  type: "Convolution"
  bottom: "pool1"
  top: "res2a_branch2a"
  param {
    lr_mult: 1
    decay_mult: 1
  }
  convolution_param {
    num_output: 64
    bias_term: false
    pad: 0
    kernel_size: 1
    stride: 1
    weight_filler {
      type: "msra"
    }
  }
}
layer {
  name: "bn2a_branch2a"
  type: "BatchNorm"
  bottom: "res2a_branch2a"
  top: "res2a_branch2a"
}
layer {
  name: "scale2a_branch2a"
  type: "Scale"
  bottom: "res2a_branch2a"
  top: "res2a_branch2a"
  scale_param {
    bias_term: true
  }
}
layer {
  name: "res2a_branch2a_relu"
  type: "ReLU"
  bottom: "res2a_branch2a"
  top: "res2a_branch2a"
}
layer {
  name: "res2a_branch2b"
  type: "Convolution"
  bottom: "res2a_branch2a"
  top: "res2a_branch2b"
  param {
    lr_mult: 1
    decay_mult: 1
  }
  convolution_param {
    num_output: 64
    bias_term: false
    pad: 1
    kernel_size: 3
    stride: 1
    weight_filler {
      type: "msra"
    }
  }
}
layer {
  name: "bn2a_branch2b"
  type: "BatchNorm"
  bottom: "res2a_branch2b"
  top: "res2a_branch2b"
}
layer {
  name: "scale2a_branch2b"
  type: "Scale"
  bottom: "res2a_branch2b"
  top: "res2a_branch2b"
  scale_param {
    bias_term: true
  }
}
layer {
  name: "res2a_branch2b_relu"
  type: "ReLU"
  bottom: "res2a_branch2b"
  top: "res2a_branch2b"
}
layer {
  name: "res2a_branch2c"
  type: "Convolution"
  bottom: "res2a_branch2b"
  top: "res2a_branch2c"
  param {
    lr_mult: 1
    decay_mult: 1
  }
  convolution_param {
    num_output: 256
    bias_term: false
    pad: 0
    kernel_size: 1
    stride: 1
    weight_filler {
      type: "msra"
    }
  }
}
layer {
  name: "bn2a_branch2c"
  type: "BatchNorm"
  bottom: "res2a_branch2c"
  top: "res2a_branch2c"
}
layer {
  name: "scale2a_branch2c"
  type: "Scale"
  bottom: "res2a_branch2c"
  top: "res2a_branch2c"
  scale_param {
    bias_term: true
  }
}
layer {
  name: "res2a"
  type: "Eltwise"
  bottom: "res2a_branch1"
  bottom: "res2a_branch2c"
  top: "res2a"
  eltwise_param {
    operation: SUM
  }
}
layer {
  name: "res2a_relu"
  type: "ReLU"
  bottom: "res2a"
  top: "res2a"
}
layer {
  name: "res2b_branch2a"
  type: "Convolution"
  bottom: "res2a"
  top: "res2b_branch2a"
  param {
    lr_mult: 1
    decay_mult: 1
  }
  convolution_param {
    num_output: 64
    bias_term: false
    pad: 0
    kernel_size: 1
    stride: 1
    weight_filler {
      type: "msra"
    }
  }
}
layer {
  name: "bn2b_branch2a"
  type: "BatchNorm"
  bottom: "res2b_branch2a"
  top: "res2b_branch2a"
}
layer {
  name: "scale2b_branch2a"
  type: "Scale"
  bottom: "res2b_branch2a"
  top: "res2b_branch2a"
  scale_param {
    bias_term: true
  }
}
layer {
  name: "res2b_branch2a_relu"
  type: "ReLU"
  bottom: "res2b_branch2a"
  top: "res2b_branch2a"
}
layer {
  name: "res2b_branch2b"
  type: "Convolution"
  bottom: "res2b_branch2a"
  top: "res2b_branch2b"
  param {
    lr_mult: 1
    decay_mult: 1
  }
  convolution_param {
    num_output: 64
    bias_term: false
    pad: 1
    kernel_size: 3
    stride: 1
    weight_filler {
      type: "msra"
    }
  }
}
layer {
  name: "bn2b_branch2b"
  type: "BatchNorm"
  bottom: "res2b_branch2b"
  top: "res2b_branch2b"
}
layer {
  name: "scale2b_branch2b"
  type: "Scale"
  bottom: "res2b_branch2b"
  top: "res2b_branch2b"
  scale_param {
    bias_term: true
  }
}
layer {
  name: "res2b_branch2b_relu"
  type: "ReLU"
  bottom: "res2b_branch2b"
  top: "res2b_branch2b"
}
layer {
  name: "res2b_branch2c"
  type: "Convolution"
  bottom: "res2b_branch2b"
  top: "res2b_branch2c"
  param {
    lr_mult: 1
    decay_mult: 1
  }
  convolution_param {
    num_output: 256
    bias_term: false
    pad: 0
    kernel_size: 1
    stride: 1
    weight_filler {
      type: "msra"
    }
  }
}
layer {
  name: "bn2b_branch2c"
  type: "BatchNorm"
  bottom: "res2b_branch2c"
  top: "res2b_branch2c"
}
layer {
  name: "scale2b_branch2c"
  type: "Scale"
  bottom: "res2b_branch2c"
  top: "res2b_branch2c"
  scale_param {
    bias_term: true
  }
}
layer {
  name: "res2b"
  type: "Eltwise"
  bottom: "res2a"
  bottom: "res2b_branch2c"
  top: "res2b"
  eltwise_param {
    operation: SUM
  }
}
layer {
  name: "res2b_relu"
  type: "ReLU"
  bottom: "res2b"
  top: "res2b"
}
layer {
  name: "res2c_branch2a"
  type: "Convolution"
  bottom: "res2b"
  top: "res2c_branch2a"
  param {
    lr_mult: 1
    decay_mult: 1
  }
  convolution_param {
    num_output: 64
    bias_term: false
    pad: 0
    kernel_size: 1
    stride: 1
    weight_filler {
      type: "msra"
    }
  }
}
layer {
  name: "bn2c_branch2a"
  type: "BatchNorm"
  bottom: "res2c_branch2a"
  top: "res2c_branch2a"
}
layer {
  name: "scale2c_branch2a"
  type: "Scale"
  bottom: "res2c_branch2a"
  top: "res2c_branch2a"
  scale_param {
    bias_term: true
  }
}
layer {
  name: "res2c_branch2a_relu"
  type: "ReLU"
  bottom: "res2c_branch2a"
  top: "res2c_branch2a"
}
layer {
  name: "res2c_branch2b"
  type: "Convolution"
  bottom: "res2c_branch2a"
  top: "res2c_branch2b"
  param {
    lr_mult: 1
    decay_mult: 1
  }
  convolution_param {
    num_output: 64
    bias_term: false
    pad: 1
    kernel_size: 3
    stride: 1
    weight_filler {
      type: "msra"
    }
  }
}
layer {
  name: "bn2c_branch2b"
  type: "BatchNorm"
  bottom: "res2c_branch2b"
  top: "res2c_branch2b"
}
layer {
  name: "scale2c_branch2b"
  type: "Scale"
  bottom: "res2c_branch2b"
  top: "res2c_branch2b"
  scale_param {
    bias_term: true
  }
}
layer {
  name: "res2c_branch2b_relu"
  type: "ReLU"
  bottom: "res2c_branch2b"
  top: "res2c_branch2b"
}
layer {
  name: "res2c_branch2c"
  type: "Convolution"
  bottom: "res2c_branch2b"
  top: "res2c_branch2c"
  param {
    lr_mult: 1
    decay_mult: 1
  }
  convolution_param {
    num_output: 256
    bias_term: false
    pad: 0
    kernel_size: 1
    stride: 1
    weight_filler {
      type: "msra"
    }
  }
}
layer {
  name: "bn2c_branch2c"
  type: "BatchNorm"
  bottom: "res2c_branch2c"
  top: "res2c_branch2c"
}
layer {
  name: "scale2c_branch2c"
  type: "Scale"
  bottom: "res2c_branch2c"
  top: "res2c_branch2c"
  scale_param {
    bias_term: true
  }
}
layer {
  name: "res2c"
  type: "Eltwise"
  bottom: "res2b"
  bottom: "res2c_branch2c"
  top: "res2c"
  eltwise_param {
    operation: SUM
  }
}
layer {
  name: "res2c_relu"
  type: "ReLU"
  bottom: "res2c"
  top: "res2c"
}
layer {
  name: "res3a_branch1"
  type: "Convolution"
  bottom: "res2c"
  top: "res3a_branch1"
  param {
    lr_mult: 1
    decay_mult: 1
  }
  convolution_param {
    num_output: 512
    bias_term: false
    pad: 0
    kernel_size: 1
    stride: 2
    weight_filler {
      type: "msra"
    }
  }
}
layer {
  name: "bn3a_branch1"
  type: "BatchNorm"
  bottom: "res3a_branch1"
  top: "res3a_branch1"
}
layer {
  name: "scale3a_branch1"
  type: "Scale"
  bottom: "res3a_branch1"
  top: "res3a_branch1"
  scale_param {
    bias_term: true
  }
}
layer {
  name: "res3a_branch2a"
  type: "Convolution"
  bottom: "res2c"
  top: "res3a_branch2a"
  param {
    lr_mult: 1
    decay_mult: 1
  }
  convolution_param {
    num_output: 128
    bias_term: false
    pad: 0
    kernel_size: 1
    stride: 2
    weight_filler {
      type: "msra"
    }
  }
}
layer {
  name: "bn3a_branch2a"
  type: "BatchNorm"
  bottom: "res3a_branch2a"
  top: "res3a_branch2a"
}
layer {
  name: "scale3a_branch2a"
  type: "Scale"
  bottom: "res3a_branch2a"
  top: "res3a_branch2a"
  scale_param {
    bias_term: true
  }
}
layer {
  name: "res3a_branch2a_relu"
  type: "ReLU"
  bottom: "res3a_branch2a"
  top: "res3a_branch2a"
}
layer {
  name: "res3a_branch2b"
  type: "Convolution"
  bottom: "res3a_branch2a"
  top: "res3a_branch2b"
  param {
    lr_mult: 1
    decay_mult: 1
  }
  convolution_param {
    num_output: 128
    bias_term: false
    pad: 1
    kernel_size: 3
    stride: 1
    weight_filler {
      type: "msra"
    }
  }
}
layer {
  name: "bn3a_branch2b"
  type: "BatchNorm"
  bottom: "res3a_branch2b"
  top: "res3a_branch2b"
}
layer {
  name: "scale3a_branch2b"
  type: "Scale"
  bottom: "res3a_branch2b"
  top: "res3a_branch2b"
  scale_param {
    bias_term: true
  }
}
layer {
  name: "res3a_branch2b_relu"
  type: "ReLU"
  bottom: "res3a_branch2b"
  top: "res3a_branch2b"
}
layer {
  name: "res3a_branch2c"
  type: "Convolution"
  bottom: "res3a_branch2b"
  top: "res3a_branch2c"
  param {
    lr_mult: 1
    decay_mult: 1
  }
  convolution_param {
    num_output: 512
    bias_term: false
    pad: 0
    kernel_size: 1
    stride: 1
    weight_filler {
      type: "msra"
    }
  }
}
layer {
  name: "bn3a_branch2c"
  type: "BatchNorm"
  bottom: "res3a_branch2c"
  top: "res3a_branch2c"
}
layer {
  name: "scale3a_branch2c"
  type: "Scale"
  bottom: "res3a_branch2c"
  top: "res3a_branch2c"
  scale_param {
    bias_term: true
  }
}
layer {
  name: "res3a"
  type: "Eltwise"
  bottom: "res3a_branch1"
  bottom: "res3a_branch2c"
  top: "res3a"
  eltwise_param {
    operation: SUM
  }
}
layer {
  name: "res3a_relu"
  type: "ReLU"
  bottom: "res3a"
  top: "res3a"
}
layer {
  name: "res3b_branch2a"
  type: "Convolution"
  bottom: "res3a"
  top: "res3b_branch2a"
  param {
    lr_mult: 1
    decay_mult: 1
  }
  convolution_param {
    num_output: 128
    bias_term: false
    pad: 0
    kernel_size: 1
    stride: 1
    weight_filler {
      type: "msra"
    }
  }
}
layer {
  name: "bn3b_branch2a"
  type: "BatchNorm"
  bottom: "res3b_branch2a"
  top: "res3b_branch2a"
}
layer {
  name: "scale3b_branch2a"
  type: "Scale"
  bottom: "res3b_branch2a"
  top: "res3b_branch2a"
  scale_param {
    bias_term: true
  }
}
layer {
  name: "res3b_branch2a_relu"
  type: "ReLU"
  bottom: "res3b_branch2a"
  top: "res3b_branch2a"
}
layer {
  name: "res3b_branch2b"
  type: "Convolution"
  bottom: "res3b_branch2a"
  top: "res3b_branch2b"
  param {
    lr_mult: 1
    decay_mult: 1
  }
  convolution_param {
    num_output: 128
    bias_term: false
    pad: 1
    kernel_size: 3
    stride: 1
    weight_filler {
      type: "msra"
    }
  }
}
layer {
  name: "bn3b_branch2b"
  type: "BatchNorm"
  bottom: "res3b_branch2b"
  top: "res3b_branch2b"
}
layer {
  name: "scale3b_branch2b"
  type: "Scale"
  bottom: "res3b_branch2b"
  top: "res3b_branch2b"
  scale_param {
    bias_term: true
  }
}
layer {
  name: "res3b_branch2b_relu"
  type: "ReLU"
  bottom: "res3b_branch2b"
  top: "res3b_branch2b"
}
layer {
  name: "res3b_branch2c"
  type: "Convolution"
  bottom: "res3b_branch2b"
  top: "res3b_branch2c"
  param {
    lr_mult: 1
    decay_mult: 1
  }
  convolution_param {
    num_output: 512
    bias_term: false
    pad: 0
    kernel_size: 1
    stride: 1
    weight_filler {
      type: "msra"
    }
  }
}
layer {
  name: "bn3b_branch2c"
  type: "BatchNorm"
  bottom: "res3b_branch2c"
  top: "res3b_branch2c"
}
layer {
  name: "scale3b_branch2c"
  type: "Scale"
  bottom: "res3b_branch2c"
  top: "res3b_branch2c"
  scale_param {
    bias_term: true
  }
}
layer {
  name: "res3b"
  type: "Eltwise"
  bottom: "res3a"
  bottom: "res3b_branch2c"
  top: "res3b"
  eltwise_param {
    operation: SUM
  }
}
layer {
  name: "res3b_relu"
  type: "ReLU"
  bottom: "res3b"
  top: "res3b"
}
layer {
  name: "res3c_branch2a"
  type: "Convolution"
  bottom: "res3b"
  top: "res3c_branch2a"
  param {
    lr_mult: 1
    decay_mult: 1
  }
  convolution_param {
    num_output: 128
    bias_term: false
    pad: 0
    kernel_size: 1
    stride: 1
    weight_filler {
      type: "msra"
    }
  }
}
layer {
  name: "bn3c_branch2a"
  type: "BatchNorm"
  bottom: "res3c_branch2a"
  top: "res3c_branch2a"
}
layer {
  name: "scale3c_branch2a"
  type: "Scale"
  bottom: "res3c_branch2a"
  top: "res3c_branch2a"
  scale_param {
    bias_term: true
  }
}
layer {
  name: "res3c_branch2a_relu"
  type: "ReLU"
  bottom: "res3c_branch2a"
  top: "res3c_branch2a"
}
layer {
  name: "res3c_branch2b"
  type: "Convolution"
  bottom: "res3c_branch2a"
  top: "res3c_branch2b"
  param {
    lr_mult: 1
    decay_mult: 1
  }
  convolution_param {
    num_output: 128
    bias_term: false
    pad: 1
    kernel_size: 3
    stride: 1
    weight_filler {
      type: "msra"
    }
  }
}
layer {
  name: "bn3c_branch2b"
  type: "BatchNorm"
  bottom: "res3c_branch2b"
  top: "res3c_branch2b"
}
layer {
  name: "scale3c_branch2b"
  type: "Scale"
  bottom: "res3c_branch2b"
  top: "res3c_branch2b"
  scale_param {
    bias_term: true
  }
}
layer {
  name: "res3c_branch2b_relu"
  type: "ReLU"
  bottom: "res3c_branch2b"
  top: "res3c_branch2b"
}
layer {
  name: "res3c_branch2c"
  type: "Convolution"
  bottom: "res3c_branch2b"
  top: "res3c_branch2c"
  param {
    lr_mult: 1
    decay_mult: 1
  }
  convolution_param {
    num_output: 512
    bias_term: false
    pad: 0
    kernel_size: 1
    stride: 1
    weight_filler {
      type: "msra"
    }
  }
}
layer {
  name: "bn3c_branch2c"
  type: "BatchNorm"
  bottom: "res3c_branch2c"
  top: "res3c_branch2c"
}
layer {
  name: "scale3c_branch2c"
  type: "Scale"
  bottom: "res3c_branch2c"
  top: "res3c_branch2c"
  scale_param {
    bias_term: true
  }
}
layer {
  name: "res3c"
  type: "Eltwise"
  bottom: "res3b"
  bottom: "res3c_branch2c"
  top: "res3c"
  eltwise_param {
    operation: SUM
  }
}
layer {
  name: "res3c_relu"
  type: "ReLU"
  bottom: "res3c"
  top: "res3c"
}
layer {
  name: "res3d_branch2a"
  type: "Convolution"
  bottom: "res3c"
  top: "res3d_branch2a"
  param {
    lr_mult: 1
    decay_mult: 1
  }
  convolution_param {
    num_output: 128
    bias_term: false
    pad: 0
    kernel_size: 1
    stride: 1
    weight_filler {
      type: "msra"
    }
  }
}
layer {
  name: "bn3d_branch2a"
  type: "BatchNorm"
  bottom: "res3d_branch2a"
  top: "res3d_branch2a"
}
layer {
  name: "scale3d_branch2a"
  type: "Scale"
  bottom: "res3d_branch2a"
  top: "res3d_branch2a"
  scale_param {
    bias_term: true
  }
}
layer {
  name: "res3d_branch2a_relu"
  type: "ReLU"
  bottom: "res3d_branch2a"
  top: "res3d_branch2a"
}
layer {
  name: "res3d_branch2b"
  type: "Convolution"
  bottom: "res3d_branch2a"
  top: "res3d_branch2b"
  param {
    lr_mult: 1
    decay_mult: 1
  }
  convolution_param {
    num_output: 128
    bias_term: false
    pad: 1
    kernel_size: 3
    stride: 1
    weight_filler {
      type: "msra"
    }
  }
}
layer {
  name: "bn3d_branch2b"
  type: "BatchNorm"
  bottom: "res3d_branch2b"
  top: "res3d_branch2b"
}
layer {
  name: "scale3d_branch2b"
  type: "Scale"
  bottom: "res3d_branch2b"
  top: "res3d_branch2b"
  scale_param {
    bias_term: true
  }
}
layer {
  name: "res3d_branch2b_relu"
  type: "ReLU"
  bottom: "res3d_branch2b"
  top: "res3d_branch2b"
}
layer {
  name: "res3d_branch2c"
  type: "Convolution"
  bottom: "res3d_branch2b"
  top: "res3d_branch2c"
  param {
    lr_mult: 1
    decay_mult: 1
  }
  convolution_param {
    num_output: 512
    bias_term: false
    pad: 0
    kernel_size: 1
    stride: 1
    weight_filler {
      type: "msra"
    }
  }
}
layer {
  name: "bn3d_branch2c"
  type: "BatchNorm"
  bottom: "res3d_branch2c"
  top: "res3d_branch2c"
}
layer {
  name: "scale3d_branch2c"
  type: "Scale"
  bottom: "res3d_branch2c"
  top: "res3d_branch2c"
  scale_param {
    bias_term: true
  }
}
layer {
  name: "res3d"
  type: "Eltwise"
  bottom: "res3c"
  bottom: "res3d_branch2c"
  top: "res3d"
  eltwise_param {
    operation: SUM
  }
}
layer {
  name: "res3d_relu"
  type: "ReLU"
  bottom: "res3d"
  top: "res3d"
}
layer {
  name: "res4a_branch1"
  type: "Convolution"
  bottom: "res3d"
  top: "res4a_branch1"
  param {
    lr_mult: 1
    decay_mult: 1
  }
  convolution_param {
    num_output: 1024
    bias_term: false
    pad: 0
    kernel_size: 1
    stride: 2
    weight_filler {
      type: "msra"
    }
  }
}
layer {
  name: "bn4a_branch1"
  type: "BatchNorm"
  bottom: "res4a_branch1"
  top: "res4a_branch1"
}
layer {
  name: "scale4a_branch1"
  type: "Scale"
  bottom: "res4a_branch1"
  top: "res4a_branch1"
  scale_param {
    bias_term: true
  }
}
layer {
  name: "res4a_branch2a"
  type: "Convolution"
  bottom: "res3d"
  top: "res4a_branch2a"
  param {
    lr_mult: 1
    decay_mult: 1
  }
  convolution_param {
    num_output: 256
    bias_term: false
    pad: 0
    kernel_size: 1
    stride: 2
    weight_filler {
      type: "msra"
    }
  }
}
layer {
  name: "bn4a_branch2a"
  type: "BatchNorm"
  bottom: "res4a_branch2a"
  top: "res4a_branch2a"
}
layer {
  name: "scale4a_branch2a"
  type: "Scale"
  bottom: "res4a_branch2a"
  top: "res4a_branch2a"
  scale_param {
    bias_term: true
  }
}
layer {
  name: "res4a_branch2a_relu"
  type: "ReLU"
  bottom: "res4a_branch2a"
  top: "res4a_branch2a"
}
layer {
  name: "res4a_branch2b"
  type: "Convolution"
  bottom: "res4a_branch2a"
  top: "res4a_branch2b"
  param {
    lr_mult: 1
    decay_mult: 1
  }
  convolution_param {
    num_output: 256
    bias_term: false
    pad: 1
    kernel_size: 3
    stride: 1
    weight_filler {
      type: "msra"
    }
  }
}
layer {
  name: "bn4a_branch2b"
  type: "BatchNorm"
  bottom: "res4a_branch2b"
  top: "res4a_branch2b"
}
layer {
  name: "scale4a_branch2b"
  type: "Scale"
  bottom: "res4a_branch2b"
  top: "res4a_branch2b"
  scale_param {
    bias_term: true
  }
}
layer {
  name: "res4a_branch2b_relu"
  type: "ReLU"
  bottom: "res4a_branch2b"
  top: "res4a_branch2b"
}
layer {
  name: "res4a_branch2c"
  type: "Convolution"
  bottom: "res4a_branch2b"
  top: "res4a_branch2c"
  param {
    lr_mult: 1
    decay_mult: 1
  }
  convolution_param {
    num_output: 1024
    bias_term: false
    pad: 0
    kernel_size: 1
    stride: 1
    weight_filler {
      type: "msra"
    }
  }
}
layer {
  name: "bn4a_branch2c"
  type: "BatchNorm"
  bottom: "res4a_branch2c"
  top: "res4a_branch2c"
}
layer {
  name: "scale4a_branch2c"
  type: "Scale"
  bottom: "res4a_branch2c"
  top: "res4a_branch2c"
  scale_param {
    bias_term: true
  }
}
layer {
  name: "res4a"
  type: "Eltwise"
  bottom: "res4a_branch1"
  bottom: "res4a_branch2c"
  top: "res4a"
  eltwise_param {
    operation: SUM
  }
}
layer {
  name: "res4a_relu"
  type: "ReLU"
  bottom: "res4a"
  top: "res4a"
}
layer {
  name: "res4b_branch2a"
  type: "Convolution"
  bottom: "res4a"
  top: "res4b_branch2a"
  param {
    lr_mult: 1
    decay_mult: 1
  }
  convolution_param {
    num_output: 256
    bias_term: false
    pad: 0
    kernel_size: 1
    stride: 1
    weight_filler {
      type: "msra"
    }
  }
}
layer {
  name: "bn4b_branch2a"
  type: "BatchNorm"
  bottom: "res4b_branch2a"
  top: "res4b_branch2a"
}
layer {
  name: "scale4b_branch2a"
  type: "Scale"
  bottom: "res4b_branch2a"
  top: "res4b_branch2a"
  scale_param {
    bias_term: true
  }
}
layer {
  name: "res4b_branch2a_relu"
  type: "ReLU"
  bottom: "res4b_branch2a"
  top: "res4b_branch2a"
}
layer {
  name: "res4b_branch2b"
  type: "Convolution"
  bottom: "res4b_branch2a"
  top: "res4b_branch2b"
  param {
    lr_mult: 1
    decay_mult: 1
  }
  convolution_param {
    num_output: 256
    bias_term: false
    pad: 1
    kernel_size: 3
    stride: 1
    weight_filler {
      type: "msra"
    }
  }
}
layer {
  name: "bn4b_branch2b"
  type: "BatchNorm"
  bottom: "res4b_branch2b"
  top: "res4b_branch2b"
}
layer {
  name: "scale4b_branch2b"
  type: "Scale"
  bottom: "res4b_branch2b"
  top: "res4b_branch2b"
  scale_param {
    bias_term: true
  }
}
layer {
  name: "res4b_branch2b_relu"
  type: "ReLU"
  bottom: "res4b_branch2b"
  top: "res4b_branch2b"
}
layer {
  name: "res4b_branch2c"
  type: "Convolution"
  bottom: "res4b_branch2b"
  top: "res4b_branch2c"
  param {
    lr_mult: 1
    decay_mult: 1
  }
  convolution_param {
    num_output: 1024
    bias_term: false
    pad: 0
    kernel_size: 1
    stride: 1
    weight_filler {
      type: "msra"
    }
  }
}
layer {
  name: "bn4b_branch2c"
  type: "BatchNorm"
  bottom: "res4b_branch2c"
  top: "res4b_branch2c"
}
layer {
  name: "scale4b_branch2c"
  type: "Scale"
  bottom: "res4b_branch2c"
  top: "res4b_branch2c"
  scale_param {
    bias_term: true
  }
}
layer {
  name: "res4b"
  type: "Eltwise"
  bottom: "res4a"
  bottom: "res4b_branch2c"
  top: "res4b"
  eltwise_param {
    operation: SUM
  }
}
layer {
  name: "res4b_relu"
  type: "ReLU"
  bottom: "res4b"
  top: "res4b"
}
layer {
  name: "res4c_branch2a"
  type: "Convolution"
  bottom: "res4b"
  top: "res4c_branch2a"
  param {
    lr_mult: 1
    decay_mult: 1
  }
  convolution_param {
    num_output: 256
    bias_term: false
    pad: 0
    kernel_size: 1
    stride: 1
    weight_filler {
      type: "msra"
    }
  }
}
layer {
  name: "bn4c_branch2a"
  type: "BatchNorm"
  bottom: "res4c_branch2a"
  top: "res4c_branch2a"
}
layer {
  name: "scale4c_branch2a"
  type: "Scale"
  bottom: "res4c_branch2a"
  top: "res4c_branch2a"
  scale_param {
    bias_term: true
  }
}
layer {
  name: "res4c_branch2a_relu"
  type: "ReLU"
  bottom: "res4c_branch2a"
  top: "res4c_branch2a"
}
layer {
  name: "res4c_branch2b"
  type: "Convolution"
  bottom: "res4c_branch2a"
  top: "res4c_branch2b"
  param {
    lr_mult: 1
    decay_mult: 1
  }
  convolution_param {
    num_output: 256
    bias_term: false
    pad: 1
    kernel_size: 3
    stride: 1
    weight_filler {
      type: "msra"
    }
  }
}
layer {
  name: "bn4c_branch2b"
  type: "BatchNorm"
  bottom: "res4c_branch2b"
  top: "res4c_branch2b"
}
layer {
  name: "scale4c_branch2b"
  type: "Scale"
  bottom: "res4c_branch2b"
  top: "res4c_branch2b"
  scale_param {
    bias_term: true
  }
}
layer {
  name: "res4c_branch2b_relu"
  type: "ReLU"
  bottom: "res4c_branch2b"
  top: "res4c_branch2b"
}
layer {
  name: "res4c_branch2c"
  type: "Convolution"
  bottom: "res4c_branch2b"
  top: "res4c_branch2c"
  param {
    lr_mult: 1
    decay_mult: 1
  }
  convolution_param {
    num_output: 1024
    bias_term: false
    pad: 0
    kernel_size: 1
    stride: 1
    weight_filler {
      type: "msra"
    }
  }
}
layer {
  name: "bn4c_branch2c"
  type: "BatchNorm"
  bottom: "res4c_branch2c"
  top: "res4c_branch2c"
}
layer {
  name: "scale4c_branch2c"
  type: "Scale"
  bottom: "res4c_branch2c"
  top: "res4c_branch2c"
  scale_param {
    bias_term: true
  }
}
layer {
  name: "res4c"
  type: "Eltwise"
  bottom: "res4b"
  bottom: "res4c_branch2c"
  top: "res4c"
  eltwise_param {
    operation: SUM
  }
}
layer {
  name: "res4c_relu"
  type: "ReLU"
  bottom: "res4c"
  top: "res4c"
}
layer {
  name: "res4d_branch2a"
  type: "Convolution"
  bottom: "res4c"
  top: "res4d_branch2a"
  param {
    lr_mult: 1
    decay_mult: 1
  }
  convolution_param {
    num_output: 256
    bias_term: false
    pad: 0
    kernel_size: 1
    stride: 1
    weight_filler {
      type: "msra"
    }
  }
}
layer {
  name: "bn4d_branch2a"
  type: "BatchNorm"
  bottom: "res4d_branch2a"
  top: "res4d_branch2a"
}
layer {
  name: "scale4d_branch2a"
  type: "Scale"
  bottom: "res4d_branch2a"
  top: "res4d_branch2a"
  scale_param {
    bias_term: true
  }
}
layer {
  name: "res4d_branch2a_relu"
  type: "ReLU"
  bottom: "res4d_branch2a"
  top: "res4d_branch2a"
}
layer {
  name: "res4d_branch2b"
  type: "Convolution"
  bottom: "res4d_branch2a"
  top: "res4d_branch2b"
  param {
    lr_mult: 1
    decay_mult: 1
  }
  convolution_param {
    num_output: 256
    bias_term: false
    pad: 1
    kernel_size: 3
    stride: 1
    weight_filler {
      type: "msra"
    }
  }
}
layer {
  name: "bn4d_branch2b"
  type: "BatchNorm"
  bottom: "res4d_branch2b"
  top: "res4d_branch2b"
}
layer {
  name: "scale4d_branch2b"
  type: "Scale"
  bottom: "res4d_branch2b"
  top: "res4d_branch2b"
  scale_param {
    bias_term: true
  }
}
layer {
  name: "res4d_branch2b_relu"
  type: "ReLU"
  bottom: "res4d_branch2b"
  top: "res4d_branch2b"
}
layer {
  name: "res4d_branch2c"
  type: "Convolution"
  bottom: "res4d_branch2b"
  top: "res4d_branch2c"
  param {
    lr_mult: 1
    decay_mult: 1
  }
  convolution_param {
    num_output: 1024
    bias_term: false
    pad: 0
    kernel_size: 1
    stride: 1
    weight_filler {
      type: "msra"
    }
  }
}
layer {
  name: "bn4d_branch2c"
  type: "BatchNorm"
  bottom: "res4d_branch2c"
  top: "res4d_branch2c"
}
layer {
  name: "scale4d_branch2c"
  type: "Scale"
  bottom: "res4d_branch2c"
  top: "res4d_branch2c"
  scale_param {
    bias_term: true
  }
}
layer {
  name: "res4d"
  type: "Eltwise"
  bottom: "res4c"
  bottom: "res4d_branch2c"
  top: "res4d"
  eltwise_param {
    operation: SUM
  }
}
layer {
  name: "res4d_relu"
  type: "ReLU"
  bottom: "res4d"
  top: "res4d"
}
layer {
  name: "res4e_branch2a"
  type: "Convolution"
  bottom: "res4d"
  top: "res4e_branch2a"
  param {
    lr_mult: 1
    decay_mult: 1
  }
  convolution_param {
    num_output: 256
    bias_term: false
    pad: 0
    kernel_size: 1
    stride: 1
    weight_filler {
      type: "msra"
    }
  }
}
layer {
  name: "bn4e_branch2a"
  type: "BatchNorm"
  bottom: "res4e_branch2a"
  top: "res4e_branch2a"
}
layer {
  name: "scale4e_branch2a"
  type: "Scale"
  bottom: "res4e_branch2a"
  top: "res4e_branch2a"
  scale_param {
    bias_term: true
  }
}
layer {
  name: "res4e_branch2a_relu"
  type: "ReLU"
  bottom: "res4e_branch2a"
  top: "res4e_branch2a"
}
layer {
  name: "res4e_branch2b"
  type: "Convolution"
  bottom: "res4e_branch2a"
  top: "res4e_branch2b"
  param {
    lr_mult: 1
    decay_mult: 1
  }
  convolution_param {
    num_output: 256
    bias_term: false
    pad: 1
    kernel_size: 3
    stride: 1
    weight_filler {
      type: "msra"
    }
  }
}
layer {
  name: "bn4e_branch2b"
  type: "BatchNorm"
  bottom: "res4e_branch2b"
  top: "res4e_branch2b"
}
layer {
  name: "scale4e_branch2b"
  type: "Scale"
  bottom: "res4e_branch2b"
  top: "res4e_branch2b"
  scale_param {
    bias_term: true
  }
}
layer {
  name: "res4e_branch2b_relu"
  type: "ReLU"
  bottom: "res4e_branch2b"
  top: "res4e_branch2b"
}
layer {
  name: "res4e_branch2c"
  type: "Convolution"
  bottom: "res4e_branch2b"
  top: "res4e_branch2c"
  param {
    lr_mult: 1
    decay_mult: 1
  }
  convolution_param {
    num_output: 1024
    bias_term: false
    pad: 0
    kernel_size: 1
    stride: 1
    weight_filler {
      type: "msra"
    }
  }
}
layer {
  name: "bn4e_branch2c"
  type: "BatchNorm"
  bottom: "res4e_branch2c"
  top: "res4e_branch2c"
}
layer {
  name: "scale4e_branch2c"
  type: "Scale"
  bottom: "res4e_branch2c"
  top: "res4e_branch2c"
  scale_param {
    bias_term: true
  }
}
layer {
  name: "res4e"
  type: "Eltwise"
  bottom: "res4d"
  bottom: "res4e_branch2c"
  top: "res4e"
  eltwise_param {
    operation: SUM
  }
}
layer {
  name: "res4e_relu"
  type: "ReLU"
  bottom: "res4e"
  top: "res4e"
}
layer {
  name: "res4f_branch2a"
  type: "Convolution"
  bottom: "res4e"
  top: "res4f_branch2a"
  param {
    lr_mult: 1
    decay_mult: 1
  }
  convolution_param {
    num_output: 256
    bias_term: false
    pad: 0
    kernel_size: 1
    stride: 1
    weight_filler {
      type: "msra"
    }
  }
}
layer {
  name: "bn4f_branch2a"
  type: "BatchNorm"
  bottom: "res4f_branch2a"
  top: "res4f_branch2a"
}
layer {
  name: "scale4f_branch2a"
  type: "Scale"
  bottom: "res4f_branch2a"
  top: "res4f_branch2a"
  scale_param {
    bias_term: true
  }
}
layer {
  name: "res4f_branch2a_relu"
  type: "ReLU"
  bottom: "res4f_branch2a"
  top: "res4f_branch2a"
}
layer {
  name: "res4f_branch2b"
  type: "Convolution"
  bottom: "res4f_branch2a"
  top: "res4f_branch2b"
  param {
    lr_mult: 1
    decay_mult: 1
  }
  convolution_param {
    num_output: 256
    bias_term: false
    pad: 1
    kernel_size: 3
    stride: 1
    weight_filler {
      type: "msra"
    }
  }
}
layer {
  name: "bn4f_branch2b"
  type: "BatchNorm"
  bottom: "res4f_branch2b"
  top: "res4f_branch2b"
}
layer {
  name: "scale4f_branch2b"
  type: "Scale"
  bottom: "res4f_branch2b"
  top: "res4f_branch2b"
  scale_param {
    bias_term: true
  }
}
layer {
  name: "res4f_branch2b_relu"
  type: "ReLU"
  bottom: "res4f_branch2b"
  top: "res4f_branch2b"
}
layer {
  name: "res4f_branch2c"
  type: "Convolution"
  bottom: "res4f_branch2b"
  top: "res4f_branch2c"
  param {
    lr_mult: 1
    decay_mult: 1
  }
  convolution_param {
    num_output: 1024
    bias_term: false
    pad: 0
    kernel_size: 1
    stride: 1
    weight_filler {
      type: "msra"
    }
  }
}
layer {
  name: "bn4f_branch2c"
  type: "BatchNorm"
  bottom: "res4f_branch2c"
  top: "res4f_branch2c"
}
layer {
  name: "scale4f_branch2c"
  typ
I0725 21:13:49.292639 70546 layer_factory.hpp:77] Creating layer data
I0725 21:13:49.293155 70546 net.cpp:100] Creating Layer data
I0725 21:13:49.293170 70546 net.cpp:408] data -> data
I0725 21:13:49.293200 70546 net.cpp:408] data -> label
I0725 21:13:49.293215 70546 data_transformer.cpp:25] Loading mean file from: /raid/yuanyong/cifar10/lmdb/mean.binaryproto
I0725 21:13:49.294811 70550 db_lmdb.cpp:35] Opened lmdb /raid/yuanyong/cifar10/lmdb/train_lmdb
I0725 21:13:49.315060 70546 data_layer.cpp:41] output data size: 16,3,224,224
I0725 21:13:49.336992 70546 net.cpp:150] Setting up data
I0725 21:13:49.337046 70546 net.cpp:157] Top shape: 16 3 224 224 (2408448)
I0725 21:13:49.337054 70546 net.cpp:157] Top shape: 16 (16)
I0725 21:13:49.337057 70546 net.cpp:165] Memory required for data: 9633856
I0725 21:13:49.337072 70546 layer_factory.hpp:77] Creating layer conv1
I0725 21:13:49.337103 70546 net.cpp:100] Creating Layer conv1
I0725 21:13:49.337116 70546 net.cpp:434] conv1 <- data
I0725 21:13:49.337133 70546 net.cpp:408] conv1 -> conv1
I0725 21:13:49.340193 70551 blocking_queue.cpp:50] Waiting for data
I0725 21:13:49.630908 70546 net.cpp:150] Setting up conv1
I0725 21:13:49.630977 70546 net.cpp:157] Top shape: 16 64 112 112 (12845056)
I0725 21:13:49.631012 70546 net.cpp:165] Memory required for data: 61014080
I0725 21:13:49.631036 70546 layer_factory.hpp:77] Creating layer bn_conv1
I0725 21:13:49.631093 70546 net.cpp:100] Creating Layer bn_conv1
I0725 21:13:49.631099 70546 net.cpp:434] bn_conv1 <- conv1
I0725 21:13:49.631105 70546 net.cpp:395] bn_conv1 -> conv1 (in-place)
I0725 21:13:49.631325 70546 net.cpp:150] Setting up bn_conv1
I0725 21:13:49.631337 70546 net.cpp:157] Top shape: 16 64 112 112 (12845056)
I0725 21:13:49.631341 70546 net.cpp:165] Memory required for data: 112394304
I0725 21:13:49.631353 70546 layer_factory.hpp:77] Creating layer scale_conv1
I0725 21:13:49.631381 70546 net.cpp:100] Creating Layer scale_conv1
I0725 21:13:49.631405 70546 net.cpp:434] scale_conv1 <- conv1
I0725 21:13:49.631412 70546 net.cpp:395] scale_conv1 -> conv1 (in-place)
I0725 21:13:49.631458 70546 layer_factory.hpp:77] Creating layer scale_conv1
I0725 21:13:49.631587 70546 net.cpp:150] Setting up scale_conv1
I0725 21:13:49.631597 70546 net.cpp:157] Top shape: 16 64 112 112 (12845056)
I0725 21:13:49.631603 70546 net.cpp:165] Memory required for data: 163774528
I0725 21:13:49.631610 70546 layer_factory.hpp:77] Creating layer conv1_relu
I0725 21:13:49.631620 70546 net.cpp:100] Creating Layer conv1_relu
I0725 21:13:49.631625 70546 net.cpp:434] conv1_relu <- conv1
I0725 21:13:49.631630 70546 net.cpp:395] conv1_relu -> conv1 (in-place)
I0725 21:13:49.631795 70546 net.cpp:150] Setting up conv1_relu
I0725 21:13:49.631808 70546 net.cpp:157] Top shape: 16 64 112 112 (12845056)
I0725 21:13:49.631814 70546 net.cpp:165] Memory required for data: 215154752
I0725 21:13:49.631817 70546 layer_factory.hpp:77] Creating layer pool1
I0725 21:13:49.631826 70546 net.cpp:100] Creating Layer pool1
I0725 21:13:49.631831 70546 net.cpp:434] pool1 <- conv1
I0725 21:13:49.631837 70546 net.cpp:408] pool1 -> pool1
I0725 21:13:49.631886 70546 net.cpp:150] Setting up pool1
I0725 21:13:49.631896 70546 net.cpp:157] Top shape: 16 64 56 56 (3211264)
I0725 21:13:49.631901 70546 net.cpp:165] Memory required for data: 227999808
I0725 21:13:49.631903 70546 layer_factory.hpp:77] Creating layer pool1_pool1_0_split
I0725 21:13:49.631911 70546 net.cpp:100] Creating Layer pool1_pool1_0_split
I0725 21:13:49.631916 70546 net.cpp:434] pool1_pool1_0_split <- pool1
I0725 21:13:49.631920 70546 net.cpp:408] pool1_pool1_0_split -> pool1_pool1_0_split_0
I0725 21:13:49.631929 70546 net.cpp:408] pool1_pool1_0_split -> pool1_pool1_0_split_1
I0725 21:13:49.631961 70546 net.cpp:150] Setting up pool1_pool1_0_split
I0725 21:13:49.631969 70546 net.cpp:157] Top shape: 16 64 56 56 (3211264)
I0725 21:13:49.631975 70546 net.cpp:157] Top shape: 16 64 56 56 (3211264)
I0725 21:13:49.631978 70546 net.cpp:165] Memory required for data: 253689920
I0725 21:13:49.631983 70546 layer_factory.hpp:77] Creating layer res2a_branch1
I0725 21:13:49.631994 70546 net.cpp:100] Creating Layer res2a_branch1
I0725 21:13:49.631999 70546 net.cpp:434] res2a_branch1 <- pool1_pool1_0_split_0
I0725 21:13:49.632004 70546 net.cpp:408] res2a_branch1 -> res2a_branch1
I0725 21:13:49.633306 70546 net.cpp:150] Setting up res2a_branch1
I0725 21:13:49.633323 70546 net.cpp:157] Top shape: 16 256 56 56 (12845056)
I0725 21:13:49.633327 70546 net.cpp:165] Memory required for data: 305070144
I0725 21:13:49.633352 70546 layer_factory.hpp:77] Creating layer bn2a_branch1
I0725 21:13:49.633360 70546 net.cpp:100] Creating Layer bn2a_branch1
I0725 21:13:49.633364 70546 net.cpp:434] bn2a_branch1 <- res2a_branch1
I0725 21:13:49.633370 70546 net.cpp:395] bn2a_branch1 -> res2a_branch1 (in-place)
I0725 21:13:49.634840 70546 net.cpp:150] Setting up bn2a_branch1
I0725 21:13:49.634855 70546 net.cpp:157] Top shape: 16 256 56 56 (12845056)
I0725 21:13:49.634860 70546 net.cpp:165] Memory required for data: 356450368
I0725 21:13:49.634889 70546 layer_factory.hpp:77] Creating layer scale2a_branch1
I0725 21:13:49.634898 70546 net.cpp:100] Creating Layer scale2a_branch1
I0725 21:13:49.634905 70546 net.cpp:434] scale2a_branch1 <- res2a_branch1
I0725 21:13:49.634944 70546 net.cpp:395] scale2a_branch1 -> res2a_branch1 (in-place)
I0725 21:13:49.634992 70546 layer_factory.hpp:77] Creating layer scale2a_branch1
I0725 21:13:49.635118 70546 net.cpp:150] Setting up scale2a_branch1
I0725 21:13:49.635128 70546 net.cpp:157] Top shape: 16 256 56 56 (12845056)
I0725 21:13:49.635133 70546 net.cpp:165] Memory required for data: 407830592
I0725 21:13:49.635140 70546 layer_factory.hpp:77] Creating layer res2a_branch2a
I0725 21:13:49.635154 70546 net.cpp:100] Creating Layer res2a_branch2a
I0725 21:13:49.635159 70546 net.cpp:434] res2a_branch2a <- pool1_pool1_0_split_1
I0725 21:13:49.635166 70546 net.cpp:408] res2a_branch2a -> res2a_branch2a
I0725 21:13:49.636194 70546 net.cpp:150] Setting up res2a_branch2a
I0725 21:13:49.636211 70546 net.cpp:157] Top shape: 16 64 56 56 (3211264)
I0725 21:13:49.636215 70546 net.cpp:165] Memory required for data: 420675648
I0725 21:13:49.636238 70546 layer_factory.hpp:77] Creating layer bn2a_branch2a
I0725 21:13:49.636246 70546 net.cpp:100] Creating Layer bn2a_branch2a
I0725 21:13:49.636250 70546 net.cpp:434] bn2a_branch2a <- res2a_branch2a
I0725 21:13:49.636256 70546 net.cpp:395] bn2a_branch2a -> res2a_branch2a (in-place)
I0725 21:13:49.636464 70546 net.cpp:150] Setting up bn2a_branch2a
I0725 21:13:49.636476 70546 net.cpp:157] Top shape: 16 64 56 56 (3211264)
I0725 21:13:49.636478 70546 net.cpp:165] Memory required for data: 433520704
I0725 21:13:49.636492 70546 layer_factory.hpp:77] Creating layer scale2a_branch2a
I0725 21:13:49.636500 70546 net.cpp:100] Creating Layer scale2a_branch2a
I0725 21:13:49.636507 70546 net.cpp:434] scale2a_branch2a <- res2a_branch2a
I0725 21:13:49.636512 70546 net.cpp:395] scale2a_branch2a -> res2a_branch2a (in-place)
I0725 21:13:49.636587 70546 layer_factory.hpp:77] Creating layer scale2a_branch2a
I0725 21:13:49.636696 70546 net.cpp:150] Setting up scale2a_branch2a
I0725 21:13:49.636705 70546 net.cpp:157] Top shape: 16 64 56 56 (3211264)
I0725 21:13:49.636710 70546 net.cpp:165] Memory required for data: 446365760
I0725 21:13:49.636718 70546 layer_factory.hpp:77] Creating layer res2a_branch2a_relu
I0725 21:13:49.636726 70546 net.cpp:100] Creating Layer res2a_branch2a_relu
I0725 21:13:49.636730 70546 net.cpp:434] res2a_branch2a_relu <- res2a_branch2a
I0725 21:13:49.636735 70546 net.cpp:395] res2a_branch2a_relu -> res2a_branch2a (in-place)
I0725 21:13:49.636929 70546 net.cpp:150] Setting up res2a_branch2a_relu
I0725 21:13:49.636942 70546 net.cpp:157] Top shape: 16 64 56 56 (3211264)
I0725 21:13:49.636946 70546 net.cpp:165] Memory required for data: 459210816
I0725 21:13:49.636952 70546 layer_factory.hpp:77] Creating layer res2a_branch2b
I0725 21:13:49.636963 70546 net.cpp:100] Creating Layer res2a_branch2b
I0725 21:13:49.636967 70546 net.cpp:434] res2a_branch2b <- res2a_branch2a
I0725 21:13:49.636976 70546 net.cpp:408] res2a_branch2b -> res2a_branch2b
I0725 21:13:49.639930 70546 net.cpp:150] Setting up res2a_branch2b
I0725 21:13:49.639948 70546 net.cpp:157] Top shape: 16 64 56 56 (3211264)
I0725 21:13:49.639971 70546 net.cpp:165] Memory required for data: 472055872
I0725 21:13:49.639976 70546 layer_factory.hpp:77] Creating layer bn2a_branch2b
I0725 21:13:49.639984 70546 net.cpp:100] Creating Layer bn2a_branch2b
I0725 21:13:49.639988 70546 net.cpp:434] bn2a_branch2b <- res2a_branch2b
I0725 21:13:49.639993 70546 net.cpp:395] bn2a_branch2b -> res2a_branch2b (in-place)
I0725 21:13:49.640209 70546 net.cpp:150] Setting up bn2a_branch2b
I0725 21:13:49.640220 70546 net.cpp:157] Top shape: 16 64 56 56 (3211264)
I0725 21:13:49.640223 70546 net.cpp:165] Memory required for data: 484900928
I0725 21:13:49.640233 70546 layer_factory.hpp:77] Creating layer scale2a_branch2b
I0725 21:13:49.640244 70546 net.cpp:100] Creating Layer scale2a_branch2b
I0725 21:13:49.640249 70546 net.cpp:434] scale2a_branch2b <- res2a_branch2b
I0725 21:13:49.640272 70546 net.cpp:395] scale2a_branch2b -> res2a_branch2b (in-place)
I0725 21:13:49.640331 70546 layer_factory.hpp:77] Creating layer scale2a_branch2b
I0725 21:13:49.640444 70546 net.cpp:150] Setting up scale2a_branch2b
I0725 21:13:49.640470 70546 net.cpp:157] Top shape: 16 64 56 56 (3211264)
I0725 21:13:49.640475 70546 net.cpp:165] Memory required for data: 497745984
I0725 21:13:49.640483 70546 layer_factory.hpp:77] Creating layer res2a_branch2b_relu
I0725 21:13:49.640509 70546 net.cpp:100] Creating Layer res2a_branch2b_relu
I0725 21:13:49.640514 70546 net.cpp:434] res2a_branch2b_relu <- res2a_branch2b
I0725 21:13:49.640537 70546 net.cpp:395] res2a_branch2b_relu -> res2a_branch2b (in-place)
I0725 21:13:49.641037 70546 net.cpp:150] Setting up res2a_branch2b_relu
I0725 21:13:49.641052 70546 net.cpp:157] Top shape: 16 64 56 56 (3211264)
I0725 21:13:49.641057 70546 net.cpp:165] Memory required for data: 510591040
I0725 21:13:49.641077 70546 layer_factory.hpp:77] Creating layer res2a_branch2c
I0725 21:13:49.641089 70546 net.cpp:100] Creating Layer res2a_branch2c
I0725 21:13:49.641093 70546 net.cpp:434] res2a_branch2c <- res2a_branch2b
I0725 21:13:49.641099 70546 net.cpp:408] res2a_branch2c -> res2a_branch2c
I0725 21:13:49.642473 70546 net.cpp:150] Setting up res2a_branch2c
I0725 21:13:49.642489 70546 net.cpp:157] Top shape: 16 256 56 56 (12845056)
I0725 21:13:49.642493 70546 net.cpp:165] Memory required for data: 561971264
I0725 21:13:49.642516 70546 layer_factory.hpp:77] Creating layer bn2a_branch2c
I0725 21:13:49.642524 70546 net.cpp:100] Creating Layer bn2a_branch2c
I0725 21:13:49.642529 70546 net.cpp:434] bn2a_branch2c <- res2a_branch2c
I0725 21:13:49.642534 70546 net.cpp:395] bn2a_branch2c -> res2a_branch2c (in-place)
I0725 21:13:49.642755 70546 net.cpp:150] Setting up bn2a_branch2c
I0725 21:13:49.642765 70546 net.cpp:157] Top shape: 16 256 56 56 (12845056)
I0725 21:13:49.642768 70546 net.cpp:165] Memory required for data: 613351488
I0725 21:13:49.642777 70546 layer_factory.hpp:77] Creating layer scale2a_branch2c
I0725 21:13:49.642788 70546 net.cpp:100] Creating Layer scale2a_branch2c
I0725 21:13:49.642792 70546 net.cpp:434] scale2a_branch2c <- res2a_branch2c
I0725 21:13:49.642814 70546 net.cpp:395] scale2a_branch2c -> res2a_branch2c (in-place)
I0725 21:13:49.642874 70546 layer_factory.hpp:77] Creating layer scale2a_branch2c
I0725 21:13:49.642984 70546 net.cpp:150] Setting up scale2a_branch2c
I0725 21:13:49.642993 70546 net.cpp:157] Top shape: 16 256 56 56 (12845056)
I0725 21:13:49.642997 70546 net.cpp:165] Memory required for data: 664731712
I0725 21:13:49.643007 70546 layer_factory.hpp:77] Creating layer res2a
I0725 21:13:49.643039 70546 net.cpp:100] Creating Layer res2a
I0725 21:13:49.643045 70546 net.cpp:434] res2a <- res2a_branch1
I0725 21:13:49.643050 70546 net.cpp:434] res2a <- res2a_branch2c
I0725 21:13:49.643071 70546 net.cpp:408] res2a -> res2a
I0725 21:13:49.643133 70546 net.cpp:150] Setting up res2a
I0725 21:13:49.643144 70546 net.cpp:157] Top shape: 16 256 56 56 (12845056)
I0725 21:13:49.643147 70546 net.cpp:165] Memory required for data: 716111936
I0725 21:13:49.643151 70546 layer_factory.hpp:77] Creating layer res2a_relu
I0725 21:13:49.643157 70546 net.cpp:100] Creating Layer res2a_relu
I0725 21:13:49.643162 70546 net.cpp:434] res2a_relu <- res2a
I0725 21:13:49.643167 70546 net.cpp:395] res2a_relu -> res2a (in-place)
I0725 21:13:49.643350 70546 net.cpp:150] Setting up res2a_relu
I0725 21:13:49.643363 70546 net.cpp:157] Top shape: 16 256 56 56 (12845056)
I0725 21:13:49.643368 70546 net.cpp:165] Memory required for data: 767492160
I0725 21:13:49.643371 70546 layer_factory.hpp:77] Creating layer res2a_res2a_relu_0_split
I0725 21:13:49.643399 70546 net.cpp:100] Creating Layer res2a_res2a_relu_0_split
I0725 21:13:49.643404 70546 net.cpp:434] res2a_res2a_relu_0_split <- res2a
I0725 21:13:49.643409 70546 net.cpp:408] res2a_res2a_relu_0_split -> res2a_res2a_relu_0_split_0
I0725 21:13:49.643435 70546 net.cpp:408] res2a_res2a_relu_0_split -> res2a_res2a_relu_0_split_1
I0725 21:13:49.643494 70546 net.cpp:150] Setting up res2a_res2a_relu_0_split
I0725 21:13:49.643504 70546 net.cpp:157] Top shape: 16 256 56 56 (12845056)
I0725 21:13:49.643508 70546 net.cpp:157] Top shape: 16 256 56 56 (12845056)
I0725 21:13:49.643512 70546 net.cpp:165] Memory required for data: 870252608
I0725 21:13:49.643546 70546 layer_factory.hpp:77] Creating layer res2b_branch2a
I0725 21:13:49.643558 70546 net.cpp:100] Creating Layer res2b_branch2a
I0725 21:13:49.643563 70546 net.cpp:434] res2b_branch2a <- res2a_res2a_relu_0_split_0
I0725 21:13:49.643569 70546 net.cpp:408] res2b_branch2a -> res2b_branch2a
I0725 21:13:49.644946 70546 net.cpp:150] Setting up res2b_branch2a
I0725 21:13:49.644963 70546 net.cpp:157] Top shape: 16 64 56 56 (3211264)
I0725 21:13:49.644965 70546 net.cpp:165] Memory required for data: 883097664
I0725 21:13:49.644989 70546 layer_factory.hpp:77] Creating layer bn2b_branch2a
I0725 21:13:49.644996 70546 net.cpp:100] Creating Layer bn2b_branch2a
I0725 21:13:49.645000 70546 net.cpp:434] bn2b_branch2a <- res2b_branch2a
I0725 21:13:49.645006 70546 net.cpp:395] bn2b_branch2a -> res2b_branch2a (in-place)
I0725 21:13:49.645206 70546 net.cpp:150] Setting up bn2b_branch2a
I0725 21:13:49.645216 70546 net.cpp:157] Top shape: 16 64 56 56 (3211264)
I0725 21:13:49.645220 70546 net.cpp:165] Memory required for data: 895942720
I0725 21:13:49.645236 70546 layer_factory.hpp:77] Creating layer scale2b_branch2a
I0725 21:13:49.645263 70546 net.cpp:100] Creating Layer scale2b_branch2a
I0725 21:13:49.645267 70546 net.cpp:434] scale2b_branch2a <- res2b_branch2a
I0725 21:13:49.645272 70546 net.cpp:395] scale2b_branch2a -> res2b_branch2a (in-place)
I0725 21:13:49.645313 70546 layer_factory.hpp:77] Creating layer scale2b_branch2a
I0725 21:13:49.645429 70546 net.cpp:150] Setting up scale2b_branch2a
I0725 21:13:49.645438 70546 net.cpp:157] Top shape: 16 64 56 56 (3211264)
I0725 21:13:49.645442 70546 net.cpp:165] Memory required for data: 908787776
I0725 21:13:49.645452 70546 layer_factory.hpp:77] Creating layer res2b_branch2a_relu
I0725 21:13:49.645457 70546 net.cpp:100] Creating Layer res2b_branch2a_relu
I0725 21:13:49.645480 70546 net.cpp:434] res2b_branch2a_relu <- res2b_branch2a
I0725 21:13:49.645486 70546 net.cpp:395] res2b_branch2a_relu -> res2b_branch2a (in-place)
I0725 21:13:49.645668 70546 net.cpp:150] Setting up res2b_branch2a_relu
I0725 21:13:49.645678 70546 net.cpp:157] Top shape: 16 64 56 56 (3211264)
I0725 21:13:49.645683 70546 net.cpp:165] Memory required for data: 921632832
I0725 21:13:49.645689 70546 layer_factory.hpp:77] Creating layer res2b_branch2b
I0725 21:13:49.645700 70546 net.cpp:100] Creating Layer res2b_branch2b
I0725 21:13:49.645725 70546 net.cpp:434] res2b_branch2b <- res2b_branch2a
I0725 21:13:49.645748 70546 net.cpp:408] res2b_branch2b -> res2b_branch2b
I0725 21:13:49.647557 70546 net.cpp:150] Setting up res2b_branch2b
I0725 21:13:49.647583 70546 net.cpp:157] Top shape: 16 64 56 56 (3211264)
I0725 21:13:49.647588 70546 net.cpp:165] Memory required for data: 934477888
I0725 21:13:49.647611 70546 layer_factory.hpp:77] Creating layer bn2b_branch2b
I0725 21:13:49.647619 70546 net.cpp:100] Creating Layer bn2b_branch2b
I0725 21:13:49.647624 70546 net.cpp:434] bn2b_branch2b <- res2b_branch2b
I0725 21:13:49.647629 70546 net.cpp:395] bn2b_branch2b -> res2b_branch2b (in-place)
I0725 21:13:49.647871 70546 net.cpp:150] Setting up bn2b_branch2b
I0725 21:13:49.647881 70546 net.cpp:157] Top shape: 16 64 56 56 (3211264)
I0725 21:13:49.647883 70546 net.cpp:165] Memory required for data: 947322944
I0725 21:13:49.647894 70546 layer_factory.hpp:77] Creating layer scale2b_branch2b
I0725 21:13:49.647920 70546 net.cpp:100] Creating Layer scale2b_branch2b
I0725 21:13:49.647925 70546 net.cpp:434] scale2b_branch2b <- res2b_branch2b
I0725 21:13:49.647930 70546 net.cpp:395] scale2b_branch2b -> res2b_branch2b (in-place)
I0725 21:13:49.647989 70546 layer_factory.hpp:77] Creating layer scale2b_branch2b
I0725 21:13:49.648109 70546 net.cpp:150] Setting up scale2b_branch2b
I0725 21:13:49.648118 70546 net.cpp:157] Top shape: 16 64 56 56 (3211264)
I0725 21:13:49.648123 70546 net.cpp:165] Memory required for data: 960168000
I0725 21:13:49.648131 70546 layer_factory.hpp:77] Creating layer res2b_branch2b_relu
I0725 21:13:49.648138 70546 net.cpp:100] Creating Layer res2b_branch2b_relu
I0725 21:13:49.648172 70546 net.cpp:434] res2b_branch2b_relu <- res2b_branch2b
I0725 21:13:49.648180 70546 net.cpp:395] res2b_branch2b_relu -> res2b_branch2b (in-place)
I0725 21:13:49.648363 70546 net.cpp:150] Setting up res2b_branch2b_relu
I0725 21:13:49.648375 70546 net.cpp:157] Top shape: 16 64 56 56 (3211264)
I0725 21:13:49.648378 70546 net.cpp:165] Memory required for data: 973013056
I0725 21:13:49.648382 70546 layer_factory.hpp:77] Creating layer res2b_branch2c
I0725 21:13:49.648416 70546 net.cpp:100] Creating Layer res2b_branch2c
I0725 21:13:49.648438 70546 net.cpp:434] res2b_branch2c <- res2b_branch2b
I0725 21:13:49.648447 70546 net.cpp:408] res2b_branch2c -> res2b_branch2c
I0725 21:13:49.649814 70546 net.cpp:150] Setting up res2b_branch2c
I0725 21:13:49.649830 70546 net.cpp:157] Top shape: 16 256 56 56 (12845056)
I0725 21:13:49.649833 70546 net.cpp:165] Memory required for data: 1024393280
I0725 21:13:49.649857 70546 layer_factory.hpp:77] Creating layer bn2b_branch2c
I0725 21:13:49.649865 70546 net.cpp:100] Creating Layer bn2b_branch2c
I0725 21:13:49.649869 70546 net.cpp:434] bn2b_branch2c <- res2b_branch2c
I0725 21:13:49.649875 70546 net.cpp:395] bn2b_branch2c -> res2b_branch2c (in-place)
I0725 21:13:49.650086 70546 net.cpp:150] Setting up bn2b_branch2c
I0725 21:13:49.650097 70546 net.cpp:157] Top shape: 16 256 56 56 (12845056)
I0725 21:13:49.650100 70546 net.cpp:165] Memory required for data: 1075773504
I0725 21:13:49.650108 70546 layer_factory.hpp:77] Creating layer scale2b_branch2c
I0725 21:13:49.650118 70546 net.cpp:100] Creating Layer scale2b_branch2c
I0725 21:13:49.650122 70546 net.cpp:434] scale2b_branch2c <- res2b_branch2c
I0725 21:13:49.650146 70546 net.cpp:395] scale2b_branch2c -> res2b_branch2c (in-place)
I0725 21:13:49.650204 70546 layer_factory.hpp:77] Creating layer scale2b_branch2c
I0725 21:13:49.650315 70546 net.cpp:150] Setting up scale2b_branch2c
I0725 21:13:49.650324 70546 net.cpp:157] Top shape: 16 256 56 56 (12845056)
I0725 21:13:49.650327 70546 net.cpp:165] Memory required for data: 1127153728
I0725 21:13:49.650336 70546 layer_factory.hpp:77] Creating layer res2b
I0725 21:13:49.650346 70546 net.cpp:100] Creating Layer res2b
I0725 21:13:49.650367 70546 net.cpp:434] res2b <- res2a_res2a_relu_0_split_1
I0725 21:13:49.650372 70546 net.cpp:434] res2b <- res2b_branch2c
I0725 21:13:49.650379 70546 net.cpp:408] res2b -> res2b
I0725 21:13:49.650424 70546 net.cpp:150] Setting up res2b
I0725 21:13:49.650434 70546 net.cpp:157] Top shape: 16 256 56 56 (12845056)
I0725 21:13:49.650437 70546 net.cpp:165] Memory required for data: 1178533952
I0725 21:13:49.650442 70546 layer_factory.hpp:77] Creating layer res2b_relu
I0725 21:13:49.650449 70546 net.cpp:100] Creating Layer res2b_relu
I0725 21:13:49.650452 70546 net.cpp:434] res2b_relu <- res2b
I0725 21:13:49.650476 70546 net.cpp:395] res2b_relu -> res2b (in-place)
I0725 21:13:49.650663 70546 net.cpp:150] Setting up res2b_relu
I0725 21:13:49.650676 70546 net.cpp:157] Top shape: 16 256 56 56 (12845056)
I0725 21:13:49.650679 70546 net.cpp:165] Memory required for data: 1229914176
I0725 21:13:49.650686 70546 layer_factory.hpp:77] Creating layer res2b_res2b_relu_0_split
I0725 21:13:49.650692 70546 net.cpp:100] Creating Layer res2b_res2b_relu_0_split
I0725 21:13:49.650696 70546 net.cpp:434] res2b_res2b_relu_0_split <- res2b
I0725 21:13:49.650722 70546 net.cpp:408] res2b_res2b_relu_0_split -> res2b_res2b_relu_0_split_0
I0725 21:13:49.650744 70546 net.cpp:408] res2b_res2b_relu_0_split -> res2b_res2b_relu_0_split_1
I0725 21:13:49.650784 70546 net.cpp:150] Setting up res2b_res2b_relu_0_split
I0725 21:13:49.650794 70546 net.cpp:157] Top shape: 16 256 56 56 (12845056)
I0725 21:13:49.650797 70546 net.cpp:157] Top shape: 16 256 56 56 (12845056)
I0725 21:13:49.650802 70546 net.cpp:165] Memory required for data: 1332674624
I0725 21:13:49.650805 70546 layer_factory.hpp:77] Creating layer res2c_branch2a
I0725 21:13:49.650816 70546 net.cpp:100] Creating Layer res2c_branch2a
I0725 21:13:49.650821 70546 net.cpp:434] res2c_branch2a <- res2b_res2b_relu_0_split_0
I0725 21:13:49.650846 70546 net.cpp:408] res2c_branch2a -> res2c_branch2a
I0725 21:13:49.652261 70546 net.cpp:150] Setting up res2c_branch2a
I0725 21:13:49.652277 70546 net.cpp:157] Top shape: 16 64 56 56 (3211264)
I0725 21:13:49.652281 70546 net.cpp:165] Memory required for data: 1345519680
I0725 21:13:49.652304 70546 layer_factory.hpp:77] Creating layer bn2c_branch2a
I0725 21:13:49.652312 70546 net.cpp:100] Creating Layer bn2c_branch2a
I0725 21:13:49.652315 70546 net.cpp:434] bn2c_branch2a <- res2c_branch2a
I0725 21:13:49.652321 70546 net.cpp:395] bn2c_branch2a -> res2c_branch2a (in-place)
I0725 21:13:49.652536 70546 net.cpp:150] Setting up bn2c_branch2a
I0725 21:13:49.652546 70546 net.cpp:157] Top shape: 16 64 56 56 (3211264)
I0725 21:13:49.652549 70546 net.cpp:165] Memory required for data: 1358364736
I0725 21:13:49.652560 70546 layer_factory.hpp:77] Creating layer scale2c_branch2a
I0725 21:13:49.652568 70546 net.cpp:100] Creating Layer scale2c_branch2a
I0725 21:13:49.652572 70546 net.cpp:434] scale2c_branch2a <- res2c_branch2a
I0725 21:13:49.652577 70546 net.cpp:395] scale2c_branch2a -> res2c_branch2a (in-place)
I0725 21:13:49.652657 70546 layer_factory.hpp:77] Creating layer scale2c_branch2a
I0725 21:13:49.652781 70546 net.cpp:150] Setting up scale2c_branch2a
I0725 21:13:49.652789 70546 net.cpp:157] Top shape: 16 64 56 56 (3211264)
I0725 21:13:49.652793 70546 net.cpp:165] Memory required for data: 1371209792
I0725 21:13:49.652801 70546 layer_factory.hpp:77] Creating layer res2c_branch2a_relu
I0725 21:13:49.652809 70546 net.cpp:100] Creating Layer res2c_branch2a_relu
I0725 21:13:49.652813 70546 net.cpp:434] res2c_branch2a_relu <- res2c_branch2a
I0725 21:13:49.652819 70546 net.cpp:395] res2c_branch2a_relu -> res2c_branch2a (in-place)
I0725 21:13:49.653009 70546 net.cpp:150] Setting up res2c_branch2a_relu
I0725 21:13:49.653020 70546 net.cpp:157] Top shape: 16 64 56 56 (3211264)
I0725 21:13:49.653024 70546 net.cpp:165] Memory required for data: 1384054848
I0725 21:13:49.653028 70546 layer_factory.hpp:77] Creating layer res2c_branch2b
I0725 21:13:49.653040 70546 net.cpp:100] Creating Layer res2c_branch2b
I0725 21:13:49.653045 70546 net.cpp:434] res2c_branch2b <- res2c_branch2a
I0725 21:13:49.653069 70546 net.cpp:408] res2c_branch2b -> res2c_branch2b
I0725 21:13:49.654881 70546 net.cpp:150] Setting up res2c_branch2b
I0725 21:13:49.654897 70546 net.cpp:157] Top shape: 16 64 56 56 (3211264)
I0725 21:13:49.654901 70546 net.cpp:165] Memory required for data: 1396899904
I0725 21:13:49.654925 70546 layer_factory.hpp:77] Creating layer bn2c_branch2b
I0725 21:13:49.654934 70546 net.cpp:100] Creating Layer bn2c_branch2b
I0725 21:13:49.654938 70546 net.cpp:434] bn2c_branch2b <- res2c_branch2b
I0725 21:13:49.654944 70546 net.cpp:395] bn2c_branch2b -> res2c_branch2b (in-place)
I0725 21:13:49.655186 70546 net.cpp:150] Setting up bn2c_branch2b
I0725 21:13:49.655197 70546 net.cpp:157] Top shape: 16 64 56 56 (3211264)
I0725 21:13:49.655200 70546 net.cpp:165] Memory required for data: 1409744960
I0725 21:13:49.655210 70546 layer_factory.hpp:77] Creating layer scale2c_branch2b
I0725 21:13:49.655220 70546 net.cpp:100] Creating Layer scale2c_branch2b
I0725 21:13:49.655223 70546 net.cpp:434] scale2c_branch2b <- res2c_branch2b
I0725 21:13:49.655267 70546 net.cpp:395] scale2c_branch2b -> res2c_branch2b (in-place)
I0725 21:13:49.655323 70546 layer_factory.hpp:77] Creating layer scale2c_branch2b
I0725 21:13:49.655443 70546 net.cpp:150] Setting up scale2c_branch2b
I0725 21:13:49.655453 70546 net.cpp:157] Top shape: 16 64 56 56 (3211264)
I0725 21:13:49.655457 70546 net.cpp:165] Memory required for data: 1422590016
I0725 21:13:49.655467 70546 layer_factory.hpp:77] Creating layer res2c_branch2b_relu
I0725 21:13:49.655474 70546 net.cpp:100] Creating Layer res2c_branch2b_relu
I0725 21:13:49.655478 70546 net.cpp:434] res2c_branch2b_relu <- res2c_branch2b
I0725 21:13:49.655483 70546 net.cpp:395] res2c_branch2b_relu -> res2c_branch2b (in-place)
I0725 21:13:49.655987 70546 net.cpp:150] Setting up res2c_branch2b_relu
I0725 21:13:49.656002 70546 net.cpp:157] Top shape: 16 64 56 56 (3211264)
I0725 21:13:49.656036 70546 net.cpp:165] Memory required for data: 1435435072
I0725 21:13:49.656042 70546 layer_factory.hpp:77] Creating layer res2c_branch2c
I0725 21:13:49.656052 70546 net.cpp:100] Creating Layer res2c_branch2c
I0725 21:13:49.656055 70546 net.cpp:434] res2c_branch2c <- res2c_branch2b
I0725 21:13:49.656065 70546 net.cpp:408] res2c_branch2c -> res2c_branch2c
I0725 21:13:49.657481 70546 net.cpp:150] Setting up res2c_branch2c
I0725 21:13:49.657497 70546 net.cpp:157] Top shape: 16 256 56 56 (12845056)
I0725 21:13:49.657500 70546 net.cpp:165] Memory required for data: 1486815296
I0725 21:13:49.657524 70546 layer_factory.hpp:77] Creating layer bn2c_branch2c
I0725 21:13:49.657533 70546 net.cpp:100] Creating Layer bn2c_branch2c
I0725 21:13:49.657538 70546 net.cpp:434] bn2c_branch2c <- res2c_branch2c
I0725 21:13:49.657543 70546 net.cpp:395] bn2c_branch2c -> res2c_branch2c (in-place)
I0725 21:13:49.657748 70546 net.cpp:150] Setting up bn2c_branch2c
I0725 21:13:49.657759 70546 net.cpp:157] Top shape: 16 256 56 56 (12845056)
I0725 21:13:49.657763 70546 net.cpp:165] Memory required for data: 1538195520
I0725 21:13:49.657785 70546 layer_factory.hpp:77] Creating layer scale2c_branch2c
I0725 21:13:49.657794 70546 net.cpp:100] Creating Layer scale2c_branch2c
I0725 21:13:49.657799 70546 net.cpp:434] scale2c_branch2c <- res2c_branch2c
I0725 21:13:49.657804 70546 net.cpp:395] scale2c_branch2c -> res2c_branch2c (in-place)
I0725 21:13:49.657884 70546 layer_factory.hpp:77] Creating layer scale2c_branch2c
I0725 21:13:49.657999 70546 net.cpp:150] Setting up scale2c_branch2c
I0725 21:13:49.658008 70546 net.cpp:157] Top shape: 16 256 56 56 (12845056)
I0725 21:13:49.658011 70546 net.cpp:165] Memory required for data: 1589575744
I0725 21:13:49.658017 70546 layer_factory.hpp:77] Creating layer res2c
I0725 21:13:49.658027 70546 net.cpp:100] Creating Layer res2c
I0725 21:13:49.658033 70546 net.cpp:434] res2c <- res2b_res2b_relu_0_split_1
I0725 21:13:49.658056 70546 net.cpp:434] res2c <- res2c_branch2c
I0725 21:13:49.658078 70546 net.cpp:408] res2c -> res2c
I0725 21:13:49.658105 70546 net.cpp:150] Setting up res2c
I0725 21:13:49.658114 70546 net.cpp:157] Top shape: 16 256 56 56 (12845056)
I0725 21:13:49.658118 70546 net.cpp:165] Memory required for data: 1640955968
I0725 21:13:49.658121 70546 layer_factory.hpp:77] Creating layer res2c_relu
I0725 21:13:49.658145 70546 net.cpp:100] Creating Layer res2c_relu
I0725 21:13:49.658149 70546 net.cpp:434] res2c_relu <- res2c
I0725 21:13:49.658154 70546 net.cpp:395] res2c_relu -> res2c (in-place)
I0725 21:13:49.658366 70546 net.cpp:150] Setting up res2c_relu
I0725 21:13:49.658378 70546 net.cpp:157] Top shape: 16 256 56 56 (12845056)
I0725 21:13:49.658402 70546 net.cpp:165] Memory required for data: 1692336192
I0725 21:13:49.658406 70546 layer_factory.hpp:77] Creating layer res2c_res2c_relu_0_split
I0725 21:13:49.658412 70546 net.cpp:100] Creating Layer res2c_res2c_relu_0_split
I0725 21:13:49.658438 70546 net.cpp:434] res2c_res2c_relu_0_split <- res2c
I0725 21:13:49.658444 70546 net.cpp:408] res2c_res2c_relu_0_split -> res2c_res2c_relu_0_split_0
I0725 21:13:49.658450 70546 net.cpp:408] res2c_res2c_relu_0_split -> res2c_res2c_relu_0_split_1
I0725 21:13:49.658509 70546 net.cpp:150] Setting up res2c_res2c_relu_0_split
I0725 21:13:49.658517 70546 net.cpp:157] Top shape: 16 256 56 56 (12845056)
I0725 21:13:49.658521 70546 net.cpp:157] Top shape: 16 256 56 56 (12845056)
I0725 21:13:49.658526 70546 net.cpp:165] Memory required for data: 1795096640
I0725 21:13:49.658530 70546 layer_factory.hpp:77] Creating layer res3a_branch1
I0725 21:13:49.658558 70546 net.cpp:100] Creating Layer res3a_branch1
I0725 21:13:49.658563 70546 net.cpp:434] res3a_branch1 <- res2c_res2c_relu_0_split_0
I0725 21:13:49.658570 70546 net.cpp:408] res3a_branch1 -> res3a_branch1
I0725 21:13:49.662917 70546 net.cpp:150] Setting up res3a_branch1
I0725 21:13:49.662937 70546 net.cpp:157] Top shape: 16 512 28 28 (6422528)
I0725 21:13:49.662941 70546 net.cpp:165] Memory required for data: 1820786752
I0725 21:13:49.662966 70546 layer_factory.hpp:77] Creating layer bn3a_branch1
I0725 21:13:49.662993 70546 net.cpp:100] Creating Layer bn3a_branch1
I0725 21:13:49.663000 70546 net.cpp:434] bn3a_branch1 <- res3a_branch1
I0725 21:13:49.663007 70546 net.cpp:395] bn3a_branch1 -> res3a_branch1 (in-place)
I0725 21:13:49.664502 70546 net.cpp:150] Setting up bn3a_branch1
I0725 21:13:49.664518 70546 net.cpp:157] Top shape: 16 512 28 28 (6422528)
I0725 21:13:49.664522 70546 net.cpp:165] Memory required for data: 1846476864
I0725 21:13:49.664549 70546 layer_factory.hpp:77] Creating layer scale3a_branch1
I0725 21:13:49.664557 70546 net.cpp:100] Creating Layer scale3a_branch1
I0725 21:13:49.664561 70546 net.cpp:434] scale3a_branch1 <- res3a_branch1
I0725 21:13:49.664566 70546 net.cpp:395] scale3a_branch1 -> res3a_branch1 (in-place)
I0725 21:13:49.664659 70546 layer_factory.hpp:77] Creating layer scale3a_branch1
I0725 21:13:49.664765 70546 net.cpp:150] Setting up scale3a_branch1
I0725 21:13:49.664774 70546 net.cpp:157] Top shape: 16 512 28 28 (6422528)
I0725 21:13:49.664777 70546 net.cpp:165] Memory required for data: 1872166976
I0725 21:13:49.664786 70546 layer_factory.hpp:77] Creating layer res3a_branch2a
I0725 21:13:49.664815 70546 net.cpp:100] Creating Layer res3a_branch2a
I0725 21:13:49.664820 70546 net.cpp:434] res3a_branch2a <- res2c_res2c_relu_0_split_1
I0725 21:13:49.664831 70546 net.cpp:408] res3a_branch2a -> res3a_branch2a
I0725 21:13:49.666926 70546 net.cpp:150] Setting up res3a_branch2a
I0725 21:13:49.666944 70546 net.cpp:157] Top shape: 16 128 28 28 (1605632)
I0725 21:13:49.666947 70546 net.cpp:165] Memory required for data: 1878589504
I0725 21:13:49.666971 70546 layer_factory.hpp:77] Creating layer bn3a_branch2a
I0725 21:13:49.666980 70546 net.cpp:100] Creating Layer bn3a_branch2a
I0725 21:13:49.666985 70546 net.cpp:434] bn3a_branch2a <- res3a_branch2a
I0725 21:13:49.666990 70546 net.cpp:395] bn3a_branch2a -> res3a_branch2a (in-place)
I0725 21:13:49.667217 70546 net.cpp:150] Setting up bn3a_branch2a
I0725 21:13:49.667227 70546 net.cpp:157] Top shape: 16 128 28 28 (1605632)
I0725 21:13:49.667232 70546 net.cpp:165] Memory required for data: 1885012032
I0725 21:13:49.667246 70546 layer_factory.hpp:77] Creating layer scale3a_branch2a
I0725 21:13:49.667269 70546 net.cpp:100] Creating Layer scale3a_branch2a
I0725 21:13:49.667273 70546 net.cpp:434] scale3a_branch2a <- res3a_branch2a
I0725 21:13:49.667295 70546 net.cpp:395] scale3a_branch2a -> res3a_branch2a (in-place)
I0725 21:13:49.667358 70546 layer_factory.hpp:77] Creating layer scale3a_branch2a
I0725 21:13:49.667471 70546 net.cpp:150] Setting up scale3a_branch2a
I0725 21:13:49.667480 70546 net.cpp:157] Top shape: 16 128 28 28 (1605632)
I0725 21:13:49.667484 70546 net.cpp:165] Memory required for data: 1891434560
I0725 21:13:49.667490 70546 layer_factory.hpp:77] Creating layer res3a_branch2a_relu
I0725 21:13:49.667500 70546 net.cpp:100] Creating Layer res3a_branch2a_relu
I0725 21:13:49.667505 70546 net.cpp:434] res3a_branch2a_relu <- res3a_branch2a
I0725 21:13:49.667527 70546 net.cpp:395] res3a_branch2a_relu -> res3a_branch2a (in-place)
I0725 21:13:49.667732 70546 net.cpp:150] Setting up res3a_branch2a_relu
I0725 21:13:49.667744 70546 net.cpp:157] Top shape: 16 128 28 28 (1605632)
I0725 21:13:49.667748 70546 net.cpp:165] Memory required for data: 1897857088
I0725 21:13:49.667754 70546 layer_factory.hpp:77] Creating layer res3a_branch2b
I0725 21:13:49.667783 70546 net.cpp:100] Creating Layer res3a_branch2b
I0725 21:13:49.667806 70546 net.cpp:434] res3a_branch2b <- res3a_branch2a
I0725 21:13:49.667814 70546 net.cpp:408] res3a_branch2b -> res3a_branch2b
I0725 21:13:49.672523 70546 net.cpp:150] Setting up res3a_branch2b
I0725 21:13:49.672543 70546 net.cpp:157] Top shape: 16 128 28 28 (1605632)
I0725 21:13:49.672546 70546 net.cpp:165] Memory required for data: 1904279616
I0725 21:13:49.672570 70546 layer_factory.hpp:77] Creating layer bn3a_branch2b
I0725 21:13:49.672581 70546 net.cpp:100] Creating Layer bn3a_branch2b
I0725 21:13:49.672585 70546 net.cpp:434] bn3a_branch2b <- res3a_branch2b
I0725 21:13:49.672590 70546 net.cpp:395] bn3a_branch2b -> res3a_branch2b (in-place)
I0725 21:13:49.672847 70546 net.cpp:150] Setting up bn3a_branch2b
I0725 21:13:49.672857 70546 net.cpp:157] Top shape: 16 128 28 28 (1605632)
I0725 21:13:49.672860 70546 net.cpp:165] Memory required for data: 1910702144
I0725 21:13:49.672868 70546 layer_factory.hpp:77] Creating layer scale3a_branch2b
I0725 21:13:49.672878 70546 net.cpp:100] Creating Layer scale3a_branch2b
I0725 21:13:49.672883 70546 net.cpp:434] scale3a_branch2b <- res3a_branch2b
I0725 21:13:49.672909 70546 net.cpp:395] scale3a_branch2b -> res3a_branch2b (in-place)
I0725 21:13:49.672968 70546 layer_factory.hpp:77] Creating layer scale3a_branch2b
I0725 21:13:49.673077 70546 net.cpp:150] Setting up scale3a_branch2b
I0725 21:13:49.673087 70546 net.cpp:157] Top shape: 16 128 28 28 (1605632)
I0725 21:13:49.673090 70546 net.cpp:165] Memory required for data: 1917124672
I0725 21:13:49.673099 70546 layer_factory.hpp:77] Creating layer res3a_branch2b_relu
I0725 21:13:49.673107 70546 net.cpp:100] Creating Layer res3a_branch2b_relu
I0725 21:13:49.673130 70546 net.cpp:434] res3a_branch2b_relu <- res3a_branch2b
I0725 21:13:49.673135 70546 net.cpp:395] res3a_branch2b_relu -> res3a_branch2b (in-place)
I0725 21:13:49.673326 70546 net.cpp:150] Setting up res3a_branch2b_relu
I0725 21:13:49.673341 70546 net.cpp:157] Top shape: 16 128 28 28 (1605632)
I0725 21:13:49.673346 70546 net.cpp:165] Memory required for data: 1923547200
I0725 21:13:49.673349 70546 layer_factory.hpp:77] Creating layer res3a_branch2c
I0725 21:13:49.673377 70546 net.cpp:100] Creating Layer res3a_branch2c
I0725 21:13:49.673382 70546 net.cpp:434] res3a_branch2c <- res3a_branch2b
I0725 21:13:49.673408 70546 net.cpp:408] res3a_branch2c -> res3a_branch2c
I0725 21:13:49.675917 70546 net.cpp:150] Setting up res3a_branch2c
I0725 21:13:49.675935 70546 net.cpp:157] Top shape: 16 512 28 28 (6422528)
I0725 21:13:49.675938 70546 net.cpp:165] Memory required for data: 1949237312
I0725 21:13:49.675961 70546 layer_factory.hpp:77] Creating layer bn3a_branch2c
I0725 21:13:49.675981 70546 net.cpp:100] Creating Layer bn3a_branch2c
I0725 21:13:49.675988 70546 net.cpp:434] bn3a_branch2c <- res3a_branch2c
I0725 21:13:49.675993 70546 net.cpp:395] bn3a_branch2c -> res3a_branch2c (in-place)
I0725 21:13:49.676215 70546 net.cpp:150] Setting up bn3a_branch2c
I0725 21:13:49.676226 70546 net.cpp:157] Top shape: 16 512 28 28 (6422528)
I0725 21:13:49.676229 70546 net.cpp:165] Memory required for data: 1974927424
I0725 21:13:49.676237 70546 layer_factory.hpp:77] Creating layer scale3a_branch2c
I0725 21:13:49.676250 70546 net.cpp:100] Creating Layer scale3a_branch2c
I0725 21:13:49.676254 70546 net.cpp:434] scale3a_branch2c <- res3a_branch2c
I0725 21:13:49.676276 70546 net.cpp:395] scale3a_branch2c -> res3a_branch2c (in-place)
I0725 21:13:49.676340 70546 layer_factory.hpp:77] Creating layer scale3a_branch2c
I0725 21:13:49.676450 70546 net.cpp:150] Setting up scale3a_branch2c
I0725 21:13:49.676460 70546 net.cpp:157] Top shape: 16 512 28 28 (6422528)
I0725 21:13:49.676462 70546 net.cpp:165] Memory required for data: 2000617536
I0725 21:13:49.676471 70546 layer_factory.hpp:77] Creating layer res3a
I0725 21:13:49.676499 70546 net.cpp:100] Creating Layer res3a
I0725 21:13:49.676504 70546 net.cpp:434] res3a <- res3a_branch1
I0725 21:13:49.676508 70546 net.cpp:434] res3a <- res3a_branch2c
I0725 21:13:49.676513 70546 net.cpp:408] res3a -> res3a
I0725 21:13:49.676558 70546 net.cpp:150] Setting up res3a
I0725 21:13:49.676568 70546 net.cpp:157] Top shape: 16 512 28 28 (6422528)
I0725 21:13:49.676570 70546 net.cpp:165] Memory required for data: 2026307648
I0725 21:13:49.676573 70546 layer_factory.hpp:77] Creating layer res3a_relu
I0725 21:13:49.676579 70546 net.cpp:100] Creating Layer res3a_relu
I0725 21:13:49.676585 70546 net.cpp:434] res3a_relu <- res3a
I0725 21:13:49.676592 70546 net.cpp:395] res3a_relu -> res3a (in-place)
I0725 21:13:49.676793 70546 net.cpp:150] Setting up res3a_relu
I0725 21:13:49.676805 70546 net.cpp:157] Top shape: 16 512 28 28 (6422528)
I0725 21:13:49.676808 70546 net.cpp:165] Memory required for data: 2051997760
I0725 21:13:49.676828 70546 layer_factory.hpp:77] Creating layer res3a_res3a_relu_0_split
I0725 21:13:49.676836 70546 net.cpp:100] Creating Layer res3a_res3a_relu_0_split
I0725 21:13:49.676839 70546 net.cpp:434] res3a_res3a_relu_0_split <- res3a
I0725 21:13:49.676864 70546 net.cpp:408] res3a_res3a_relu_0_split -> res3a_res3a_relu_0_split_0
I0725 21:13:49.676889 70546 net.cpp:408] res3a_res3a_relu_0_split -> res3a_res3a_relu_0_split_1
I0725 21:13:49.676933 70546 net.cpp:150] Setting up res3a_res3a_relu_0_split
I0725 21:13:49.676941 70546 net.cpp:157] Top shape: 16 512 28 28 (6422528)
I0725 21:13:49.676945 70546 net.cpp:157] Top shape: 16 512 28 28 (6422528)
I0725 21:13:49.676950 70546 net.cpp:165] Memory required for data: 2103377984
I0725 21:13:49.676954 70546 layer_factory.hpp:77] Creating layer res3b_branch2a
I0725 21:13:49.676982 70546 net.cpp:100] Creating Layer res3b_branch2a
I0725 21:13:49.676988 70546 net.cpp:434] res3b_branch2a <- res3a_res3a_relu_0_split_0
I0725 21:13:49.676993 70546 net.cpp:408] res3b_branch2a -> res3b_branch2a
I0725 21:13:49.679499 70546 net.cpp:150] Setting up res3b_branch2a
I0725 21:13:49.679517 70546 net.cpp:157] Top shape: 16 128 28 28 (1605632)
I0725 21:13:49.679522 70546 net.cpp:165] Memory required for data: 2109800512
I0725 21:13:49.679545 70546 layer_factory.hpp:77] Creating layer bn3b_branch2a
I0725 21:13:49.679551 70546 net.cpp:100] Creating Layer bn3b_branch2a
I0725 21:13:49.679555 70546 net.cpp:434] bn3b_branch2a <- res3b_branch2a
I0725 21:13:49.679561 70546 net.cpp:395] bn3b_branch2a -> res3b_branch2a (in-place)
I0725 21:13:49.679770 70546 net.cpp:150] Setting up bn3b_branch2a
I0725 21:13:49.679780 70546 net.cpp:157] Top shape: 16 128 28 28 (1605632)
I0725 21:13:49.679785 70546 net.cpp:165] Memory required for data: 2116223040
I0725 21:13:49.679792 70546 layer_factory.hpp:77] Creating layer scale3b_branch2a
I0725 21:13:49.679801 70546 net.cpp:100] Creating Layer scale3b_branch2a
I0725 21:13:49.679805 70546 net.cpp:434] scale3b_branch2a <- res3b_branch2a
I0725 21:13:49.679827 70546 net.cpp:395] scale3b_branch2a -> res3b_branch2a (in-place)
I0725 21:13:49.679870 70546 layer_factory.hpp:77] Creating layer scale3b_branch2a
I0725 21:13:49.679985 70546 net.cpp:150] Setting up scale3b_branch2a
I0725 21:13:49.679994 70546 net.cpp:157] Top shape: 16 128 28 28 (1605632)
I0725 21:13:49.679997 70546 net.cpp:165] Memory required for data: 2122645568
I0725 21:13:49.680003 70546 layer_factory.hpp:77] Creating layer res3b_branch2a_relu
I0725 21:13:49.680014 70546 net.cpp:100] Creating Layer res3b_branch2a_relu
I0725 21:13:49.680017 70546 net.cpp:434] res3b_branch2a_relu <- res3b_branch2a
I0725 21:13:49.680040 70546 net.cpp:395] res3b_branch2a_relu -> res3b_branch2a (in-place)
I0725 21:13:49.680233 70546 net.cpp:150] Setting up res3b_branch2a_relu
I0725 21:13:49.680245 70546 net.cpp:157] Top shape: 16 128 28 28 (1605632)
I0725 21:13:49.680253 70546 net.cpp:165] Memory required for data: 2129068096
I0725 21:13:49.680256 70546 layer_factory.hpp:77] Creating layer res3b_branch2b
I0725 21:13:49.680284 70546 net.cpp:100] Creating Layer res3b_branch2b
I0725 21:13:49.680287 70546 net.cpp:434] res3b_branch2b <- res3b_branch2a
I0725 21:13:49.680312 70546 net.cpp:408] res3b_branch2b -> res3b_branch2b
I0725 21:13:49.686218 70546 net.cpp:150] Setting up res3b_branch2b
I0725 21:13:49.686244 70546 net.cpp:157] Top shape: 16 128 28 28 (1605632)
I0725 21:13:49.686247 70546 net.cpp:165] Memory required for data: 2135490624
I0725 21:13:49.686273 70546 layer_factory.hpp:77] Creating layer bn3b_branch2b
I0725 21:13:49.686282 70546 net.cpp:100] Creating Layer bn3b_branch2b
I0725 21:13:49.686287 70546 net.cpp:434] bn3b_branch2b <- res3b_branch2b
I0725 21:13:49.686292 70546 net.cpp:395] bn3b_branch2b -> res3b_branch2b (in-place)
I0725 21:13:49.686501 70546 net.cpp:150] Setting up bn3b_branch2b
I0725 21:13:49.686511 70546 net.cpp:157] Top shape: 16 128 28 28 (1605632)
I0725 21:13:49.686514 70546 net.cpp:165] Memory required for data: 2141913152
I0725 21:13:49.686522 70546 layer_factory.hpp:77] Creating layer scale3b_branch2b
I0725 21:13:49.686548 70546 net.cpp:100] Creating Layer scale3b_branch2b
I0725 21:13:49.686555 70546 net.cpp:434] scale3b_branch2b <- res3b_branch2b
I0725 21:13:49.686563 70546 net.cpp:395] scale3b_branch2b -> res3b_branch2b (in-place)
I0725 21:13:49.686625 70546 layer_factory.hpp:77] Creating layer scale3b_branch2b
I0725 21:13:49.686738 70546 net.cpp:150] Setting up scale3b_branch2b
I0725 21:13:49.686748 70546 net.cpp:157] Top shape: 16 128 28 28 (1605632)
I0725 21:13:49.686751 70546 net.cpp:165] Memory required for data: 2148335680
I0725 21:13:49.686760 70546 layer_factory.hpp:77] Creating layer res3b_branch2b_relu
I0725 21:13:49.686785 70546 net.cpp:100] Creating Layer res3b_branch2b_relu
I0725 21:13:49.686790 70546 net.cpp:434] res3b_branch2b_relu <- res3b_branch2b
I0725 21:13:49.686795 70546 net.cpp:395] res3b_branch2b_relu -> res3b_branch2b (in-place)
I0725 21:13:49.687373 70546 net.cpp:150] Setting up res3b_branch2b_relu
I0725 21:13:49.687391 70546 net.cpp:157] Top shape: 16 128 28 28 (1605632)
I0725 21:13:49.687394 70546 net.cpp:165] Memory required for data: 2154758208
I0725 21:13:49.687398 70546 layer_factory.hpp:77] Creating layer res3b_branch2c
I0725 21:13:49.687412 70546 net.cpp:100] Creating Layer res3b_branch2c
I0725 21:13:49.687419 70546 net.cpp:434] res3b_branch2c <- res3b_branch2b
I0725 21:13:49.687427 70546 net.cpp:408] res3b_branch2c -> res3b_branch2c
I0725 21:13:49.689703 70546 net.cpp:150] Setting up res3b_branch2c
I0725 21:13:49.689718 70546 net.cpp:157] Top shape: 16 512 28 28 (6422528)
I0725 21:13:49.689720 70546 net.cpp:165] Memory required for data: 2180448320
I0725 21:13:49.689743 70546 layer_factory.hpp:77] Creating layer bn3b_branch2c
I0725 21:13:49.689752 70546 net.cpp:100] Creating Layer bn3b_branch2c
I0725 21:13:49.689755 70546 net.cpp:434] bn3b_branch2c <- res3b_branch2c
I0725 21:13:49.689760 70546 net.cpp:395] bn3b_branch2c -> res3b_branch2c (in-place)
I0725 21:13:49.689992 70546 net.cpp:150] Setting up bn3b_branch2c
I0725 21:13:49.690002 70546 net.cpp:157] Top shape: 16 512 28 28 (6422528)
I0725 21:13:49.690006 70546 net.cpp:165] Memory required for data: 2206138432
I0725 21:13:49.690013 70546 layer_factory.hpp:77] Creating layer scale3b_branch2c
I0725 21:13:49.690022 70546 net.cpp:100] Creating Layer scale3b_branch2c
I0725 21:13:49.690026 70546 net.cpp:434] scale3b_branch2c <- res3b_branch2c
I0725 21:13:49.690050 70546 net.cpp:395] scale3b_branch2c -> res3b_branch2c (in-place)
I0725 21:13:49.690110 70546 layer_factory.hpp:77] Creating layer scale3b_branch2c
I0725 21:13:49.690222 70546 net.cpp:150] Setting up scale3b_branch2c
I0725 21:13:49.690230 70546 net.cpp:157] Top shape: 16 512 28 28 (6422528)
I0725 21:13:49.690233 70546 net.cpp:165] Memory required for data: 2231828544
I0725 21:13:49.690243 70546 layer_factory.hpp:77] Creating layer res3b
I0725 21:13:49.690251 70546 net.cpp:100] Creating Layer res3b
I0725 21:13:49.690274 70546 net.cpp:434] res3b <- res3a_res3a_relu_0_split_1
I0725 21:13:49.690279 70546 net.cpp:434] res3b <- res3b_branch2c
I0725 21:13:49.690284 70546 net.cpp:408] res3b -> res3b
I0725 21:13:49.690330 70546 net.cpp:150] Setting up res3b
I0725 21:13:49.690337 70546 net.cpp:157] Top shape: 16 512 28 28 (6422528)
I0725 21:13:49.690340 70546 net.cpp:165] Memory required for data: 2257518656
I0725 21:13:49.690343 70546 layer_factory.hpp:77] Creating layer res3b_relu
I0725 21:13:49.690353 70546 net.cpp:100] Creating Layer res3b_relu
I0725 21:13:49.690357 70546 net.cpp:434] res3b_relu <- res3b
I0725 21:13:49.690361 70546 net.cpp:395] res3b_relu -> res3b (in-place)
I0725 21:13:49.690877 70546 net.cpp:150] Setting up res3b_relu
I0725 21:13:49.690898 70546 net.cpp:157] Top shape: 16 512 28 28 (6422528)
I0725 21:13:49.690901 70546 net.cpp:165] Memory required for data: 2283208768
I0725 21:13:49.690923 70546 layer_factory.hpp:77] Creating layer res3b_res3b_relu_0_split
I0725 21:13:49.690932 70546 net.cpp:100] Creating Layer res3b_res3b_relu_0_split
I0725 21:13:49.690937 70546 net.cpp:434] res3b_res3b_relu_0_split <- res3b
I0725 21:13:49.690955 70546 net.cpp:408] res3b_res3b_relu_0_split -> res3b_res3b_relu_0_split_0
I0725 21:13:49.690963 70546 net.cpp:408] res3b_res3b_relu_0_split -> res3b_res3b_relu_0_split_1
I0725 21:13:49.691048 70546 net.cpp:150] Setting up res3b_res3b_relu_0_split
I0725 21:13:49.691059 70546 net.cpp:157] Top shape: 16 512 28 28 (6422528)
I0725 21:13:49.691063 70546 net.cpp:157] Top shape: 16 512 28 28 (6422528)
I0725 21:13:49.691066 70546 net.cpp:165] Memory required for data: 2334588992
I0725 21:13:49.691087 70546 layer_factory.hpp:77] Creating layer res3c_branch2a
I0725 21:13:49.691098 70546 net.cpp:100] Creating Layer res3c_branch2a
I0725 21:13:49.691103 70546 net.cpp:434] res3c_branch2a <- res3b_res3b_relu_0_split_0
I0725 21:13:49.691110 70546 net.cpp:408] res3c_branch2a -> res3c_branch2a
I0725 21:13:49.693630 70546 net.cpp:150] Setting up res3c_branch2a
I0725 21:13:49.693647 70546 net.cpp:157] Top shape: 16 128 28 28 (1605632)
I0725 21:13:49.693650 70546 net.cpp:165] Memory required for data: 2341011520
I0725 21:13:49.693675 70546 layer_factory.hpp:77] Creating layer bn3c_branch2a
I0725 21:13:49.693682 70546 net.cpp:100] Creating Layer bn3c_branch2a
I0725 21:13:49.693686 70546 net.cpp:434] bn3c_branch2a <- res3c_branch2a
I0725 21:13:49.693692 70546 net.cpp:395] bn3c_branch2a -> res3c_branch2a (in-place)
I0725 21:13:49.693910 70546 net.cpp:150] Setting up bn3c_branch2a
I0725 21:13:49.693920 70546 net.cpp:157] Top shape: 16 128 28 28 (1605632)
I0725 21:13:49.693924 70546 net.cpp:165] Memory required for data: 2347434048
I0725 21:13:49.693933 70546 layer_factory.hpp:77] Creating layer scale3c_branch2a
I0725 21:13:49.693941 70546 net.cpp:100] Creating Layer scale3c_branch2a
I0725 21:13:49.693945 70546 net.cpp:434] scale3c_branch2a <- res3c_branch2a
I0725 21:13:49.693967 70546 net.cpp:395] scale3c_branch2a -> res3c_branch2a (in-place)
I0725 21:13:49.694030 70546 layer_factory.hpp:77] Creating layer scale3c_branch2a
I0725 21:13:49.694142 70546 net.cpp:150] Setting up scale3c_branch2a
I0725 21:13:49.694151 70546 net.cpp:157] Top shape: 16 128 28 28 (1605632)
I0725 21:13:49.694154 70546 net.cpp:165] Memory required for data: 2353856576
I0725 21:13:49.694160 70546 layer_factory.hpp:77] Creating layer res3c_branch2a_relu
I0725 21:13:49.694169 70546 net.cpp:100] Creating Layer res3c_branch2a_relu
I0725 21:13:49.694174 70546 net.cpp:434] res3c_branch2a_relu <- res3c_branch2a
I0725 21:13:49.694196 70546 net.cpp:395] res3c_branch2a_relu -> res3c_branch2a (in-place)
I0725 21:13:49.694387 70546 net.cpp:150] Setting up res3c_branch2a_relu
I0725 21:13:49.694401 70546 net.cpp:157] Top shape: 16 128 28 28 (1605632)
I0725 21:13:49.694403 70546 net.cpp:165] Memory required for data: 2360279104
I0725 21:13:49.694406 70546 layer_factory.hpp:77] Creating layer res3c_branch2b
I0725 21:13:49.694420 70546 net.cpp:100] Creating Layer res3c_branch2b
I0725 21:13:49.694424 70546 net.cpp:434] res3c_branch2b <- res3c_branch2a
I0725 21:13:49.694450 70546 net.cpp:408] res3c_branch2b -> res3c_branch2b
I0725 21:13:49.699214 70546 net.cpp:150] Setting up res3c_branch2b
I0725 21:13:49.699261 70546 net.cpp:157] Top shape: 16 128 28 28 (1605632)
I0725 21:13:49.699267 70546 net.cpp:165] Memory required for data: 2366701632
I0725 21:13:49.699288 70546 layer_factory.hpp:77] Creating layer bn3c_branch2b
I0725 21:13:49.699295 70546 net.cpp:100] Creating Layer bn3c_branch2b
I0725 21:13:49.699300 70546 net.cpp:434] bn3c_branch2b <- res3c_branch2b
I0725 21:13:49.699319 70546 net.cpp:395] bn3c_branch2b -> res3c_branch2b (in-place)
I0725 21:13:49.699560 70546 net.cpp:150] Setting up bn3c_branch2b
I0725 21:13:49.699573 70546 net.cpp:157] Top shape: 16 128 28 28 (1605632)
I0725 21:13:49.699575 70546 net.cpp:165] Memory required for data: 2373124160
I0725 21:13:49.699616 70546 layer_factory.hpp:77] Creating layer scale3c_branch2b
I0725 21:13:49.699626 70546 net.cpp:100] Creating Layer scale3c_branch2b
I0725 21:13:49.699630 70546 net.cpp:434] scale3c_branch2b <- res3c_branch2b
I0725 21:13:49.699635 70546 net.cpp:395] scale3c_branch2b -> res3c_branch2b (in-place)
I0725 21:13:49.699741 70546 layer_factory.hpp:77] Creating layer scale3c_branch2b
I0725 21:13:49.699884 70546 net.cpp:150] Setting up scale3c_branch2b
I0725 21:13:49.699913 70546 net.cpp:157] Top shape: 16 128 28 28 (1605632)
I0725 21:13:49.699916 70546 net.cpp:165] Memory required for data: 2379546688
I0725 21:13:49.699923 70546 layer_factory.hpp:77] Creating layer res3c_branch2b_relu
I0725 21:13:49.699932 70546 net.cpp:100] Creating Layer res3c_branch2b_relu
I0725 21:13:49.699936 70546 net.cpp:434] res3c_branch2b_relu <- res3c_branch2b
I0725 21:13:49.699960 70546 net.cpp:395] res3c_branch2b_relu -> res3c_branch2b (in-place)
I0725 21:13:49.700176 70546 net.cpp:150] Setting up res3c_branch2b_relu
I0725 21:13:49.700188 70546 net.cpp:157] Top shape: 16 128 28 28 (1605632)
I0725 21:13:49.700191 70546 net.cpp:165] Memory required for data: 2385969216
I0725 21:13:49.700196 70546 layer_factory.hpp:77] Creating layer res3c_branch2c
I0725 21:13:49.700225 70546 net.cpp:100] Creating Layer res3c_branch2c
I0725 21:13:49.700247 70546 net.cpp:434] res3c_branch2c <- res3c_branch2b
I0725 21:13:49.700255 70546 net.cpp:408] res3c_branch2c -> res3c_branch2c
I0725 21:13:49.702790 70546 net.cpp:150] Setting up res3c_branch2c
I0725 21:13:49.702805 70546 net.cpp:157] Top shape: 16 512 28 28 (6422528)
I0725 21:13:49.702810 70546 net.cpp:165] Memory required for data: 2411659328
I0725 21:13:49.702833 70546 layer_factory.hpp:77] Creating layer bn3c_branch2c
I0725 21:13:49.702842 70546 net.cpp:100] Creating Layer bn3c_branch2c
I0725 21:13:49.702847 70546 net.cpp:434] bn3c_branch2c <- res3c_branch2c
I0725 21:13:49.702852 70546 net.cpp:395] bn3c_branch2c -> res3c_branch2c (in-place)
I0725 21:13:49.703066 70546 net.cpp:150] Setting up bn3c_branch2c
I0725 21:13:49.703078 70546 net.cpp:157] Top shape: 16 512 28 28 (6422528)
I0725 21:13:49.703080 70546 net.cpp:165] Memory required for data: 2437349440
I0725 21:13:49.703088 70546 layer_factory.hpp:77] Creating layer scale3c_branch2c
I0725 21:13:49.703099 70546 net.cpp:100] Creating Layer scale3c_branch2c
I0725 21:13:49.703104 70546 net.cpp:434] scale3c_branch2c <- res3c_branch2c
I0725 21:13:49.703109 70546 net.cpp:395] scale3c_branch2c -> res3c_branch2c (in-place)
I0725 21:13:49.703155 70546 layer_factory.hpp:77] Creating layer scale3c_branch2c
I0725 21:13:49.703287 70546 net.cpp:150] Setting up scale3c_branch2c
I0725 21:13:49.703297 70546 net.cpp:157] Top shape: 16 512 28 28 (6422528)
I0725 21:13:49.703300 70546 net.cpp:165] Memory required for data: 2463039552
I0725 21:13:49.703307 70546 layer_factory.hpp:77] Creating layer res3c
I0725 21:13:49.703317 70546 net.cpp:100] Creating Layer res3c
I0725 21:13:49.703321 70546 net.cpp:434] res3c <- res3b_res3b_relu_0_split_1
I0725 21:13:49.703346 70546 net.cpp:434] res3c <- res3c_branch2c
I0725 21:13:49.703352 70546 net.cpp:408] res3c -> res3c
I0725 21:13:49.703399 70546 net.cpp:150] Setting up res3c
I0725 21:13:49.703408 70546 net.cpp:157] Top shape: 16 512 28 28 (6422528)
I0725 21:13:49.703411 70546 net.cpp:165] Memory required for data: 2488729664
I0725 21:13:49.703414 70546 layer_factory.hpp:77] Creating layer res3c_relu
I0725 21:13:49.703423 70546 net.cpp:100] Creating Layer res3c_relu
I0725 21:13:49.703426 70546 net.cpp:434] res3c_relu <- res3c
I0725 21:13:49.703430 70546 net.cpp:395] res3c_relu -> res3c (in-place)
I0725 21:13:49.703637 70546 net.cpp:150] Setting up res3c_relu
I0725 21:13:49.703649 70546 net.cpp:157] Top shape: 16 512 28 28 (6422528)
I0725 21:13:49.703652 70546 net.cpp:165] Memory required for data: 2514419776
I0725 21:13:49.703656 70546 layer_factory.hpp:77] Creating layer res3c_res3c_relu_0_split
I0725 21:13:49.703665 70546 net.cpp:100] Creating Layer res3c_res3c_relu_0_split
I0725 21:13:49.703670 70546 net.cpp:434] res3c_res3c_relu_0_split <- res3c
I0725 21:13:49.703696 70546 net.cpp:408] res3c_res3c_relu_0_split -> res3c_res3c_relu_0_split_0
I0725 21:13:49.703721 70546 net.cpp:408] res3c_res3c_relu_0_split -> res3c_res3c_relu_0_split_1
I0725 21:13:49.703766 70546 net.cpp:150] Setting up res3c_res3c_relu_0_split
I0725 21:13:49.703774 70546 net.cpp:157] Top shape: 16 512 28 28 (6422528)
I0725 21:13:49.703794 70546 net.cpp:157] Top shape: 16 512 28 28 (6422528)
I0725 21:13:49.703799 70546 net.cpp:165] Memory required for data: 2565800000
I0725 21:13:49.703801 70546 layer_factory.hpp:77] Creating layer res3d_branch2a
I0725 21:13:49.703832 70546 net.cpp:100] Creating Layer res3d_branch2a
I0725 21:13:49.703837 70546 net.cpp:434] res3d_branch2a <- res3c_res3c_relu_0_split_0
I0725 21:13:49.703843 70546 net.cpp:408] res3d_branch2a -> res3d_branch2a
I0725 21:13:49.707558 70546 net.cpp:150] Setting up res3d_branch2a
I0725 21:13:49.707587 70546 net.cpp:157] Top shape: 16 128 28 28 (1605632)
I0725 21:13:49.707592 70546 net.cpp:165] Memory required for data: 2572222528
I0725 21:13:49.707615 70546 layer_factory.hpp:77] Creating layer bn3d_branch2a
I0725 21:13:49.707624 70546 net.cpp:100] Creating Layer bn3d_branch2a
I0725 21:13:49.707628 70546 net.cpp:434] bn3d_branch2a <- res3d_branch2a
I0725 21:13:49.707633 70546 net.cpp:395] bn3d_branch2a -> res3d_branch2a (in-place)
I0725 21:13:49.707852 70546 net.cpp:150] Setting up bn3d_branch2a
I0725 21:13:49.707862 70546 net.cpp:157] Top shape: 16 128 28 28 (1605632)
I0725 21:13:49.707865 70546 net.cpp:165] Memory required for data: 2578645056
I0725 21:13:49.707901 70546 layer_factory.hpp:77] Creating layer scale3d_branch2a
I0725 21:13:49.707909 70546 net.cpp:100] Creating Layer scale3d_branch2a
I0725 21:13:49.707916 70546 net.cpp:434] scale3d_branch2a <- res3d_branch2a
I0725 21:13:49.707922 70546 net.cpp:395] scale3d_branch2a -> res3d_branch2a (in-place)
I0725 21:13:49.708009 70546 layer_factory.hpp:77] Creating layer scale3d_branch2a
I0725 21:13:49.708150 70546 net.cpp:150] Setting up scale3d_branch2a
I0725 21:13:49.708160 70546 net.cpp:157] Top shape: 16 128 28 28 (1605632)
I0725 21:13:49.708163 70546 net.cpp:165] Memory required for data: 2585067584
I0725 21:13:49.708170 70546 layer_factory.hpp:77] Creating layer res3d_branch2a_relu
I0725 21:13:49.708178 70546 net.cpp:100] Creating Layer res3d_branch2a_relu
I0725 21:13:49.708183 70546 net.cpp:434] res3d_branch2a_relu <- res3d_branch2a
I0725 21:13:49.708186 70546 net.cpp:395] res3d_branch2a_relu -> res3d_branch2a (in-place)
I0725 21:13:49.708415 70546 net.cpp:150] Setting up res3d_branch2a_relu
I0725 21:13:49.708427 70546 net.cpp:157] Top shape: 16 128 28 28 (1605632)
I0725 21:13:49.708431 70546 net.cpp:165] Memory required for data: 2591490112
I0725 21:13:49.708434 70546 layer_factory.hpp:77] Creating layer res3d_branch2b
I0725 21:13:49.708464 70546 net.cpp:100] Creating Layer res3d_branch2b
I0725 21:13:49.708487 70546 net.cpp:434] res3d_branch2b <- res3d_branch2a
I0725 21:13:49.708495 70546 net.cpp:408] res3d_branch2b -> res3d_branch2b
I0725 21:13:49.713340 70546 net.cpp:150] Setting up res3d_branch2b
I0725 21:13:49.713358 70546 net.cpp:157] Top shape: 16 128 28 28 (1605632)
I0725 21:13:49.713362 70546 net.cpp:165] Memory required for data: 2597912640
I0725 21:13:49.713387 70546 layer_factory.hpp:77] Creating layer bn3d_branch2b
I0725 21:13:49.713397 70546 net.cpp:100] Creating Layer bn3d_branch2b
I0725 21:13:49.713402 70546 net.cpp:434] bn3d_branch2b <- res3d_branch2b
I0725 21:13:49.713407 70546 net.cpp:395] bn3d_branch2b -> res3d_branch2b (in-place)
I0725 21:13:49.713624 70546 net.cpp:150] Setting up bn3d_branch2b
I0725 21:13:49.713634 70546 net.cpp:157] Top shape: 16 128 28 28 (1605632)
I0725 21:13:49.713639 70546 net.cpp:165] Memory required for data: 2604335168
I0725 21:13:49.713649 70546 layer_factory.hpp:77] Creating layer scale3d_branch2b
I0725 21:13:49.713675 70546 net.cpp:100] Creating Layer scale3d_branch2b
I0725 21:13:49.713678 70546 net.cpp:434] scale3d_branch2b <- res3d_branch2b
I0725 21:13:49.713683 70546 net.cpp:395] scale3d_branch2b -> res3d_branch2b (in-place)
I0725 21:13:49.713728 70546 layer_factory.hpp:77] Creating layer scale3d_branch2b
I0725 21:13:49.713846 70546 net.cpp:150] Setting up scale3d_branch2b
I0725 21:13:49.713855 70546 net.cpp:157] Top shape: 16 128 28 28 (1605632)
I0725 21:13:49.713860 70546 net.cpp:165] Memory required for data: 2610757696
I0725 21:13:49.713886 70546 layer_factory.hpp:77] Creating layer res3d_branch2b_relu
I0725 21:13:49.713892 70546 net.cpp:100] Creating Layer res3d_branch2b_relu
I0725 21:13:49.713918 70546 net.cpp:434] res3d_branch2b_relu <- res3d_branch2b
I0725 21:13:49.713942 70546 net.cpp:395] res3d_branch2b_relu -> res3d_branch2b (in-place)
I0725 21:13:49.714435 70546 net.cpp:150] Setting up res3d_branch2b_relu
I0725 21:13:49.714450 70546 net.cpp:157] Top shape: 16 128 28 28 (1605632)
I0725 21:13:49.714454 70546 net.cpp:165] Memory required for data: 2617180224
I0725 21:13:49.714474 70546 layer_factory.hpp:77] Creating layer res3d_branch2c
I0725 21:13:49.714486 70546 net.cpp:100] Creating Layer res3d_branch2c
I0725 21:13:49.714490 70546 net.cpp:434] res3d_branch2c <- res3d_branch2b
I0725 21:13:49.714498 70546 net.cpp:408] res3d_branch2c -> res3d_branch2c
I0725 21:13:49.716805 70546 net.cpp:150] Setting up res3d_branch2c
I0725 21:13:49.716820 70546 net.cpp:157] Top shape: 16 512 28 28 (6422528)
I0725 21:13:49.716823 70546 net.cpp:165] Memory required for data: 2642870336
I0725 21:13:49.716846 70546 layer_factory.hpp:77] Creating layer bn3d_branch2c
I0725 21:13:49.716856 70546 net.cpp:100] Creating Layer bn3d_branch2c
I0725 21:13:49.716859 70546 net.cpp:434] bn3d_branch2c <- res3d_branch2c
I0725 21:13:49.716863 70546 net.cpp:395] bn3d_branch2c -> res3d_branch2c (in-place)
I0725 21:13:49.717074 70546 net.cpp:150] Setting up bn3d_branch2c
I0725 21:13:49.717084 70546 net.cpp:157] Top shape: 16 512 28 28 (6422528)
I0725 21:13:49.717087 70546 net.cpp:165] Memory required for data: 2668560448
I0725 21:13:49.717100 70546 layer_factory.hpp:77] Creating layer scale3d_branch2c
I0725 21:13:49.717108 70546 net.cpp:100] Creating Layer scale3d_branch2c
I0725 21:13:49.717115 70546 net.cpp:434] scale3d_branch2c <- res3d_branch2c
I0725 21:13:49.717119 70546 net.cpp:395] scale3d_branch2c -> res3d_branch2c (in-place)
I0725 21:13:49.717185 70546 layer_factory.hpp:77] Creating layer scale3d_branch2c
I0725 21:13:49.717300 70546 net.cpp:150] Setting up scale3d_branch2c
I0725 21:13:49.717309 70546 net.cpp:157] Top shape: 16 512 28 28 (6422528)
I0725 21:13:49.717314 70546 net.cpp:165] Memory required for data: 2694250560
I0725 21:13:49.717322 70546 layer_factory.hpp:77] Creating layer res3d
I0725 21:13:49.717350 70546 net.cpp:100] Creating Layer res3d
I0725 21:13:49.717356 70546 net.cpp:434] res3d <- res3c_res3c_relu_0_split_1
I0725 21:13:49.717360 70546 net.cpp:434] res3d <- res3d_branch2c
I0725 21:13:49.717365 70546 net.cpp:408] res3d -> res3d
I0725 21:13:49.717413 70546 net.cpp:150] Setting up res3d
I0725 21:13:49.717422 70546 net.cpp:157] Top shape: 16 512 28 28 (6422528)
I0725 21:13:49.717424 70546 net.cpp:165] Memory required for data: 2719940672
I0725 21:13:49.717427 70546 layer_factory.hpp:77] Creating layer res3d_relu
I0725 21:13:49.717437 70546 net.cpp:100] Creating Layer res3d_relu
I0725 21:13:49.717440 70546 net.cpp:434] res3d_relu <- res3d
I0725 21:13:49.717447 70546 net.cpp:395] res3d_relu -> res3d (in-place)
I0725 21:13:49.717970 70546 net.cpp:150] Setting up res3d_relu
I0725 21:13:49.718009 70546 net.cpp:157] Top shape: 16 512 28 28 (6422528)
I0725 21:13:49.718014 70546 net.cpp:165] Memory required for data: 2745630784
I0725 21:13:49.718017 70546 layer_factory.hpp:77] Creating layer res3d_res3d_relu_0_split
I0725 21:13:49.718026 70546 net.cpp:100] Creating Layer res3d_res3d_relu_0_split
I0725 21:13:49.718030 70546 net.cpp:434] res3d_res3d_relu_0_split <- res3d
I0725 21:13:49.718035 70546 net.cpp:408] res3d_res3d_relu_0_split -> res3d_res3d_relu_0_split_0
I0725 21:13:49.718044 70546 net.cpp:408] res3d_res3d_relu_0_split -> res3d_res3d_relu_0_split_1
I0725 21:13:49.718124 70546 net.cpp:150] Setting up res3d_res3d_relu_0_split
I0725 21:13:49.718133 70546 net.cpp:157] Top shape: 16 512 28 28 (6422528)
I0725 21:13:49.718138 70546 net.cpp:157] Top shape: 16 512 28 28 (6422528)
I0725 21:13:49.718144 70546 net.cpp:165] Memory required for data: 2797011008
I0725 21:13:49.718147 70546 layer_factory.hpp:77] Creating layer res4a_branch1
I0725 21:13:49.718190 70546 net.cpp:100] Creating Layer res4a_branch1
I0725 21:13:49.718195 70546 net.cpp:434] res4a_branch1 <- res3d_res3d_relu_0_split_0
I0725 21:13:49.718204 70546 net.cpp:408] res4a_branch1 -> res4a_branch1
I0725 21:13:49.737143 70546 net.cpp:150] Setting up res4a_branch1
I0725 21:13:49.737224 70546 net.cpp:157] Top shape: 16 1024 14 14 (3211264)
I0725 21:13:49.737232 70546 net.cpp:165] Memory required for data: 2809856064
I0725 21:13:49.737246 70546 layer_factory.hpp:77] Creating layer bn4a_branch1
I0725 21:13:49.737306 70546 net.cpp:100] Creating Layer bn4a_branch1
I0725 21:13:49.737320 70546 net.cpp:434] bn4a_branch1 <- res4a_branch1
I0725 21:13:49.737347 70546 net.cpp:395] bn4a_branch1 -> res4a_branch1 (in-place)
I0725 21:13:49.737638 70546 net.cpp:150] Setting up bn4a_branch1
I0725 21:13:49.737668 70546 net.cpp:157] Top shape: 16 1024 14 14 (3211264)
I0725 21:13:49.737670 70546 net.cpp:165] Memory required for data: 2822701120
I0725 21:13:49.737697 70546 layer_factory.hpp:77] Creating layer scale4a_branch1
I0725 21:13:49.737722 70546 net.cpp:100] Creating Layer scale4a_branch1
I0725 21:13:49.737726 70546 net.cpp:434] scale4a_branch1 <- res4a_branch1
I0725 21:13:49.737731 70546 net.cpp:395] scale4a_branch1 -> res4a_branch1 (in-place)
I0725 21:13:49.737818 70546 layer_factory.hpp:77] Creating layer scale4a_branch1
I0725 21:13:49.737947 70546 net.cpp:150] Setting up scale4a_branch1
I0725 21:13:49.737957 70546 net.cpp:157] Top shape: 16 1024 14 14 (3211264)
I0725 21:13:49.737960 70546 net.cpp:165] Memory required for data: 2835546176
I0725 21:13:49.737969 70546 layer_factory.hpp:77] Creating layer res4a_branch2a
I0725 21:13:49.738000 70546 net.cpp:100] Creating Layer res4a_branch2a
I0725 21:13:49.738008 70546 net.cpp:434] res4a_branch2a <- res3d_res3d_relu_0_split_1
I0725 21:13:49.738014 70546 net.cpp:408] res4a_branch2a -> res4a_branch2a
I0725 21:13:49.743333 70546 net.cpp:150] Setting up res4a_branch2a
I0725 21:13:49.743360 70546 net.cpp:157] Top shape: 16 256 14 14 (802816)
I0725 21:13:49.743365 70546 net.cpp:165] Memory required for data: 2838757440
I0725 21:13:49.743391 70546 layer_factory.hpp:77] Creating layer bn4a_branch2a
I0725 21:13:49.743401 70546 net.cpp:100] Creating Layer bn4a_branch2a
I0725 21:13:49.743405 70546 net.cpp:434] bn4a_branch2a <- res4a_branch2a
I0725 21:13:49.743410 70546 net.cpp:395] bn4a_branch2a -> res4a_branch2a (in-place)
I0725 21:13:49.743650 70546 net.cpp:150] Setting up bn4a_branch2a
I0725 21:13:49.743661 70546 net.cpp:157] Top shape: 16 256 14 14 (802816)
I0725 21:13:49.743665 70546 net.cpp:165] Memory required for data: 2841968704
I0725 21:13:49.743674 70546 layer_factory.hpp:77] Creating layer scale4a_branch2a
I0725 21:13:49.743685 70546 net.cpp:100] Creating Layer scale4a_branch2a
I0725 21:13:49.743690 70546 net.cpp:434] scale4a_branch2a <- res4a_branch2a
I0725 21:13:49.743712 70546 net.cpp:395] scale4a_branch2a -> res4a_branch2a (in-place)
I0725 21:13:49.743780 70546 layer_factory.hpp:77] Creating layer scale4a_branch2a
I0725 21:13:49.743898 70546 net.cpp:150] Setting up scale4a_branch2a
I0725 21:13:49.743907 70546 net.cpp:157] Top shape: 16 256 14 14 (802816)
I0725 21:13:49.743911 70546 net.cpp:165] Memory required for data: 2845179968
I0725 21:13:49.743921 70546 layer_factory.hpp:77] Creating layer res4a_branch2a_relu
I0725 21:13:49.743955 70546 net.cpp:100] Creating Layer res4a_branch2a_relu
I0725 21:13:49.743978 70546 net.cpp:434] res4a_branch2a_relu <- res4a_branch2a
I0725 21:13:49.743984 70546 net.cpp:395] res4a_branch2a_relu -> res4a_branch2a (in-place)
I0725 21:13:49.744161 70546 net.cpp:150] Setting up res4a_branch2a_relu
I0725 21:13:49.744174 70546 net.cpp:157] Top shape: 16 256 14 14 (802816)
I0725 21:13:49.744177 70546 net.cpp:165] Memory required for data: 2848391232
I0725 21:13:49.744184 70546 layer_factory.hpp:77] Creating layer res4a_branch2b
I0725 21:13:49.744231 70546 net.cpp:100] Creating Layer res4a_branch2b
I0725 21:13:49.744236 70546 net.cpp:434] res4a_branch2b <- res4a_branch2a
I0725 21:13:49.744243 70546 net.cpp:408] res4a_branch2b -> res4a_branch2b
I0725 21:13:49.760936 70546 net.cpp:150] Setting up res4a_branch2b
I0725 21:13:49.760999 70546 net.cpp:157] Top shape: 16 256 14 14 (802816)
I0725 21:13:49.761005 70546 net.cpp:165] Memory required for data: 2851602496
I0725 21:13:49.761015 70546 layer_factory.hpp:77] Creating layer bn4a_branch2b
I0725 21:13:49.761032 70546 net.cpp:100] Creating Layer bn4a_branch2b
I0725 21:13:49.761039 70546 net.cpp:434] bn4a_branch2b <- res4a_branch2b
I0725 21:13:49.761046 70546 net.cpp:395] bn4a_branch2b -> res4a_branch2b (in-place)
I0725 21:13:49.761307 70546 net.cpp:150] Setting up bn4a_branch2b
I0725 21:13:49.761318 70546 net.cpp:157] Top shape: 16 256 14 14 (802816)
I0725 21:13:49.761322 70546 net.cpp:165] Memory required for data: 2854813760
I0725 21:13:49.761330 70546 layer_factory.hpp:77] Creating layer scale4a_branch2b
I0725 21:13:49.761343 70546 net.cpp:100] Creating Layer scale4a_branch2b
I0725 21:13:49.761348 70546 net.cpp:434] scale4a_branch2b <- res4a_branch2b
I0725 21:13:49.761371 70546 net.cpp:395] scale4a_branch2b -> res4a_branch2b (in-place)
I0725 21:13:49.761443 70546 layer_factory.hpp:77] Creating layer scale4a_branch2b
I0725 21:13:49.761564 70546 net.cpp:150] Setting up scale4a_branch2b
I0725 21:13:49.761572 70546 net.cpp:157] Top shape: 16 256 14 14 (802816)
I0725 21:13:49.761575 70546 net.cpp:165] Memory required for data: 2858025024
I0725 21:13:49.761585 70546 layer_factory.hpp:77] Creating layer res4a_branch2b_relu
I0725 21:13:49.761593 70546 net.cpp:100] Creating Layer res4a_branch2b_relu
I0725 21:13:49.761616 70546 net.cpp:434] res4a_branch2b_relu <- res4a_branch2b
I0725 21:13:49.761638 70546 net.cpp:395] res4a_branch2b_relu -> res4a_branch2b (in-place)
I0725 21:13:49.761821 70546 net.cpp:150] Setting up res4a_branch2b_relu
I0725 21:13:49.761833 70546 net.cpp:157] Top shape: 16 256 14 14 (802816)
I0725 21:13:49.761837 70546 net.cpp:165] Memory required for data: 2861236288
I0725 21:13:49.761842 70546 layer_factory.hpp:77] Creating layer res4a_branch2c
I0725 21:13:49.761895 70546 net.cpp:100] Creating Layer res4a_branch2c
I0725 21:13:49.761901 70546 net.cpp:434] res4a_branch2c <- res4a_branch2b
I0725 21:13:49.761909 70546 net.cpp:408] res4a_branch2c -> res4a_branch2c
I0725 21:13:49.769193 70546 net.cpp:150] Setting up res4a_branch2c
I0725 21:13:49.769227 70546 net.cpp:157] Top shape: 16 1024 14 14 (3211264)
I0725 21:13:49.769249 70546 net.cpp:165] Memory required for data: 2874081344
I0725 21:13:49.769258 70546 layer_factory.hpp:77] Creating layer bn4a_branch2c
I0725 21:13:49.769269 70546 net.cpp:100] Creating Layer bn4a_branch2c
I0725 21:13:49.769274 70546 net.cpp:434] bn4a_branch2c <- res4a_branch2c
I0725 21:13:49.769279 70546 net.cpp:395] bn4a_branch2c -> res4a_branch2c (in-place)
I0725 21:13:49.769510 70546 net.cpp:150] Setting up bn4a_branch2c
I0725 21:13:49.769520 70546 net.cpp:157] Top shape: 16 1024 14 14 (3211264)
I0725 21:13:49.769523 70546 net.cpp:165] Memory required for data: 2886926400
I0725 21:13:49.769531 70546 layer_factory.hpp:77] Creating layer scale4a_branch2c
I0725 21:13:49.769541 70546 net.cpp:100] Creating Layer scale4a_branch2c
I0725 21:13:49.769549 70546 net.cpp:434] scale4a_branch2c <- res4a_branch2c
I0725 21:13:49.769556 70546 net.cpp:395] scale4a_branch2c -> res4a_branch2c (in-place)
I0725 21:13:49.769605 70546 layer_factory.hpp:77] Creating layer scale4a_branch2c
I0725 21:13:49.769732 70546 net.cpp:150] Setting up scale4a_branch2c
I0725 21:13:49.769742 70546 net.cpp:157] Top shape: 16 1024 14 14 (3211264)
I0725 21:13:49.769745 70546 net.cpp:165] Memory required for data: 2899771456
I0725 21:13:49.769752 70546 layer_factory.hpp:77] Creating layer res4a
I0725 21:13:49.769771 70546 net.cpp:100] Creating Layer res4a
I0725 21:13:49.769778 70546 net.cpp:434] res4a <- res4a_branch1
I0725 21:13:49.769783 70546 net.cpp:434] res4a <- res4a_branch2c
I0725 21:13:49.769789 70546 net.cpp:408] res4a -> res4a
I0725 21:13:49.769821 70546 net.cpp:150] Setting up res4a
I0725 21:13:49.769829 70546 net.cpp:157] Top shape: 16 1024 14 14 (3211264)
I0725 21:13:49.769832 70546 net.cpp:165] Memory required for data: 2912616512
I0725 21:13:49.769855 70546 layer_factory.hpp:77] Creating layer res4a_relu
I0725 21:13:49.769861 70546 net.cpp:100] Creating Layer res4a_relu
I0725 21:13:49.769865 70546 net.cpp:434] res4a_relu <- res4a
I0725 21:13:49.769868 70546 net.cpp:395] res4a_relu -> res4a (in-place)
I0725 21:13:49.770042 70546 net.cpp:150] Setting up res4a_relu
I0725 21:13:49.770054 70546 net.cpp:157] Top shape: 16 1024 14 14 (3211264)
I0725 21:13:49.770057 70546 net.cpp:165] Memory required for data: 2925461568
I0725 21:13:49.770061 70546 layer_factory.hpp:77] Creating layer res4a_res4a_relu_0_split
I0725 21:13:49.770068 70546 net.cpp:100] Creating Layer res4a_res4a_relu_0_split
I0725 21:13:49.770072 70546 net.cpp:434] res4a_res4a_relu_0_split <- res4a
I0725 21:13:49.770081 70546 net.cpp:408] res4a_res4a_relu_0_split -> res4a_res4a_relu_0_split_0
I0725 21:13:49.770089 70546 net.cpp:408] res4a_res4a_relu_0_split -> res4a_res4a_relu_0_split_1
I0725 21:13:49.770134 70546 net.cpp:150] Setting up res4a_res4a_relu_0_split
I0725 21:13:49.770143 70546 net.cpp:157] Top shape: 16 1024 14 14 (3211264)
I0725 21:13:49.770148 70546 net.cpp:157] Top shape: 16 1024 14 14 (3211264)
I0725 21:13:49.770149 70546 net.cpp:165] Memory required for data: 2951151680
I0725 21:13:49.770153 70546 layer_factory.hpp:77] Creating layer res4b_branch2a
I0725 21:13:49.770211 70546 net.cpp:100] Creating Layer res4b_branch2a
I0725 21:13:49.770217 70546 net.cpp:434] res4b_branch2a <- res4a_res4a_relu_0_split_0
I0725 21:13:49.770223 70546 net.cpp:408] res4b_branch2a -> res4b_branch2a
I0725 21:13:49.779044 70546 net.cpp:150] Setting up res4b_branch2a
I0725 21:13:49.779083 70546 net.cpp:157] Top shape: 16 256 14 14 (802816)
I0725 21:13:49.779105 70546 net.cpp:165] Memory required for data: 2954362944
I0725 21:13:49.779115 70546 layer_factory.hpp:77] Creating layer bn4b_branch2a
I0725 21:13:49.779127 70546 net.cpp:100] Creating Layer bn4b_branch2a
I0725 21:13:49.779132 70546 net.cpp:434] bn4b_branch2a <- res4b_branch2a
I0725 21:13:49.779139 70546 net.cpp:395] bn4b_branch2a -> res4b_branch2a (in-place)
I0725 21:13:49.779372 70546 net.cpp:150] Setting up bn4b_branch2a
I0725 21:13:49.779384 70546 net.cpp:157] Top shape: 16 256 14 14 (802816)
I0725 21:13:49.779387 70546 net.cpp:165] Memory required for data: 2957574208
I0725 21:13:49.779397 70546 layer_factory.hpp:77] Creating layer scale4b_branch2a
I0725 21:13:49.779418 70546 net.cpp:100] Creating Layer scale4b_branch2a
I0725 21:13:49.779429 70546 net.cpp:434] scale4b_branch2a <- res4b_branch2a
I0725 21:13:49.779433 70546 net.cpp:395] scale4b_branch2a -> res4b_branch2a (in-place)
I0725 21:13:49.779484 70546 layer_factory.hpp:77] Creating layer scale4b_branch2a
I0725 21:13:49.779608 70546 net.cpp:150] Setting up scale4b_branch2a
I0725 21:13:49.779616 70546 net.cpp:157] Top shape: 16 256 14 14 (802816)
I0725 21:13:49.779619 70546 net.cpp:165] Memory required for data: 2960785472
I0725 21:13:49.779626 70546 layer_factory.hpp:77] Creating layer res4b_branch2a_relu
I0725 21:13:49.779634 70546 net.cpp:100] Creating Layer res4b_branch2a_relu
I0725 21:13:49.779644 70546 net.cpp:434] res4b_branch2a_relu <- res4b_branch2a
I0725 21:13:49.779647 70546 net.cpp:395] res4b_branch2a_relu -> res4b_branch2a (in-place)
I0725 21:13:49.779834 70546 net.cpp:150] Setting up res4b_branch2a_relu
I0725 21:13:49.779845 70546 net.cpp:157] Top shape: 16 256 14 14 (802816)
I0725 21:13:49.779850 70546 net.cpp:165] Memory required for data: 2963996736
I0725 21:13:49.779853 70546 layer_factory.hpp:77] Creating layer res4b_branch2b
I0725 21:13:49.779867 70546 net.cpp:100] Creating Layer res4b_branch2b
I0725 21:13:49.779873 70546 net.cpp:434] res4b_branch2b <- res4b_branch2a
I0725 21:13:49.779880 70546 net.cpp:408] res4b_branch2b -> res4b_branch2b
I0725 21:13:49.796479 70546 net.cpp:150] Setting up res4b_branch2b
I0725 21:13:49.796540 70546 net.cpp:157] Top shape: 16 256 14 14 (802816)
I0725 21:13:49.796546 70546 net.cpp:165] Memory required for data: 2967208000
I0725 21:13:49.796556 70546 layer_factory.hpp:77] Creating layer bn4b_branch2b
I0725 21:13:49.796620 70546 net.cpp:100] Creating Layer bn4b_branch2b
I0725 21:13:49.796650 70546 net.cpp:434] bn4b_branch2b <- res4b_branch2b
I0725 21:13:49.796658 70546 net.cpp:395] bn4b_branch2b -> res4b_branch2b (in-place)
I0725 21:13:49.796880 70546 net.cpp:150] Setting up bn4b_branch2b
I0725 21:13:49.796890 70546 net.cpp:157] Top shape: 16 256 14 14 (802816)
I0725 21:13:49.796893 70546 net.cpp:165] Memory required for data: 2970419264
I0725 21:13:49.796900 70546 layer_factory.hpp:77] Creating layer scale4b_branch2b
I0725 21:13:49.796911 70546 net.cpp:100] Creating Layer scale4b_branch2b
I0725 21:13:49.796917 70546 net.cpp:434] scale4b_branch2b <- res4b_branch2b
I0725 21:13:49.796922 70546 net.cpp:395] scale4b_branch2b -> res4b_branch2b (in-place)
I0725 21:13:49.796978 70546 layer_factory.hpp:77] Creating layer scale4b_branch2b
I0725 21:13:49.797099 70546 net.cpp:150] Setting up scale4b_branch2b
I0725 21:13:49.797108 70546 net.cpp:157] Top shape: 16 256 14 14 (802816)
I0725 21:13:49.797111 70546 net.cpp:165] Memory required for data: 2973630528
I0725 21:13:49.797118 70546 layer_factory.hpp:77] Creating layer res4b_branch2b_relu
I0725 21:13:49.797124 70546 net.cpp:100] Creating Layer res4b_branch2b_relu
I0725 21:13:49.797129 70546 net.cpp:434] res4b_branch2b_relu <- res4b_branch2b
I0725 21:13:49.797135 70546 net.cpp:395] res4b_branch2b_relu -> res4b_branch2b (in-place)
I0725 21:13:49.797310 70546 net.cpp:150] Setting up res4b_branch2b_relu
I0725 21:13:49.797322 70546 net.cpp:157] Top shape: 16 256 14 14 (802816)
I0725 21:13:49.797325 70546 net.cpp:165] Memory required for data: 2976841792
I0725 21:13:49.797329 70546 layer_factory.hpp:77] Creating layer res4b_branch2c
I0725 21:13:49.797343 70546 net.cpp:100] Creating Layer res4b_branch2c
I0725 21:13:49.797349 70546 net.cpp:434] res4b_branch2c <- res4b_branch2b
I0725 21:13:49.797355 70546 net.cpp:408] res4b_branch2c -> res4b_branch2c
I0725 21:13:49.804628 70546 net.cpp:150] Setting up res4b_branch2c
I0725 21:13:49.804662 70546 net.cpp:157] Top shape: 16 1024 14 14 (3211264)
I0725 21:13:49.804685 70546 net.cpp:165] Memory required for data: 2989686848
I0725 21:13:49.804693 70546 layer_factory.hpp:77] Creating layer bn4b_branch2c
I0725 21:13:49.804704 70546 net.cpp:100] Creating Layer bn4b_branch2c
I0725 21:13:49.804714 70546 net.cpp:434] bn4b_branch2c <- res4b_branch2c
I0725 21:13:49.804720 70546 net.cpp:395] bn4b_branch2c -> res4b_branch2c (in-place)
I0725 21:13:49.804951 70546 net.cpp:150] Setting up bn4b_branch2c
I0725 21:13:49.804962 70546 net.cpp:157] Top shape: 16 1024 14 14 (3211264)
I0725 21:13:49.804965 70546 net.cpp:165] Memory required for data: 3002531904
I0725 21:13:49.804972 70546 layer_factory.hpp:77] Creating layer scale4b_branch2c
I0725 21:13:49.804983 70546 net.cpp:100] Creating Layer scale4b_branch2c
I0725 21:13:49.804989 70546 net.cpp:434] scale4b_branch2c <- res4b_branch2c
I0725 21:13:49.804994 70546 net.cpp:395] scale4b_branch2c -> res4b_branch2c (in-place)
I0725 21:13:49.805045 70546 layer_factory.hpp:77] Creating layer scale4b_branch2c
I0725 21:13:49.805173 70546 net.cpp:150] Setting up scale4b_branch2c
I0725 21:13:49.805182 70546 net.cpp:157] Top shape: 16 1024 14 14 (3211264)
I0725 21:13:49.805186 70546 net.cpp:165] Memory required for data: 3015376960
I0725 21:13:49.805192 70546 layer_factory.hpp:77] Creating layer res4b
I0725 21:13:49.805202 70546 net.cpp:100] Creating Layer res4b
I0725 21:13:49.805209 70546 net.cpp:434] res4b <- res4a_res4a_relu_0_split_1
I0725 21:13:49.805214 70546 net.cpp:434] res4b <- res4b_branch2c
I0725 21:13:49.805220 70546 net.cpp:408] res4b -> res4b
I0725 21:13:49.805253 70546 net.cpp:150] Setting up res4b
I0725 21:13:49.805260 70546 net.cpp:157] Top shape: 16 1024 14 14 (3211264)
I0725 21:13:49.805263 70546 net.cpp:165] Memory required for data: 3028222016
I0725 21:13:49.805266 70546 layer_factory.hpp:77] Creating layer res4b_relu
I0725 21:13:49.805274 70546 net.cpp:100] Creating Layer res4b_relu
I0725 21:13:49.805277 70546 net.cpp:434] res4b_relu <- res4b
I0725 21:13:49.805282 70546 net.cpp:395] res4b_relu -> res4b (in-place)
I0725 21:13:49.805785 70546 net.cpp:150] Setting up res4b_relu
I0725 21:13:49.805802 70546 net.cpp:157] Top shape: 16 1024 14 14 (3211264)
I0725 21:13:49.805805 70546 net.cpp:165] Memory required for data: 3041067072
I0725 21:13:49.805827 70546 layer_factory.hpp:77] Creating layer res4b_res4b_relu_0_split
I0725 21:13:49.805835 70546 net.cpp:100] Creating Layer res4b_res4b_relu_0_split
I0725 21:13:49.805838 70546 net.cpp:434] res4b_res4b_relu_0_split <- res4b
I0725 21:13:49.805845 70546 net.cpp:408] res4b_res4b_relu_0_split -> res4b_res4b_relu_0_split_0
I0725 21:13:49.805869 70546 net.cpp:408] res4b_res4b_relu_0_split -> res4b_res4b_relu_0_split_1
I0725 21:13:49.805918 70546 net.cpp:150] Setting up res4b_res4b_relu_0_split
I0725 21:13:49.805927 70546 net.cpp:157] Top shape: 16 1024 14 14 (3211264)
I0725 21:13:49.805932 70546 net.cpp:157] Top shape: 16 1024 14 14 (3211264)
I0725 21:13:49.805935 70546 net.cpp:165] Memory required for data: 3066757184
I0725 21:13:49.805938 70546 layer_factory.hpp:77] Creating layer res4c_branch2a
I0725 21:13:49.805958 70546 net.cpp:100] Creating Layer res4c_branch2a
I0725 21:13:49.805963 70546 net.cpp:434] res4c_branch2a <- res4b_res4b_relu_0_split_0
I0725 21:13:49.805970 70546 net.cpp:408] res4c_branch2a -> res4c_branch2a
I0725 21:13:49.814426 70546 net.cpp:150] Setting up res4c_branch2a
I0725 21:13:49.814483 70546 net.cpp:157] Top shape: 16 256 14 14 (802816)
I0725 21:13:49.814488 70546 net.cpp:165] Memory required for data: 3069968448
I0725 21:13:49.814497 70546 layer_factory.hpp:77] Creating layer bn4c_branch2a
I0725 21:13:49.814509 70546 net.cpp:100] Creating Layer bn4c_branch2a
I0725 21:13:49.814515 70546 net.cpp:434] bn4c_branch2a <- res4c_branch2a
I0725 21:13:49.814522 70546 net.cpp:395] bn4c_branch2a -> res4c_branch2a (in-place)
I0725 21:13:49.814754 70546 net.cpp:150] Setting up bn4c_branch2a
I0725 21:13:49.814764 70546 net.cpp:157] Top shape: 16 256 14 14 (802816)
I0725 21:13:49.814767 70546 net.cpp:165] Memory required for data: 3073179712
I0725 21:13:49.814775 70546 layer_factory.hpp:77] Creating layer scale4c_branch2a
I0725 21:13:49.814792 70546 net.cpp:100] Creating Layer scale4c_branch2a
I0725 21:13:49.814803 70546 net.cpp:434] scale4c_branch2a <- res4c_branch2a
I0725 21:13:49.814808 70546 net.cpp:395] scale4c_branch2a -> res4c_branch2a (in-place)
I0725 21:13:49.814863 70546 layer_factory.hpp:77] Creating layer scale4c_branch2a
I0725 21:13:49.814981 70546 net.cpp:150] Setting up scale4c_branch2a
I0725 21:13:49.814990 70546 net.cpp:157] Top shape: 16 256 14 14 (802816)
I0725 21:13:49.814993 70546 net.cpp:165] Memory required for data: 3076390976
I0725 21:13:49.815002 70546 layer_factory.hpp:77] Creating layer res4c_branch2a_relu
I0725 21:13:49.815018 70546 net.cpp:100] Creating Layer res4c_branch2a_relu
I0725 21:13:49.815023 70546 net.cpp:434] res4c_branch2a_relu <- res4c_branch2a
I0725 21:13:49.815027 70546 net.cpp:395] res4c_branch2a_relu -> res4c_branch2a (in-place)
I0725 21:13:49.815202 70546 net.cpp:150] Setting up res4c_branch2a_relu
I0725 21:13:49.815213 70546 net.cpp:157] Top shape: 16 256 14 14 (802816)
I0725 21:13:49.815217 70546 net.cpp:165] Memory required for data: 3079602240
I0725 21:13:49.815220 70546 layer_factory.hpp:77] Creating layer res4c_branch2b
I0725 21:13:49.815232 70546 net.cpp:100] Creating Layer res4c_branch2b
I0725 21:13:49.815243 70546 net.cpp:434] res4c_branch2b <- res4c_branch2a
I0725 21:13:49.815249 70546 net.cpp:408] res4c_branch2b -> res4c_branch2b
I0725 21:13:49.831858 70546 net.cpp:150] Setting up res4c_branch2b
I0725 21:13:49.831923 70546 net.cpp:157] Top shape: 16 256 14 14 (802816)
I0725 21:13:49.831929 70546 net.cpp:165] Memory required for data: 3082813504
I0725 21:13:49.831939 70546 layer_factory.hpp:77] Creating layer bn4c_branch2b
I0725 21:13:49.831955 70546 net.cpp:100] Creating Layer bn4c_branch2b
I0725 21:13:49.831962 70546 net.cpp:434] bn4c_branch2b <- res4c_branch2b
I0725 21:13:49.831969 70546 net.cpp:395] bn4c_branch2b -> res4c_branch2b (in-place)
I0725 21:13:49.832221 70546 net.cpp:150] Setting up bn4c_branch2b
I0725 21:13:49.832248 70546 net.cpp:157] Top shape: 16 256 14 14 (802816)
I0725 21:13:49.832252 70546 net.cpp:165] Memory required for data: 3086024768
I0725 21:13:49.832260 70546 layer_factory.hpp:77] Creating layer scale4c_branch2b
I0725 21:13:49.832275 70546 net.cpp:100] Creating Layer scale4c_branch2b
I0725 21:13:49.832286 70546 net.cpp:434] scale4c_branch2b <- res4c_branch2b
I0725 21:13:49.832295 70546 net.cpp:395] scale4c_branch2b -> res4c_branch2b (in-place)
I0725 21:13:49.832351 70546 layer_factory.hpp:77] Creating layer scale4c_branch2b
I0725 21:13:49.832473 70546 net.cpp:150] Setting up scale4c_branch2b
I0725 21:13:49.832484 70546 net.cpp:157] Top shape: 16 256 14 14 (802816)
I0725 21:13:49.832486 70546 net.cpp:165] Memory required for data: 3089236032
I0725 21:13:49.832494 70546 layer_factory.hpp:77] Creating layer res4c_branch2b_relu
I0725 21:13:49.832501 70546 net.cpp:100] Creating Layer res4c_branch2b_relu
I0725 21:13:49.832511 70546 net.cpp:434] res4c_branch2b_relu <- res4c_branch2b
I0725 21:13:49.832515 70546 net.cpp:395] res4c_branch2b_relu -> res4c_branch2b (in-place)
I0725 21:13:49.832696 70546 net.cpp:150] Setting up res4c_branch2b_relu
I0725 21:13:49.832710 70546 net.cpp:157] Top shape: 16 256 14 14 (802816)
I0725 21:13:49.832713 70546 net.cpp:165] Memory required for data: 3092447296
I0725 21:13:49.832716 70546 layer_factory.hpp:77] Creating layer res4c_branch2c
I0725 21:13:49.832729 70546 net.cpp:100] Creating Layer res4c_branch2c
I0725 21:13:49.832736 70546 net.cpp:434] res4c_branch2c <- res4c_branch2b
I0725 21:13:49.832742 70546 net.cpp:408] res4c_branch2c -> res4c_branch2c
I0725 21:13:49.840042 70546 net.cpp:150] Setting up res4c_branch2c
I0725 21:13:49.840075 70546 net.cpp:157] Top shape: 16 1024 14 14 (3211264)
I0725 21:13:49.840095 70546 net.cpp:165] Memory required for data: 3105292352
I0725 21:13:49.840103 70546 layer_factory.hpp:77] Creating layer bn4c_branch2c
I0725 21:13:49.840112 70546 net.cpp:100] Creating Layer bn4c_branch2c
I0725 21:13:49.840118 70546 net.cpp:434] bn4c_branch2c <- res4c_branch2c
I0725 21:13:49.840126 70546 net.cpp:395] bn4c_branch2c -> res4c_branch2c (in-place)
I0725 21:13:49.840366 70546 net.cpp:150] Setting up bn4c_branch2c
I0725 21:13:49.840378 70546 net.cpp:157] Top shape: 16 1024 14 14 (3211264)
I0725 21:13:49.840380 70546 net.cpp:165] Memory required for data: 3118137408
I0725 21:13:49.840389 70546 layer_factory.hpp:77] Creating layer scale4c_branch2c
I0725 21:13:49.840396 70546 net.cpp:100] Creating Layer scale4c_branch2c
I0725 21:13:49.840405 70546 net.cpp:434] scale4c_branch2c <- res4c_branch2c
I0725 21:13:49.840410 70546 net.cpp:395] scale4c_branch2c -> res4c_branch2c (in-place)
I0725 21:13:49.840463 70546 layer_factory.hpp:77] Creating layer scale4c_branch2c
I0725 21:13:49.840591 70546 net.cpp:150] Setting up scale4c_branch2c
I0725 21:13:49.840600 70546 net.cpp:157] Top shape: 16 1024 14 14 (3211264)
I0725 21:13:49.840603 70546 net.cpp:165] Memory required for data: 3130982464
I0725 21:13:49.840612 70546 layer_factory.hpp:77] Creating layer res4c
I0725 21:13:49.840628 70546 net.cpp:100] Creating Layer res4c
I0725 21:13:49.840639 70546 net.cpp:434] res4c <- res4b_res4b_relu_0_split_1
I0725 21:13:49.840643 70546 net.cpp:434] res4c <- res4c_branch2c
I0725 21:13:49.840649 70546 net.cpp:408] res4c -> res4c
I0725 21:13:49.840682 70546 net.cpp:150] Setting up res4c
I0725 21:13:49.840689 70546 net.cpp:157] Top shape: 16 1024 14 14 (3211264)
I0725 21:13:49.840692 70546 net.cpp:165] Memory required for data: 3143827520
I0725 21:13:49.840697 70546 layer_factory.hpp:77] Creating layer res4c_relu
I0725 21:13:49.840703 70546 net.cpp:100] Creating Layer res4c_relu
I0725 21:13:49.840705 70546 net.cpp:434] res4c_relu <- res4c
I0725 21:13:49.840711 70546 net.cpp:395] res4c_relu -> res4c (in-place)
I0725 21:13:49.840883 70546 net.cpp:150] Setting up res4c_relu
I0725 21:13:49.840894 70546 net.cpp:157] Top shape: 16 1024 14 14 (3211264)
I0725 21:13:49.840898 70546 net.cpp:165] Memory required for data: 3156672576
I0725 21:13:49.840900 70546 layer_factory.hpp:77] Creating layer res4c_res4c_relu_0_split
I0725 21:13:49.840925 70546 net.cpp:100] Creating Layer res4c_res4c_relu_0_split
I0725 21:13:49.840930 70546 net.cpp:434] res4c_res4c_relu_0_split <- res4c
I0725 21:13:49.840939 70546 net.cpp:408] res4c_res4c_relu_0_split -> res4c_res4c_relu_0_split_0
I0725 21:13:49.840945 70546 net.cpp:408] res4c_res4c_relu_0_split -> res4c_res4c_relu_0_split_1
I0725 21:13:49.840992 70546 net.cpp:150] Setting up res4c_res4c_relu_0_split
I0725 21:13:49.841002 70546 net.cpp:157] Top shape: 16 1024 14 14 (3211264)
I0725 21:13:49.841006 70546 net.cpp:157] Top shape: 16 1024 14 14 (3211264)
I0725 21:13:49.841008 70546 net.cpp:165] Memory required for data: 3182362688
I0725 21:13:49.841012 70546 layer_factory.hpp:77] Creating layer res4d_branch2a
I0725 21:13:49.841025 70546 net.cpp:100] Creating Layer res4d_branch2a
I0725 21:13:49.841030 70546 net.cpp:434] res4d_branch2a <- res4c_res4c_relu_0_split_0
I0725 21:13:49.841035 70546 net.cpp:408] res4d_branch2a -> res4d_branch2a
I0725 21:13:49.849520 70546 net.cpp:150] Setting up res4d_branch2a
I0725 21:13:49.849573 70546 net.cpp:157] Top shape: 16 256 14 14 (802816)
I0725 21:13:49.849580 70546 net.cpp:165] Memory required for data: 3185573952
I0725 21:13:49.849587 70546 layer_factory.hpp:77] Creating layer bn4d_branch2a
I0725 21:13:49.849601 70546 net.cpp:100] Creating Layer bn4d_branch2a
I0725 21:13:49.849606 70546 net.cpp:434] bn4d_branch2a <- res4d_branch2a
I0725 21:13:49.849613 70546 net.cpp:395] bn4d_branch2a -> res4d_branch2a (in-place)
I0725 21:13:49.849848 70546 net.cpp:150] Setting up bn4d_branch2a
I0725 21:13:49.849858 70546 net.cpp:157] Top shape: 16 256 14 14 (802816)
I0725 21:13:49.849862 70546 net.cpp:165] Memory required for data: 3188785216
I0725 21:13:49.849870 70546 layer_factory.hpp:77] Creating layer scale4d_branch2a
I0725 21:13:49.849886 70546 net.cpp:100] Creating Layer scale4d_branch2a
I0725 21:13:49.849897 70546 net.cpp:434] scale4d_branch2a <- res4d_branch2a
I0725 21:13:49.849902 70546 net.cpp:395] scale4d_branch2a -> res4d_branch2a (in-place)
I0725 21:13:49.849957 70546 layer_factory.hpp:77] Creating layer scale4d_branch2a
I0725 21:13:49.850085 70546 net.cpp:150] Setting up scale4d_branch2a
I0725 21:13:49.850093 70546 net.cpp:157] Top shape: 16 256 14 14 (802816)
I0725 21:13:49.850096 70546 net.cpp:165] Memory required for data: 3191996480
I0725 21:13:49.850103 70546 layer_factory.hpp:77] Creating layer res4d_branch2a_relu
I0725 21:13:49.850109 70546 net.cpp:100] Creating Layer res4d_branch2a_relu
I0725 21:13:49.850119 70546 net.cpp:434] res4d_branch2a_relu <- res4d_branch2a
I0725 21:13:49.850126 70546 net.cpp:395] res4d_branch2a_relu -> res4d_branch2a (in-place)
I0725 21:13:49.850294 70546 net.cpp:150] Setting up res4d_branch2a_relu
I0725 21:13:49.850306 70546 net.cpp:157] Top shape: 16 256 14 14 (802816)
I0725 21:13:49.850309 70546 net.cpp:165] Memory required for data: 3195207744
I0725 21:13:49.850313 70546 layer_factory.hpp:77] Creating layer res4d_branch2b
I0725 21:13:49.850324 70546 net.cpp:100] Creating Layer res4d_branch2b
I0725 21:13:49.850329 70546 net.cpp:434] res4d_branch2b <- res4d_branch2a
I0725 21:13:49.850337 70546 net.cpp:408] res4d_branch2b -> res4d_branch2b
I0725 21:13:49.866885 70546 net.cpp:150] Setting up res4d_branch2b
I0725 21:13:49.866952 70546 net.cpp:157] Top shape: 16 256 14 14 (802816)
I0725 21:13:49.866958 70546 net.cpp:165] Memory required for data: 3198419008
I0725 21:13:49.866968 70546 layer_factory.hpp:77] Creating layer bn4d_branch2b
I0725 21:13:49.866983 70546 net.cpp:100] Creating Layer bn4d_branch2b
I0725 21:13:49.866989 70546 net.cpp:434] bn4d_branch2b <- res4d_branch2b
I0725 21:13:49.866997 70546 net.cpp:395] bn4d_branch2b -> res4d_branch2b (in-place)
I0725 21:13:49.867260 70546 net.cpp:150] Setting up bn4d_branch2b
I0725 21:13:49.867271 70546 net.cpp:157] Top shape: 16 256 14 14 (802816)
I0725 21:13:49.867275 70546 net.cpp:165] Memory required for data: 3201630272
I0725 21:13:49.867285 70546 layer_factory.hpp:77] Creating layer scale4d_branch2b
I0725 21:13:49.867292 70546 net.cpp:100] Creating Layer scale4d_branch2b
I0725 21:13:49.867331 70546 net.cpp:434] scale4d_branch2b <- res4d_branch2b
I0725 21:13:49.867336 70546 net.cpp:395] scale4d_branch2b -> res4d_branch2b (in-place)
I0725 21:13:49.867399 70546 layer_factory.hpp:77] Creating layer scale4d_branch2b
I0725 21:13:49.867530 70546 net.cpp:150] Setting up scale4d_branch2b
I0725 21:13:49.867539 70546 net.cpp:157] Top shape: 16 256 14 14 (802816)
I0725 21:13:49.867542 70546 net.cpp:165] Memory required for data: 3204841536
I0725 21:13:49.867549 70546 layer_factory.hpp:77] Creating layer res4d_branch2b_relu
I0725 21:13:49.867564 70546 net.cpp:100] Creating Layer res4d_branch2b_relu
I0725 21:13:49.867568 70546 net.cpp:434] res4d_branch2b_relu <- res4d_branch2b
I0725 21:13:49.867574 70546 net.cpp:395] res4d_branch2b_relu -> res4d_branch2b (in-place)
I0725 21:13:49.867753 70546 net.cpp:150] Setting up res4d_branch2b_relu
I0725 21:13:49.867765 70546 net.cpp:157] Top shape: 16 256 14 14 (802816)
I0725 21:13:49.867769 70546 net.cpp:165] Memory required for data: 3208052800
I0725 21:13:49.867772 70546 layer_factory.hpp:77] Creating layer res4d_branch2c
I0725 21:13:49.867786 70546 net.cpp:100] Creating Layer res4d_branch2c
I0725 21:13:49.867794 70546 net.cpp:434] res4d_branch2c <- res4d_branch2b
I0725 21:13:49.867799 70546 net.cpp:408] res4d_branch2c -> res4d_branch2c
I0725 21:13:49.875022 70546 net.cpp:150] Setting up res4d_branch2c
I0725 21:13:49.875048 70546 net.cpp:157] Top shape: 16 1024 14 14 (3211264)
I0725 21:13:49.875069 70546 net.cpp:165] Memory required for data: 3220897856
I0725 21:13:49.875078 70546 layer_factory.hpp:77] Creating layer bn4d_branch2c
I0725 21:13:49.875088 70546 net.cpp:100] Creating Layer bn4d_branch2c
I0725 21:13:49.875094 70546 net.cpp:434] bn4d_branch2c <- res4d_branch2c
I0725 21:13:49.875099 70546 net.cpp:395] bn4d_branch2c -> res4d_branch2c (in-place)
I0725 21:13:49.875349 70546 net.cpp:150] Setting up bn4d_branch2c
I0725 21:13:49.875361 70546 net.cpp:157] Top shape: 16 1024 14 14 (3211264)
I0725 21:13:49.875365 70546 net.cpp:165] Memory required for data: 3233742912
I0725 21:13:49.875376 70546 layer_factory.hpp:77] Creating layer scale4d_branch2c
I0725 21:13:49.875396 70546 net.cpp:100] Creating Layer scale4d_branch2c
I0725 21:13:49.875399 70546 net.cpp:434] scale4d_branch2c <- res4d_branch2c
I0725 21:13:49.875404 70546 net.cpp:395] scale4d_branch2c -> res4d_branch2c (in-place)
I0725 21:13:49.875457 70546 layer_factory.hpp:77] Creating layer scale4d_branch2c
I0725 21:13:49.875591 70546 net.cpp:150] Setting up scale4d_branch2c
I0725 21:13:49.875599 70546 net.cpp:157] Top shape: 16 1024 14 14 (3211264)
I0725 21:13:49.875603 70546 net.cpp:165] Memory required for data: 3246587968
I0725 21:13:49.875609 70546 layer_factory.hpp:77] Creating layer res4d
I0725 21:13:49.875619 70546 net.cpp:100] Creating Layer res4d
I0725 21:13:49.875627 70546 net.cpp:434] res4d <- res4c_res4c_relu_0_split_1
I0725 21:13:49.875630 70546 net.cpp:434] res4d <- res4d_branch2c
I0725 21:13:49.875636 70546 net.cpp:408] res4d -> res4d
I0725 21:13:49.875672 70546 net.cpp:150] Setting up res4d
I0725 21:13:49.875680 70546 net.cpp:157] Top shape: 16 1024 14 14 (3211264)
I0725 21:13:49.875684 70546 net.cpp:165] Memory required for data: 3259433024
I0725 21:13:49.875686 70546 layer_factory.hpp:77] Creating layer res4d_relu
I0725 21:13:49.875692 70546 net.cpp:100] Creating Layer res4d_relu
I0725 21:13:49.875696 70546 net.cpp:434] res4d_relu <- res4d
I0725 21:13:49.875705 70546 net.cpp:395] res4d_relu -> res4d (in-place)
I0725 21:13:49.876191 70546 net.cpp:150] Setting up res4d_relu
I0725 21:13:49.876206 70546 net.cpp:157] Top shape: 16 1024 14 14 (3211264)
I0725 21:13:49.876209 70546 net.cpp:165] Memory required for data: 3272278080
I0725 21:13:49.876230 70546 layer_factory.hpp:77] Creating layer res4d_res4d_relu_0_split
I0725 21:13:49.876240 70546 net.cpp:100] Creating Layer res4d_res4d_relu_0_split
I0725 21:13:49.876243 70546 net.cpp:434] res4d_res4d_relu_0_split <- res4d
I0725 21:13:49.876248 70546 net.cpp:408] res4d_res4d_relu_0_split -> res4d_res4d_relu_0_split_0
I0725 21:13:49.876255 70546 net.cpp:408] res4d_res4d_relu_0_split -> res4d_res4d_relu_0_split_1
I0725 21:13:49.876353 70546 net.cpp:150] Setting up res4d_res4d_relu_0_split
I0725 21:13:49.876363 70546 net.cpp:157] Top shape: 16 1024 14 14 (3211264)
I0725 21:13:49.876366 70546 net.cpp:157] Top shape: 16 1024 14 14 (3211264)
I0725 21:13:49.876368 70546 net.cpp:165] Memory required for data: 3297968192
I0725 21:13:49.876374 70546 layer_factory.hpp:77] Creating layer res4e_branch2a
I0725 21:13:49.876385 70546 net.cpp:100] Creating Layer res4e_branch2a
I0725 21:13:49.876389 70546 net.cpp:434] res4e_branch2a <- res4d_res4d_relu_0_split_0
I0725 21:13:49.876396 70546 net.cpp:408] res4e_branch2a -> res4e_branch2a
I0725 21:13:49.884810 70546 net.cpp:150] Setting up res4e_branch2a
I0725 21:13:49.884845 70546 net.cpp:157] Top shape: 16 256 14 14 (802816)
I0725 21:13:49.884868 70546 net.cpp:165] Memory required for data: 3301179456
I0725 21:13:49.884876 70546 layer_factory.hpp:77] Creating layer bn4e_branch2a
I0725 21:13:49.884888 70546 net.cpp:100] Creating Layer bn4e_branch2a
I0725 21:13:49.884893 70546 net.cpp:434] bn4e_branch2a <- res4e_branch2a
I0725 21:13:49.884901 70546 net.cpp:395] bn4e_branch2a -> res4e_branch2a (in-place)
I0725 21:13:49.885148 70546 net.cpp:150] Setting up bn4e_branch2a
I0725 21:13:49.885157 70546 net.cpp:157] Top shape: 16 256 14 14 (802816)
I0725 21:13:49.885161 70546 net.cpp:165] Memory required for data: 3304390720
I0725 21:13:49.885169 70546 layer_factory.hpp:77] Creating layer scale4e_branch2a
I0725 21:13:49.885177 70546 net.cpp:100] Creating Layer scale4e_branch2a
I0725 21:13:49.885186 70546 net.cpp:434] scale4e_branch2a <- res4e_branch2a
I0725 21:13:49.885190 70546 net.cpp:395] scale4e_branch2a -> res4e_branch2a (in-place)
I0725 21:13:49.885246 70546 layer_factory.hpp:77] Creating layer scale4e_branch2a
I0725 21:13:49.885372 70546 net.cpp:150] Setting up scale4e_branch2a
I0725 21:13:49.885381 70546 net.cpp:157] Top shape: 16 256 14 14 (802816)
I0725 21:13:49.885385 70546 net.cpp:165] Memory required for data: 3307601984
I0725 21:13:49.885391 70546 layer_factory.hpp:77] Creating layer res4e_branch2a_relu
I0725 21:13:49.885398 70546 net.cpp:100] Creating Layer res4e_branch2a_relu
I0725 21:13:49.885408 70546 net.cpp:434] res4e_branch2a_relu <- res4e_branch2a
I0725 21:13:49.885416 70546 net.cpp:395] res4e_branch2a_relu -> res4e_branch2a (in-place)
I0725 21:13:49.885586 70546 net.cpp:150] Setting up res4e_branch2a_relu
I0725 21:13:49.885597 70546 net.cpp:157] Top shape: 16 256 14 14 (802816)
I0725 21:13:49.885601 70546 net.cpp:165] Memory required for data: 3310813248
I0725 21:13:49.885604 70546 layer_factory.hpp:77] Creating layer res4e_branch2b
I0725 21:13:49.885617 70546 net.cpp:100] Creating Layer res4e_branch2b
I0725 21:13:49.885622 70546 net.cpp:434] res4e_branch2b <- res4e_branch2a
I0725 21:13:49.885630 70546 net.cpp:408] res4e_branch2b -> res4e_branch2b
I0725 21:13:49.902184 70546 net.cpp:150] Setting up res4e_branch2b
I0725 21:13:49.902248 70546 net.cpp:157] Top shape: 16 256 14 14 (802816)
I0725 21:13:49.902256 70546 net.cpp:165] Memory required for data: 3314024512
I0725 21:13:49.902264 70546 layer_factory.hpp:77] Creating layer bn4e_branch2b
I0725 21:13:49.902279 70546 net.cpp:100] Creating Layer bn4e_branch2b
I0725 21:13:49.902287 70546 net.cpp:434] bn4e_branch2b <- res4e_branch2b
I0725 21:13:49.902294 70546 net.cpp:395] bn4e_branch2b -> res4e_branch2b (in-place)
I0725 21:13:49.902551 70546 net.cpp:150] Setting up bn4e_branch2b
I0725 21:13:49.902562 70546 net.cpp:157] Top shape: 16 256 14 14 (802816)
I0725 21:13:49.902565 70546 net.cpp:165] Memory required for data: 3317235776
I0725 21:13:49.902573 70546 layer_factory.hpp:77] Creating layer scale4e_branch2b
I0725 21:13:49.902581 70546 net.cpp:100] Creating Layer scale4e_branch2b
I0725 21:13:49.902590 70546 net.cpp:434] scale4e_branch2b <- res4e_branch2b
I0725 21:13:49.902595 70546 net.cpp:395] scale4e_branch2b -> res4e_branch2b (in-place)
I0725 21:13:49.902652 70546 layer_factory.hpp:77] Creating layer scale4e_branch2b
I0725 21:13:49.902783 70546 net.cpp:150] Setting up scale4e_branch2b
I0725 21:13:49.902812 70546 net.cpp:157] Top shape: 16 256 14 14 (802816)
I0725 21:13:49.902815 70546 net.cpp:165] Memory required for data: 3320447040
I0725 21:13:49.902822 70546 layer_factory.hpp:77] Creating layer res4e_branch2b_relu
I0725 21:13:49.902829 70546 net.cpp:100] Creating Layer res4e_branch2b_relu
I0725 21:13:49.902840 70546 net.cpp:434] res4e_branch2b_relu <- res4e_branch2b
I0725 21:13:49.902846 70546 net.cpp:395] res4e_branch2b_relu -> res4e_branch2b (in-place)
I0725 21:13:49.903034 70546 net.cpp:150] Setting up res4e_branch2b_relu
I0725 21:13:49.903045 70546 net.cpp:157] Top shape: 16 256 14 14 (802816)
I0725 21:13:49.903049 70546 net.cpp:165] Memory required for data: 3323658304
I0725 21:13:49.903053 70546 layer_factory.hpp:77] Creating layer res4e_branch2c
I0725 21:13:49.903066 70546 net.cpp:100] Creating Layer res4e_branch2c
I0725 21:13:49.903074 70546 net.cpp:434] res4e_branch2c <- res4e_branch2b
I0725 21:13:49.903081 70546 net.cpp:408] res4e_branch2c -> res4e_branch2c
I0725 21:13:49.910408 70546 net.cpp:150] Setting up res4e_branch2c
I0725 21:13:49.910442 70546 net.cpp:157] Top shape: 16 1024 14 14 (3211264)
I0725 21:13:49.910464 70546 net.cpp:165] Memory required for data: 3336503360
I0725 21:13:49.910473 70546 layer_factory.hpp:77] Creating layer bn4e_branch2c
I0725 21:13:49.910481 70546 net.cpp:100] Creating Layer bn4e_branch2c
I0725 21:13:49.910486 70546 net.cpp:434] bn4e_branch2c <- res4e_branch2c
I0725 21:13:49.910491 70546 net.cpp:395] bn4e_branch2c -> res4e_branch2c (in-place)
I0725 21:13:49.910742 70546 net.cpp:150] Setting up bn4e_branch2c
I0725 21:13:49.910751 70546 net.cpp:157] Top shape: 16 1024 14 14 (3211264)
I0725 21:13:49.910755 70546 net.cpp:165] Memory required for data: 3349348416
I0725 21:13:49.910763 70546 layer_factory.hpp:77] Creating layer scale4e_branch2c
I0725 21:13:49.910780 70546 net.cpp:100] Creating Layer scale4e_branch2c
I0725 21:13:49.910791 70546 net.cpp:434] scale4e_branch2c <- res4e_branch2c
I0725 21:13:49.910796 70546 net.cpp:395] scale4e_branch2c -> res4e_branch2c (in-place)
I0725 21:13:49.910848 70546 layer_factory.hpp:77] Creating layer scale4e_branch2c
I0725 21:13:49.910985 70546 net.cpp:150] Setting up scale4e_branch2c
I0725 21:13:49.910995 70546 net.cpp:157] Top shape: 16 1024 14 14 (3211264)
I0725 21:13:49.910998 70546 net.cpp:165] Memory required for data: 3362193472
I0725 21:13:49.911005 70546 layer_factory.hpp:77] Creating layer res4e
I0725 21:13:49.911013 70546 net.cpp:100] Creating Layer res4e
I0725 21:13:49.911021 70546 net.cpp:434] res4e <- res4d_res4d_relu_0_split_1
I0725 21:13:49.911026 70546 net.cpp:434] res4e <- res4e_branch2c
I0725 21:13:49.911032 70546 net.cpp:408] res4e -> res4e
I0725 21:13:49.911063 70546 net.cpp:150] Setting up res4e
I0725 21:13:49.911072 70546 net.cpp:157] Top shape: 16 1024 14 14 (3211264)
I0725 21:13:49.911074 70546 net.cpp:165] Memory required for data: 3375038528
I0725 21:13:49.911078 70546 layer_factory.hpp:77] Creating layer res4e_relu
I0725 21:13:49.911087 70546 net.cpp:100] Creating Layer res4e_relu
I0725 21:13:49.911089 70546 net.cpp:434] res4e_relu <- res4e
I0725 21:13:49.911094 70546 net.cpp:395] res4e_relu -> res4e (in-place)
I0725 21:13:49.911286 70546 net.cpp:150] Setting up res4e_relu
I0725 21:13:49.911298 70546 net.cpp:157] Top shape: 16 1024 14 14 (3211264)
I0725 21:13:49.911301 70546 net.cpp:165] Memory required for data: 3387883584
I0725 21:13:49.911306 70546 layer_factory.hpp:77] Creating layer res4e_res4e_relu_0_split
I0725 21:13:49.911316 70546 net.cpp:100] Creating Layer res4e_res4e_relu_0_split
I0725 21:13:49.911324 70546 net.cpp:434] res4e_res4e_relu_0_split <- res4e
I0725 21:13:49.911329 70546 net.cpp:408] res4e_res4e_relu_0_split -> res4e_res4e_relu_0_split_0
I0725 21:13:49.911335 70546 net.cpp:408] res4e_res4e_relu_0_split -> res4e_res4e_relu_0_split_1
I0725 21:13:49.911382 70546 net.cpp:150] Setting up res4e_res4e_relu_0_split
I0725 21:13:49.911391 70546 net.cpp:157] Top shape: 16 1024 14 14 (3211264)
I0725 21:13:49.911396 70546 net.cpp:157] Top shape: 16 1024 14 14 (3211264)
I0725 21:13:49.911419 70546 net.cpp:165] Memory required for data: 3413573696
I0725 21:13:49.911423 70546 layer_factory.hpp:77] Creating layer res4f_branch2a
I0725 21:13:49.911435 70546 net.cpp:100] Creating Layer res4f_branch2a
I0725 21:13:49.911440 70546 net.cpp:434] res4f_branch2a <- res4e_res4e_relu_0_split_0
I0725 21:13:49.911448 70546 net.cpp:408] res4f_branch2a -> res4f_branch2a
I0725 21:13:49.919946 70546 net.cpp:150] Setting up res4f_branch2a
I0725 21:13:49.920002 70546 net.cpp:157] Top shape: 16 256 14 14 (802816)
I0725 21:13:49.920008 70546 net.cpp:165] Memory required for data: 3416784960
I0725 21:13:49.920017 70546 layer_factory.hpp:77] Creating layer bn4f_branch2a
I0725 21:13:49.920028 70546 net.cpp:100] Creating Layer bn4f_branch2a
I0725 21:13:49.920034 70546 net.cpp:434] bn4f_branch2a <- res4f_branch2a
I0725 21:13:49.920039 70546 net.cpp:395] bn4f_branch2a -> res4f_branch2a (in-place)
I0725 21:13:49.920280 70546 net.cpp:150] Setting up bn4f_branch2a
I0725 21:13:49.920290 70546 net.cpp:157] Top shape: 16 256 14 14 (802816)
I0725 21:13:49.920294 70546 net.cpp:165] Memory required for data: 3419996224
I0725 21:13:49.920301 70546 layer_factory.hpp:77] Creating layer scale4f_branch2a
I0725 21:13:49.920311 70546 net.cpp:100] Creating Layer scale4f_branch2a
I0725 21:13:49.920318 70546 net.cpp:434] scale4f_branch2a <- res4f_branch2a
I0725 21:13:49.920323 70546 net.cpp:395] scale4f_branch2a -> res4f_branch2a (in-place)
I0725 21:13:49.920377 70546 layer_factory.hpp:77] Creating layer scale4f_branch2a
I0725 21:13:49.920508 70546 net.cpp:150] Setting up scale4f_branch2a
I0725 21:13:49.920517 70546 net.cpp:157] Top shape: 16 256 14 14 (802816)
I0725 21:13:49.920521 70546 net.cpp:165] Memory required for data: 3423207488
I0725 21:13:49.920527 70546 layer_factory.hpp:77] Creating layer res4f_branch2a_relu
I0725 21:13:49.920534 70546 net.cpp:100] Creating Layer res4f_branch2a_relu
I0725 21:13:49.920544 70546 net.cpp:434] res4f_branch2a_relu <- res4f_branch2a
I0725 21:13:49.920550 70546 net.cpp:395] res4f_branch2a_relu -> res4f_branch2a (in-place)
I0725 21:13:49.920724 70546 net.cpp:150] Setting up res4f_branch2a_relu
I0725 21:13:49.920737 70546 net.cpp:157] Top shape: 16 256 14 14 (802816)
I0725 21:13:49.920739 70546 net.cpp:165] Memory required for data: 3426418752
I0725 21:13:49.920743 70546 layer_factory.hpp:77] Creating layer res4f_branch2b
I0725 21:13:49.920756 70546 net.cpp:100] Creating Layer res4f_branch2b
I0725 21:13:49.920763 70546 net.cpp:434] res4f_branch2b <- res4f_branch2a
I0725 21:13:49.920768 70546 net.cpp:408] res4f_branch2b -> res4f_branch2b
I0725 21:13:49.937366 70546 net.cpp:150] Setting up res4f_branch2b
I0725 21:13:49.937432 70546 net.cpp:157] Top shape: 16 256 14 14 (802816)
I0725 21:13:49.937438 70546 net.cpp:165] Memory required for data: 3429630016
I0725 21:13:49.937446 70546 layer_factory.hpp:77] Creating layer bn4f_branch2b
I0725 21:13:49.937464 70546 net.cpp:100] Creating Layer bn4f_branch2b
I0725 21:13:49.937471 70546 net.cpp:434] bn4f_branch2b <- res4f_branch2b
I0725 21:13:49.937479 70546 net.cpp:395] bn4f_branch2b -> res4f_branch2b (in-place)
I0725 21:13:49.937732 70546 net.cpp:150] Setting up bn4f_branch2b
I0725 21:13:49.937742 70546 net.cpp:157] Top shape: 16 256 14 14 (802816)
I0725 21:13:49.937747 70546 net.cpp:165] Memory required for data: 3432841280
I0725 21:13:49.937755 70546 layer_factory.hpp:77] Creating layer scale4f_branch2b
I0725 21:13:49.937770 70546 net.cpp:100] Creating Layer scale4f_branch2b
I0725 21:13:49.937782 70546 net.cpp:434] scale4f_branch2b <- res4f_branch2b
I0725 21:13:49.937786 70546 net.cpp:395] scale4f_branch2b -> res4f_branch2b (in-place)
I0725 21:13:49.937847 70546 layer_factory.hpp:77] Creating layer scale4f_branch2b
I0725 21:13:49.937978 70546 net.cpp:150] Setting up scale4f_branch2b
I0725 21:13:49.937988 70546 net.cpp:157] Top shape: 16 256 14 14 (802816)
I0725 21:13:49.937991 70546 net.cpp:165] Memory required for data: 3436052544
I0725 21:13:49.937999 70546 layer_factory.hpp:77] Creating layer res4f_branch2b_relu
I0725 21:13:49.938015 70546 net.cpp:100] Creating Layer res4f_branch2b_relu
I0725 21:13:49.938037 70546 net.cpp:434] res4f_branch2b_relu <- res4f_branch2b
I0725 21:13:49.938043 70546 net.cpp:395] res4f_branch2b_relu -> res4f_branch2b (in-place)
I0725 21:13:49.938228 70546 net.cpp:150] Setting up res4f_branch2b_relu
I0725 21:13:49.938241 70546 net.cpp:157] Top shape: 16 256 14 14 (802816)
I0725 21:13:49.938243 70546 net.cpp:165] Memory required for data: 3439263808
I0725 21:13:49.938247 70546 layer_factory.hpp:77] Creating layer res4f_branch2c
I0725 21:13:49.938263 70546 net.cpp:100] Creating Layer res4f_branch2c
I0725 21:13:49.938268 70546 net.cpp:434] res4f_branch2c <- res4f_branch2b
I0725 21:13:49.938274 70546 net.cpp:408] res4f_branch2c -> res4f_branch2c
I0725 21:13:49.945598 70546 net.cpp:150] Setting up res4f_branch2c
I0725 21:13:49.945629 70546 net.cpp:157] Top shape: 16 1024 14 14 (3211264)
I0725 21:13:49.945652 70546 net.cpp:165] Memory required for data: 3452108864
I0725 21:13:49.945659 70546 layer_factory.hpp:77] Creating layer bn4f_branch2c
I0725 21:13:49.945672 70546 net.cpp:100] Creating Layer bn4f_branch2c
I0725 21:13:49.945677 70546 net.cpp:434] bn4f_branch2c <- res4f_branch2c
I0725 21:13:49.945682 70546 net.cpp:395] bn4f_branch2c -> res4f_branch2c (in-place)
I0725 21:13:49.945933 70546 net.cpp:150] Setting up bn4f_branch2c
I0725 21:13:49.945945 70546 net.cpp:157] Top shape: 16 1024 14 14 (3211264)
I0725 21:13:49.945947 70546 net.cpp:165] Memory required for data: 3464953920
I0725 21:13:49.946003 70546 layer_factory.hpp:77] Creating layer scale4f_branch2c
I0725 21:13:49.946015 70546 net.cpp:100] Creating Layer scale4f_branch2c
I0725 21:13:49.946027 70546 net.cpp:434] scale4f_branch2c <- res4f_branch2c
I0725 21:13:49.946033 70546 net.cpp:395] scale4f_branch2c -> res4f_branch2c (in-place)
I0725 21:13:49.946089 70546 layer_factory.hpp:77] Creating layer scale4f_branch2c
I0725 21:13:49.946223 70546 net.cpp:150] Setting up scale4f_branch2c
I0725 21:13:49.946233 70546 net.cpp:157] Top shape: 16 1024 14 14 (3211264)
I0725 21:13:49.946235 70546 net.cpp:165] Memory required for data: 3477798976
I0725 21:13:49.946244 70546 layer_factory.hpp:77] Creating layer res4f
I0725 21:13:49.946255 70546 net.cpp:100] Creating Layer res4f
I0725 21:13:49.946261 70546 net.cpp:434] res4f <- res4e_res4e_relu_0_split_1
I0725 21:13:49.946266 70546 net.cpp:434] res4f <- res4f_branch2c
I0725 21:13:49.946271 70546 net.cpp:408] res4f -> res4f
I0725 21:13:49.946305 70546 net.cpp:150] Setting up res4f
I0725 21:13:49.946312 70546 net.cpp:157] Top shape: 16 1024 14 14 (3211264)
I0725 21:13:49.946316 70546 net.cpp:165] Memory required for data: 3490644032
I0725 21:13:49.946319 70546 layer_factory.hpp:77] Creating layer res4f_relu
I0725 21:13:49.946326 70546 net.cpp:100] Creating Layer res4f_relu
I0725 21:13:49.946328 70546 net.cpp:434] res4f_relu <- res4f
I0725 21:13:49.946336 70546 net.cpp:395] res4f_relu -> res4f (in-place)
I0725 21:13:49.946849 70546 net.cpp:150] Setting up res4f_relu
I0725 21:13:49.946864 70546 net.cpp:157] Top shape: 16 1024 14 14 (3211264)
I0725 21:13:49.946868 70546 net.cpp:165] Memory required for data: 3503489088
I0725 21:13:49.946888 70546 layer_factory.hpp:77] Creating layer res4f_res4f_relu_0_split
I0725 21:13:49.946897 70546 net.cpp:100] Creating Layer res4f_res4f_relu_0_split
I0725 21:13:49.946900 70546 net.cpp:434] res4f_res4f_relu_0_split <- res4f
I0725 21:13:49.946907 70546 net.cpp:408] res4f_res4f_relu_0_split -> res4f_res4f_relu_0_split_0
I0725 21:13:49.946913 70546 net.cpp:408] res4f_res4f_relu_0_split -> res4f_res4f_relu_0_split_1
I0725 21:13:49.946983 70546 net.cpp:150] Setting up res4f_res4f_relu_0_split
I0725 21:13:49.946992 70546 net.cpp:157] Top shape: 16 1024 14 14 (3211264)
I0725 21:13:49.946995 70546 net.cpp:157] Top shape: 16 1024 14 14 (3211264)
I0725 21:13:49.946998 70546 net.cpp:165] Memory required for data: 3529179200
I0725 21:13:49.947002 70546 layer_factory.hpp:77] Creating layer res5a_branch1
I0725 21:13:49.947026 70546 net.cpp:100] Creating Layer res5a_branch1
I0725 21:13:49.947031 70546 net.cpp:434] res5a_branch1 <- res4f_res4f_relu_0_split_0
I0725 21:13:49.947057 70546 net.cpp:408] res5a_branch1 -> res5a_branch1
I0725 21:13:50.000130 70546 net.cpp:150] Setting up res5a_branch1
I0725 21:13:50.000196 70546 net.cpp:157] Top shape: 16 2048 7 7 (1605632)
I0725 21:13:50.000202 70546 net.cpp:165] Memory required for data: 3535601728
I0725 21:13:50.000213 70546 layer_factory.hpp:77] Creating layer bn5a_branch1
I0725 21:13:50.000226 70546 net.cpp:100] Creating Layer bn5a_branch1
I0725 21:13:50.000232 70546 net.cpp:434] bn5a_branch1 <- res5a_branch1
I0725 21:13:50.000239 70546 net.cpp:395] bn5a_branch1 -> res5a_branch1 (in-place)
I0725 21:13:50.000515 70546 net.cpp:150] Setting up bn5a_branch1
I0725 21:13:50.000526 70546 net.cpp:157] Top shape: 16 2048 7 7 (1605632)
I0725 21:13:50.000530 70546 net.cpp:165] Memory required for data: 3542024256
I0725 21:13:50.000538 70546 layer_factory.hpp:77] Creating layer scale5a_branch1
I0725 21:13:50.000555 70546 net.cpp:100] Creating Layer scale5a_branch1
I0725 21:13:50.000566 70546 net.cpp:434] scale5a_branch1 <- res5a_branch1
I0725 21:13:50.000573 70546 net.cpp:395] scale5a_branch1 -> res5a_branch1 (in-place)
I0725 21:13:50.000627 70546 layer_factory.hpp:77] Creating layer scale5a_branch1
I0725 21:13:50.000763 70546 net.cpp:150] Setting up scale5a_branch1
I0725 21:13:50.000774 70546 net.cpp:157] Top shape: 16 2048 7 7 (1605632)
I0725 21:13:50.000777 70546 net.cpp:165] Memory required for data: 3548446784
I0725 21:13:50.000784 70546 layer_factory.hpp:77] Creating layer res5a_branch2a
I0725 21:13:50.000802 70546 net.cpp:100] Creating Layer res5a_branch2a
I0725 21:13:50.000809 70546 net.cpp:434] res5a_branch2a <- res4f_res4f_relu_0_split_1
I0725 21:13:50.000816 70546 net.cpp:408] res5a_branch2a -> res5a_branch2a
I0725 21:13:50.015604 70546 net.cpp:150] Setting up res5a_branch2a
I0725 21:13:50.015676 70546 net.cpp:157] Top shape: 16 512 7 7 (401408)
I0725 21:13:50.015682 70546 net.cpp:165] Memory required for data: 3550052416
I0725 21:13:50.015691 70546 layer_factory.hpp:77] Creating layer bn5a_branch2a
I0725 21:13:50.015707 70546 net.cpp:100] Creating Layer bn5a_branch2a
I0725 21:13:50.015713 70546 net.cpp:434] bn5a_branch2a <- res5a_branch2a
I0725 21:13:50.015722 70546 net.cpp:395] bn5a_branch2a -> res5a_branch2a (in-place)
I0725 21:13:50.015982 70546 net.cpp:150] Setting up bn5a_branch2a
I0725 21:13:50.015993 70546 net.cpp:157] Top shape: 16 512 7 7 (401408)
I0725 21:13:50.015996 70546 net.cpp:165] Memory required for data: 3551658048
I0725 21:13:50.016006 70546 layer_factory.hpp:77] Creating layer scale5a_branch2a
I0725 21:13:50.016022 70546 net.cpp:100] Creating Layer scale5a_branch2a
I0725 21:13:50.016033 70546 net.cpp:434] scale5a_branch2a <- res5a_branch2a
I0725 21:13:50.016038 70546 net.cpp:395] scale5a_branch2a -> res5a_branch2a (in-place)
I0725 21:13:50.016093 70546 layer_factory.hpp:77] Creating layer scale5a_branch2a
I0725 21:13:50.016230 70546 net.cpp:150] Setting up scale5a_branch2a
I0725 21:13:50.016239 70546 net.cpp:157] Top shape: 16 512 7 7 (401408)
I0725 21:13:50.016242 70546 net.cpp:165] Memory required for data: 3553263680
I0725 21:13:50.016250 70546 layer_factory.hpp:77] Creating layer res5a_branch2a_relu
I0725 21:13:50.016266 70546 net.cpp:100] Creating Layer res5a_branch2a_relu
I0725 21:13:50.016271 70546 net.cpp:434] res5a_branch2a_relu <- res5a_branch2a
I0725 21:13:50.016276 70546 net.cpp:395] res5a_branch2a_relu -> res5a_branch2a (in-place)
I0725 21:13:50.016794 70546 net.cpp:150] Setting up res5a_branch2a_relu
I0725 21:13:50.016811 70546 net.cpp:157] Top shape: 16 512 7 7 (401408)
I0725 21:13:50.016814 70546 net.cpp:165] Memory required for data: 3554869312
I0725 21:13:50.016836 70546 layer_factory.hpp:77] Creating layer res5a_branch2b
I0725 21:13:50.016847 70546 net.cpp:100] Creating Layer res5a_branch2b
I0725 21:13:50.016851 70546 net.cpp:434] res5a_branch2b <- res5a_branch2a
I0725 21:13:50.016876 70546 net.cpp:408] res5a_branch2b -> res5a_branch2b
I0725 21:13:50.076484 70546 net.cpp:150] Setting up res5a_branch2b
I0725 21:13:50.076550 70546 net.cpp:157] Top shape: 16 512 7 7 (401408)
I0725 21:13:50.076586 70546 net.cpp:165] Memory required for data: 3556474944
I0725 21:13:50.076596 70546 layer_factory.hpp:77] Creating layer bn5a_branch2b
I0725 21:13:50.076630 70546 net.cpp:100] Creating Layer bn5a_branch2b
I0725 21:13:50.076637 70546 net.cpp:434] bn5a_branch2b <- res5a_branch2b
I0725 21:13:50.076644 70546 net.cpp:395] bn5a_branch2b -> res5a_branch2b (in-place)
I0725 21:13:50.076892 70546 net.cpp:150] Setting up bn5a_branch2b
I0725 21:13:50.076903 70546 net.cpp:157] Top shape: 16 512 7 7 (401408)
I0725 21:13:50.076906 70546 net.cpp:165] Memory required for data: 3558080576
I0725 21:13:50.076915 70546 layer_factory.hpp:77] Creating layer scale5a_branch2b
I0725 21:13:50.076930 70546 net.cpp:100] Creating Layer scale5a_branch2b
I0725 21:13:50.076941 70546 net.cpp:434] scale5a_branch2b <- res5a_branch2b
I0725 21:13:50.076946 70546 net.cpp:395] scale5a_branch2b -> res5a_branch2b (in-place)
I0725 21:13:50.077003 70546 layer_factory.hpp:77] Creating layer scale5a_branch2b
I0725 21:13:50.077141 70546 net.cpp:150] Setting up scale5a_branch2b
I0725 21:13:50.077149 70546 net.cpp:157] Top shape: 16 512 7 7 (401408)
I0725 21:13:50.077152 70546 net.cpp:165] Memory required for data: 3559686208
I0725 21:13:50.077160 70546 layer_factory.hpp:77] Creating layer res5a_branch2b_relu
I0725 21:13:50.077177 70546 net.cpp:100] Creating Layer res5a_branch2b_relu
I0725 21:13:50.077181 70546 net.cpp:434] res5a_branch2b_relu <- res5a_branch2b
I0725 21:13:50.077185 70546 net.cpp:395] res5a_branch2b_relu -> res5a_branch2b (in-place)
I0725 21:13:50.077368 70546 net.cpp:150] Setting up res5a_branch2b_relu
I0725 21:13:50.077379 70546 net.cpp:157] Top shape: 16 512 7 7 (401408)
I0725 21:13:50.077383 70546 net.cpp:165] Memory required for data: 3561291840
I0725 21:13:50.077386 70546 layer_factory.hpp:77] Creating layer res5a_branch2c
I0725 21:13:50.077401 70546 net.cpp:100] Creating Layer res5a_branch2c
I0725 21:13:50.077406 70546 net.cpp:434] res5a_branch2c <- res5a_branch2b
I0725 21:13:50.077412 70546 net.cpp:408] res5a_branch2c -> res5a_branch2c
I0725 21:13:50.104923 70546 net.cpp:150] Setting up res5a_branch2c
I0725 21:13:50.104985 70546 net.cpp:157] Top shape: 16 2048 7 7 (1605632)
I0725 21:13:50.104991 70546 net.cpp:165] Memory required for data: 3567714368
I0725 21:13:50.105000 70546 layer_factory.hpp:77] Creating layer bn5a_branch2c
I0725 21:13:50.105013 70546 net.cpp:100] Creating Layer bn5a_branch2c
I0725 21:13:50.105021 70546 net.cpp:434] bn5a_branch2c <- res5a_branch2c
I0725 21:13:50.105027 70546 net.cpp:395] bn5a_branch2c -> res5a_branch2c (in-place)
I0725 21:13:50.105301 70546 net.cpp:150] Setting up bn5a_branch2c
I0725 21:13:50.105311 70546 net.cpp:157] Top shape: 16 2048 7 7 (1605632)
I0725 21:13:50.105315 70546 net.cpp:165] Memory required for data: 3574136896
I0725 21:13:50.105324 70546 layer_factory.hpp:77] Creating layer scale5a_branch2c
I0725 21:13:50.105340 70546 net.cpp:100] Creating Layer scale5a_branch2c
I0725 21:13:50.105350 70546 net.cpp:434] scale5a_branch2c <- res5a_branch2c
I0725 21:13:50.105357 70546 net.cpp:395] scale5a_branch2c -> res5a_branch2c (in-place)
I0725 21:13:50.105412 70546 layer_factory.hpp:77] Creating layer scale5a_branch2c
I0725 21:13:50.105556 70546 net.cpp:150] Setting up scale5a_branch2c
I0725 21:13:50.105566 70546 net.cpp:157] Top shape: 16 2048 7 7 (1605632)
I0725 21:13:50.105569 70546 net.cpp:165] Memory required for data: 3580559424
I0725 21:13:50.105576 70546 layer_factory.hpp:77] Creating layer res5a
I0725 21:13:50.105594 70546 net.cpp:100] Creating Layer res5a
I0725 21:13:50.105599 70546 net.cpp:434] res5a <- res5a_branch1
I0725 21:13:50.105604 70546 net.cpp:434] res5a <- res5a_branch2c
I0725 21:13:50.105610 70546 net.cpp:408] res5a -> res5a
I0725 21:13:50.105644 70546 net.cpp:150] Setting up res5a
I0725 21:13:50.105653 70546 net.cpp:157] Top shape: 16 2048 7 7 (1605632)
I0725 21:13:50.105655 70546 net.cpp:165] Memory required for data: 3586981952
…
I0725 21:13:50.804986 70546 net.cpp:434] res4d_branch2a <- res4c_res4c_relu_0_split_0
I0725 21:13:50.804998 70546 net.cpp:408] res4d_branch2a -> res4d_branch2a
I0725 21:13:50.816625 70546 net.cpp:150] Setting up res4d_branch2a
I0725 21:13:50.816764 70546 net.cpp:157] Top shape: 16 256 14 14 (802816)
I0725 21:13:50.816771 70546 net.cpp:165] Memory required for data: 3185574080
I0725 21:13:50.816797 70546 layer_factory.hpp:77] Creating layer bn4d_branch2a
I0725 21:13:50.816830 70546 net.cpp:100] Creating Layer bn4d_branch2a
I0725 21:13:50.816845 70546 net.cpp:434] bn4d_branch2a <- res4d_branch2a
I0725 21:13:50.816862 70546 net.cpp:395] bn4d_branch2a -> res4d_branch2a (in-place)
I0725 21:13:50.817319 70546 net.cpp:150] Setting up bn4d_branch2a
I0725 21:13:50.817348 70546 net.cpp:157] Top shape: 16 256 14 14 (802816)
I0725 21:13:50.817353 70546 net.cpp:165] Memory required for data: 3188785344
I0725 21:13:50.817370 70546 layer_factory.hpp:77] Creating layer scale4d_branch2a
I0725 21:13:50.817401 70546 net.cpp:100] Creating Layer scale4d_branch2a
I0725 21:13:50.817409 70546 net.cpp:434] scale4d_branch2a <- res4d_branch2a
I0725 21:13:50.817417 70546 net.cpp:395] scale4d_branch2a -> res4d_branch2a (in-place)
I0725 21:13:50.817549 70546 layer_factory.hpp:77] Creating layer scale4d_branch2a
I0725 21:13:50.817785 70546 net.cpp:150] Setting up scale4d_branch2a
I0725 21:13:50.817800 70546 net.cpp:157] Top shape: 16 256 14 14 (802816)
I0725 21:13:50.817804 70546 net.cpp:165] Memory required for data: 3191996608
I0725 21:13:50.817816 70546 layer_factory.hpp:77] Creating layer res4d_branch2a_relu
I0725 21:13:50.817833 70546 net.cpp:100] Creating Layer res4d_branch2a_relu
I0725 21:13:50.817844 70546 net.cpp:434] res4d_branch2a_relu <- res4d_branch2a
I0725 21:13:50.817850 70546 net.cpp:395] res4d_branch2a_relu -> res4d_branch2a (in-place)
I0725 21:13:50.819393 70546 net.cpp:150] Setting up res4d_branch2a_relu
I0725 21:13:50.819449 70546 net.cpp:157] Top shape: 16 256 14 14 (802816)
I0725 21:13:50.819455 70546 net.cpp:165] Memory required for data: 3195207872
I0725 21:13:50.819463 70546 layer_factory.hpp:77] Creating layer res4d_branch2b
I0725 21:13:50.819546 70546 net.cpp:100] Creating Layer res4d_branch2b
I0725 21:13:50.819558 70546 net.cpp:434] res4d_branch2b <- res4d_branch2a
I0725 21:13:50.819581 70546 net.cpp:408] res4d_branch2b -> res4d_branch2b
I0725 21:13:50.846323 70546 net.cpp:150] Setting up res4d_branch2b
I0725 21:13:50.846416 70546 net.cpp:157] Top shape: 16 256 14 14 (802816)
I0725 21:13:50.846422 70546 net.cpp:165] Memory required for data: 3198419136
I0725 21:13:50.846444 70546 layer_factory.hpp:77] Creating layer bn4d_branch2b
I0725 21:13:50.846474 70546 net.cpp:100] Creating Layer bn4d_branch2b
I0725 21:13:50.846488 70546 net.cpp:434] bn4d_branch2b <- res4d_branch2b
I0725 21:13:50.846503 70546 net.cpp:395] bn4d_branch2b -> res4d_branch2b (in-place)
I0725 21:13:50.847004 70546 net.cpp:150] Setting up bn4d_branch2b
I0725 21:13:50.847028 70546 net.cpp:157] Top shape: 16 256 14 14 (802816)
I0725 21:13:50.847031 70546 net.cpp:165] Memory required for data: 3201630400
I0725 21:13:50.847048 70546 layer_factory.hpp:77] Creating layer scale4d_branch2b
I0725 21:13:50.847066 70546 net.cpp:100] Creating Layer scale4d_branch2b
I0725 21:13:50.847080 70546 net.cpp:434] scale4d_branch2b <- res4d_branch2b
I0725 21:13:50.847095 70546 net.cpp:395] scale4d_branch2b -> res4d_branch2b (in-place)
I0725 21:13:50.847213 70546 layer_factory.hpp:77] Creating layer scale4d_branch2b
I0725 21:13:50.847439 70546 net.cpp:150] Setting up scale4d_branch2b
I0725 21:13:50.847457 70546 net.cpp:157] Top shape: 16 256 14 14 (802816)
I0725 21:13:50.847461 70546 net.cpp:165] Memory required for data: 3204841664
I0725 21:13:50.847471 70546 layer_factory.hpp:77] Creating layer res4d_branch2b_relu
I0725 21:13:50.847487 70546 net.cpp:100] Creating Layer res4d_branch2b_relu
I0725 21:13:50.847501 70546 net.cpp:434] res4d_branch2b_relu <- res4d_branch2b
I0725 21:13:50.847508 70546 net.cpp:395] res4d_branch2b_relu -> res4d_branch2b (in-place)
I0725 21:13:50.847944 70546 net.cpp:150] Setting up res4d_branch2b_relu
I0725 21:13:50.847959 70546 net.cpp:157] Top shape: 16 256 14 14 (802816)
I0725 21:13:50.847964 70546 net.cpp:165] Memory required for data: 3208052928
I0725 21:13:50.847970 70546 layer_factory.hpp:77] Creating layer res4d_branch2c
I0725 21:13:50.847990 70546 net.cpp:100] Creating Layer res4d_branch2c
I0725 21:13:50.847995 70546 net.cpp:434] res4d_branch2c <- res4d_branch2b
I0725 21:13:50.848009 70546 net.cpp:408] res4d_branch2c -> res4d_branch2c
I0725 21:13:50.861207 70546 net.cpp:150] Setting up res4d_branch2c
I0725 21:13:50.861308 70546 net.cpp:157] Top shape: 16 1024 14 14 (3211264)
I0725 21:13:50.861318 70546 net.cpp:165] Memory required for data: 3220897984
I0725 21:13:50.861346 70546 layer_factory.hpp:77] Creating layer bn4d_branch2c
I0725 21:13:50.861380 70546 net.cpp:100] Creating Layer bn4d_branch2c
I0725 21:13:50.861402 70546 net.cpp:434] bn4d_branch2c <- res4d_branch2c
I0725 21:13:50.861428 70546 net.cpp:395] bn4d_branch2c -> res4d_branch2c (in-place)
I0725 21:13:50.861907 70546 net.cpp:150] Setting up bn4d_branch2c
I0725 21:13:50.861929 70546 net.cpp:157] Top shape: 16 1024 14 14 (3211264)
I0725 21:13:50.861937 70546 net.cpp:165] Memory required for data: 3233743040
I0725 21:13:50.861959 70546 layer_factory.hpp:77] Creating layer scale4d_branch2c
I0725 21:13:50.861990 70546 net.cpp:100] Creating Layer scale4d_branch2c
I0725 21:13:50.862004 70546 net.cpp:434] scale4d_branch2c <- res4d_branch2c
I0725 21:13:50.862016 70546 net.cpp:395] scale4d_branch2c -> res4d_branch2c (in-place)
I0725 21:13:50.862150 70546 layer_factory.hpp:77] Creating layer scale4d_branch2c
I0725 21:13:50.862378 70546 net.cpp:150] Setting up scale4d_branch2c
I0725 21:13:50.862392 70546 net.cpp:157] Top shape: 16 1024 14 14 (3211264)
I0725 21:13:50.862401 70546 net.cpp:165] Memory required for data: 3246588096
I0725 21:13:50.862418 70546 layer_factory.hpp:77] Creating layer res4d
I0725 21:13:50.862442 70546 net.cpp:100] Creating Layer res4d
I0725 21:13:50.862452 70546 net.cpp:434] res4d <- res4c_res4c_relu_0_split_1
I0725 21:13:50.862463 70546 net.cpp:434] res4d <- res4d_branch2c
I0725 21:13:50.862479 70546 net.cpp:408] res4d -> res4d
I0725 21:13:50.862583 70546 net.cpp:150] Setting up res4d
I0725 21:13:50.862597 70546 net.cpp:157] Top shape: 16 1024 14 14 (3211264)
I0725 21:13:50.862604 70546 net.cpp:165] Memory required for data: 3259433152
I0725 21:13:50.862614 70546 layer_factory.hpp:77] Creating layer res4d_relu
I0725 21:13:50.862634 70546 net.cpp:100] Creating Layer res4d_relu
I0725 21:13:50.862643 70546 net.cpp:434] res4d_relu <- res4d
I0725 21:13:50.862653 70546 net.cpp:395] res4d_relu -> res4d (in-place)
I0725 21:13:50.863040 70546 net.cpp:150] Setting up res4d_relu
I0725 21:13:50.863060 70546 net.cpp:157] Top shape: 16 1024 14 14 (3211264)
I0725 21:13:50.863068 70546 net.cpp:165] Memory required for data: 3272278208
I0725 21:13:50.863076 70546 layer_factory.hpp:77] Creating layer res4d_res4d_relu_0_split
I0725 21:13:50.863091 70546 net.cpp:100] Creating Layer res4d_res4d_relu_0_split
I0725 21:13:50.863101 70546 net.cpp:434] res4d_res4d_relu_0_split <- res4d
I0725 21:13:50.863116 70546 net.cpp:408] res4d_res4d_relu_0_split -> res4d_res4d_relu_0_split_0
I0725 21:13:50.863131 70546 net.cpp:408] res4d_res4d_relu_0_split -> res4d_res4d_relu_0_split_1
I0725 21:13:50.863216 70546 net.cpp:150] Setting up res4d_res4d_relu_0_split
I0725 21:13:50.863230 70546 net.cpp:157] Top shape: 16 1024 14 14 (3211264)
I0725 21:13:50.863270 70546 net.cpp:157] Top shape: 16 1024 14 14 (3211264)
I0725 21:13:50.863277 70546 net.cpp:165] Memory required for data: 3297968320
I0725 21:13:50.863296 70546 layer_factory.hpp:77] Creating layer res4e_branch2a
I0725 21:13:50.863322 70546 net.cpp:100] Creating Layer res4e_branch2a
I0725 21:13:50.863335 70546 net.cpp:434] res4e_branch2a <- res4d_res4d_relu_0_split_0
I0725 21:13:50.863351 70546 net.cpp:408] res4e_branch2a -> res4e_branch2a
I0725 21:13:50.873502 70546 net.cpp:150] Setting up res4e_branch2a
I0725 21:13:50.873589 70546 net.cpp:157] Top shape: 16 256 14 14 (802816)
I0725 21:13:50.873596 70546 net.cpp:165] Memory required for data: 3301179584
I0725 21:13:50.873621 70546 layer_factory.hpp:77] Creating layer bn4e_branch2a
I0725 21:13:50.873648 70546 net.cpp:100] Creating Layer bn4e_branch2a
I0725 21:13:50.873666 70546 net.cpp:434] bn4e_branch2a <- res4e_branch2a
I0725 21:13:50.873687 70546 net.cpp:395] bn4e_branch2a -> res4e_branch2a (in-place)
I0725 21:13:50.874099 70546 net.cpp:150] Setting up bn4e_branch2a
I0725 21:13:50.874119 70546 net.cpp:157] Top shape: 16 256 14 14 (802816)
I0725 21:13:50.874126 70546 net.cpp:165] Memory required for data: 3304390848
I0725 21:13:50.874147 70546 layer_factory.hpp:77] Creating layer scale4e_branch2a
I0725 21:13:50.874177 70546 net.cpp:100] Creating Layer scale4e_branch2a
I0725 21:13:50.874189 70546 net.cpp:434] scale4e_branch2a <- res4e_branch2a
I0725 21:13:50.874202 70546 net.cpp:395] scale4e_branch2a -> res4e_branch2a (in-place)
I0725 21:13:50.874333 70546 layer_factory.hpp:77] Creating layer scale4e_branch2a
I0725 21:13:50.874547 70546 net.cpp:150] Setting up scale4e_branch2a
I0725 21:13:50.874562 70546 net.cpp:157] Top shape: 16 256 14 14 (802816)
I0725 21:13:50.874569 70546 net.cpp:165] Memory required for data: 3307602112
I0725 21:13:50.874584 70546 layer_factory.hpp:77] Creating layer res4e_branch2a_relu
I0725 21:13:50.874614 70546 net.cpp:100] Creating Layer res4e_branch2a_relu
I0725 21:13:50.874626 70546 net.cpp:434] res4e_branch2a_relu <- res4e_branch2a
I0725 21:13:50.874642 70546 net.cpp:395] res4e_branch2a_relu -> res4e_branch2a (in-place)
I0725 21:13:50.874948 70546 net.cpp:150] Setting up res4e_branch2a_relu
I0725 21:13:50.874964 70546 net.cpp:157] Top shape: 16 256 14 14 (802816)
I0725 21:13:50.874972 70546 net.cpp:165] Memory required for data: 3310813376
I0725 21:13:50.874980 70546 layer_factory.hpp:77] Creating layer res4e_branch2b
I0725 21:13:50.875006 70546 net.cpp:100] Creating Layer res4e_branch2b
I0725 21:13:50.875015 70546 net.cpp:434] res4e_branch2b <- res4e_branch2a
I0725 21:13:50.875036 70546 net.cpp:408] res4e_branch2b -> res4e_branch2b
I0725 21:13:50.897261 70546 net.cpp:150] Setting up res4e_branch2b
I0725 21:13:50.897326 70546 net.cpp:157] Top shape: 16 256 14 14 (802816)
I0725 21:13:50.897375 70546 net.cpp:165] Memory required for data: 3314024640
I0725 21:13:50.897400 70546 layer_factory.hpp:77] Creating layer bn4e_branch2b
I0725 21:13:50.897464 70546 net.cpp:100] Creating Layer bn4e_branch2b
I0725 21:13:50.897480 70546 net.cpp:434] bn4e_branch2b <- res4e_branch2b
I0725 21:13:50.897511 70546 net.cpp:395] bn4e_branch2b -> res4e_branch2b (in-place)
I0725 21:13:50.897922 70546 net.cpp:150] Setting up bn4e_branch2b
I0725 21:13:50.897938 70546 net.cpp:157] Top shape: 16 256 14 14 (802816)
I0725 21:13:50.897946 70546 net.cpp:165] Memory required for data: 3317235904
I0725 21:13:50.897965 70546 layer_factory.hpp:77] Creating layer scale4e_branch2b
I0725 21:13:50.897999 70546 net.cpp:100] Creating Layer scale4e_branch2b
I0725 21:13:50.898007 70546 net.cpp:434] scale4e_branch2b <- res4e_branch2b
I0725 21:13:50.898020 70546 net.cpp:395] scale4e_branch2b -> res4e_branch2b (in-place)
I0725 21:13:50.898121 70546 layer_factory.hpp:77] Creating layer scale4e_branch2b
I0725 21:13:50.898319 70546 net.cpp:150] Setting up scale4e_branch2b
I0725 21:13:50.898332 70546 net.cpp:157] Top shape: 16 256 14 14 (802816)
I0725 21:13:50.898340 70546 net.cpp:165] Memory required for data: 3320447168
I0725 21:13:50.898355 70546 layer_factory.hpp:77] Creating layer res4e_branch2b_relu
I0725 21:13:50.898370 70546 net.cpp:100] Creating Layer res4e_branch2b_relu
I0725 21:13:50.898380 70546 net.cpp:434] res4e_branch2b_relu <- res4e_branch2b
I0725 21:13:50.898394 70546 net.cpp:395] res4e_branch2b_relu -> res4e_branch2b (in-place)
I0725 21:13:50.898707 70546 net.cpp:150] Setting up res4e_branch2b_relu
I0725 21:13:50.898725 70546 net.cpp:157] Top shape: 16 256 14 14 (802816)
I0725 21:13:50.898731 70546 net.cpp:165] Memory required for data: 3323658432
I0725 21:13:50.898739 70546 layer_factory.hpp:77] Creating layer res4e_branch2c
I0725 21:13:50.898764 70546 net.cpp:100] Creating Layer res4e_branch2c
I0725 21:13:50.898773 70546 net.cpp:434] res4e_branch2c <- res4e_branch2b
I0725 21:13:50.898789 70546 net.cpp:408] res4e_branch2c -> res4e_branch2c
I0725 21:13:50.910243 70546 net.cpp:150] Setting up res4e_branch2c
I0725 21:13:50.910311 70546 net.cpp:157] Top shape: 16 1024 14 14 (3211264)
I0725 21:13:50.910320 70546 net.cpp:165] Memory required for data: 3336503488
I0725 21:13:50.910338 70546 layer_factory.hpp:77] Creating layer bn4e_branch2c
I0725 21:13:50.910365 70546 net.cpp:100] Creating Layer bn4e_branch2c
I0725 21:13:50.910379 70546 net.cpp:434] bn4e_branch2c <- res4e_branch2c
I0725 21:13:50.910394 70546 net.cpp:395] bn4e_branch2c -> res4e_branch2c (in-place)
I0725 21:13:50.910786 70546 net.cpp:150] Setting up bn4e_branch2c
I0725 21:13:50.910804 70546 net.cpp:157] Top shape: 16 1024 14 14 (3211264)
I0725 21:13:50.910811 70546 net.cpp:165] Memory required for data: 3349348544
I0725 21:13:50.910830 70546 layer_factory.hpp:77] Creating layer scale4e_branch2c
I0725 21:13:50.910859 70546 net.cpp:100] Creating Layer scale4e_branch2c
I0725 21:13:50.910872 70546 net.cpp:434] scale4e_branch2c <- res4e_branch2c
I0725 21:13:50.910883 70546 net.cpp:395] scale4e_branch2c -> res4e_branch2c (in-place)
I0725 21:13:50.910996 70546 layer_factory.hpp:77] Creating layer scale4e_branch2c
I0725 21:13:50.911212 70546 net.cpp:150] Setting up scale4e_branch2c
I0725 21:13:50.911227 70546 net.cpp:157] Top shape: 16 1024 14 14 (3211264)
I0725 21:13:50.911245 70546 net.cpp:165] Memory required for data: 3362193600
I0725 21:13:50.911274 70546 layer_factory.hpp:77] Creating layer res4e
I0725 21:13:50.911295 70546 net.cpp:100] Creating Layer res4e
I0725 21:13:50.911314 70546 net.cpp:434] res4e <- res4d_res4d_relu_0_split_1
I0725 21:13:50.911324 70546 net.cpp:434] res4e <- res4e_branch2c
I0725 21:13:50.911336 70546 net.cpp:408] res4e -> res4e
I0725 21:13:50.911396 70546 net.cpp:150] Setting up res4e
I0725 21:13:50.911412 70546 net.cpp:157] Top shape: 16 1024 14 14 (3211264)
I0725 21:13:50.911418 70546 net.cpp:165] Memory required for data: 3375038656
I0725 21:13:50.911425 70546 layer_factory.hpp:77] Creating layer res4e_relu
I0725 21:13:50.911464 70546 net.cpp:100] Creating Layer res4e_relu
I0725 21:13:50.911475 70546 net.cpp:434] res4e_relu <- res4e
I0725 21:13:50.911489 70546 net.cpp:395] res4e_relu -> res4e (in-place)
I0725 21:13:50.911756 70546 net.cpp:150] Setting up res4e_relu
I0725 21:13:50.911773 70546 net.cpp:157] Top shape: 16 1024 14 14 (3211264)
I0725 21:13:50.911782 70546 net.cpp:165] Memory required for data: 3387883712
I0725 21:13:50.911788 70546 layer_factory.hpp:77] Creating layer res4e_res4e_relu_0_split
I0725 21:13:50.911800 70546 net.cpp:100] Creating Layer res4e_res4e_relu_0_split
I0725 21:13:50.911809 70546 net.cpp:434] res4e_res4e_relu_0_split <- res4e
I0725 21:13:50.911828 70546 net.cpp:408] res4e_res4e_relu_0_split -> res4e_res4e_relu_0_split_0
I0725 21:13:50.911842 70546 net.cpp:408] res4e_res4e_relu_0_split -> res4e_res4e_relu_0_split_1
I0725 21:13:50.911926 70546 net.cpp:150] Setting up res4e_res4e_relu_0_split
I0725 21:13:50.911938 70546 net.cpp:157] Top shape: 16 1024 14 14 (3211264)
I0725 21:13:50.911947 70546 net.cpp:157] Top shape: 16 1024 14 14 (3211264)
I0725 21:13:50.911954 70546 net.cpp:165] Memory required for data: 3413573824
I0725 21:13:50.911962 70546 layer_factory.hpp:77] Creating layer res4f_branch2a
I0725 21:13:50.911988 70546 net.cpp:100] Creating Layer res4f_branch2a
I0725 21:13:50.911998 70546 net.cpp:434] res4f_branch2a <- res4e_res4e_relu_0_split_0
I0725 21:13:50.912010 70546 net.cpp:408] res4f_branch2a -> res4f_branch2a
I0725 21:13:50.921550 70546 net.cpp:150] Setting up res4f_branch2a
I0725 21:13:50.921620 70546 net.cpp:157] Top shape: 16 256 14 14 (802816)
I0725 21:13:50.921629 70546 net.cpp:165] Memory required for data: 3416785088
I0725 21:13:50.921665 70546 layer_factory.hpp:77] Creating layer bn4f_branch2a
I0725 21:13:50.921691 70546 net.cpp:100] Creating Layer bn4f_branch2a
I0725 21:13:50.921703 70546 net.cpp:434] bn4f_branch2a <- res4f_branch2a
I0725 21:13:50.921718 70546 net.cpp:395] bn4f_branch2a -> res4f_branch2a (in-place)
I0725 21:13:50.922088 70546 net.cpp:150] Setting up bn4f_branch2a
I0725 21:13:50.922106 70546 net.cpp:157] Top shape: 16 256 14 14 (802816)
I0725 21:13:50.922113 70546 net.cpp:165] Memory required for data: 3419996352
I0725 21:13:50.922132 70546 layer_factory.hpp:77] Creating layer scale4f_branch2a
I0725 21:13:50.922168 70546 net.cpp:100] Creating Layer scale4f_branch2a
I0725 21:13:50.922180 70546 net.cpp:434] scale4f_branch2a <- res4f_branch2a
I0725 21:13:50.922193 70546 net.cpp:395] scale4f_branch2a -> res4f_branch2a (in-place)
I0725 21:13:50.922308 70546 layer_factory.hpp:77] Creating layer scale4f_branch2a
I0725 21:13:50.922514 70546 net.cpp:150] Setting up scale4f_branch2a
I0725 21:13:50.922529 70546 net.cpp:157] Top shape: 16 256 14 14 (802816)
I0725 21:13:50.922536 70546 net.cpp:165] Memory required for data: 3423207616
I0725 21:13:50.922551 70546 layer_factory.hpp:77] Creating layer res4f_branch2a_relu
I0725 21:13:50.922579 70546 net.cpp:100] Creating Layer res4f_branch2a_relu
I0725 21:13:50.922590 70546 net.cpp:434] res4f_branch2a_relu <- res4f_branch2a
I0725 21:13:50.922602 70546 net.cpp:395] res4f_branch2a_relu -> res4f_branch2a (in-place)
I0725 21:13:50.923575 70546 net.cpp:150] Setting up res4f_branch2a_relu
I0725 21:13:50.923602 70546 net.cpp:157] Top shape: 16 256 14 14 (802816)
I0725 21:13:50.923610 70546 net.cpp:165] Memory required for data: 3426418880
I0725 21:13:50.923619 70546 layer_factory.hpp:77] Creating layer res4f_branch2b
I0725 21:13:50.923651 70546 net.cpp:100] Creating Layer res4f_branch2b
I0725 21:13:50.923663 70546 net.cpp:434] res4f_branch2b <- res4f_branch2a
I0725 21:13:50.923681 70546 net.cpp:408] res4f_branch2b -> res4f_branch2b
I0725 21:13:50.944587 70546 net.cpp:150] Setting up res4f_branch2b
I0725 21:13:50.944664 70546 net.cpp:157] Top shape: 16 256 14 14 (802816)
I0725 21:13:50.944674 70546 net.cpp:165] Memory required for data: 3429630144
I0725 21:13:50.944695 70546 layer_factory.hpp:77] Creating layer bn4f_branch2b
I0725 21:13:50.944722 70546 net.cpp:100] Creating Layer bn4f_branch2b
I0725 21:13:50.944802 70546 net.cpp:434] bn4f_branch2b <- res4f_branch2b
I0725 21:13:50.944831 70546 net.cpp:395] bn4f_branch2b -> res4f_branch2b (in-place)
I0725 21:13:50.945242 70546 net.cpp:150] Setting up bn4f_branch2b
I0725 21:13:50.945258 70546 net.cpp:157] Top shape: 16 256 14 14 (802816)
I0725 21:13:50.945267 70546 net.cpp:165] Memory required for data: 3432841408
I0725 21:13:50.945286 70546 layer_factory.hpp:77] Creating layer scale4f_branch2b
I0725 21:13:50.945314 70546 net.cpp:100] Creating Layer scale4f_branch2b
I0725 21:13:50.945330 70546 net.cpp:434] scale4f_branch2b <- res4f_branch2b
I0725 21:13:50.945345 70546 net.cpp:395] scale4f_branch2b -> res4f_branch2b (in-place)
I0725 21:13:50.945446 70546 layer_factory.hpp:77] Creating layer scale4f_branch2b
I0725 21:13:50.945658 70546 net.cpp:150] Setting up scale4f_branch2b
I0725 21:13:50.945672 70546 net.cpp:157] Top shape: 16 256 14 14 (802816)
I0725 21:13:50.945680 70546 net.cpp:165] Memory required for data: 3436052672
I0725 21:13:50.945695 70546 layer_factory.hpp:77] Creating layer res4f_branch2b_relu
I0725 21:13:50.945714 70546 net.cpp:100] Creating Layer res4f_branch2b_relu
I0725 21:13:50.945724 70546 net.cpp:434] res4f_branch2b_relu <- res4f_branch2b
I0725 21:13:50.945734 70546 net.cpp:395] res4f_branch2b_relu -> res4f_branch2b (in-place)
I0725 21:13:50.946038 70546 net.cpp:150] Setting up res4f_branch2b_relu
I0725 21:13:50.946058 70546 net.cpp:157] Top shape: 16 256 14 14 (802816)
I0725 21:13:50.946068 70546 net.cpp:165] Memory required for data: 3439263936
I0725 21:13:50.946075 70546 layer_factory.hpp:77] Creating layer res4f_branch2c
I0725 21:13:50.946095 70546 net.cpp:100] Creating Layer res4f_branch2c
I0725 21:13:50.946105 70546 net.cpp:434] res4f_branch2c <- res4f_branch2b
I0725 21:13:50.946122 70546 net.cpp:408] res4f_branch2c -> res4f_branch2c
I0725 21:13:50.956231 70546 net.cpp:150] Setting up res4f_branch2c
I0725 21:13:50.956276 70546 net.cpp:157] Top shape: 16 1024 14 14 (3211264)
I0725 21:13:50.956282 70546 net.cpp:165] Memory required for data: 3452108992
I0725 21:13:50.956295 70546 layer_factory.hpp:77] Creating layer bn4f_branch2c
I0725 21:13:50.956315 70546 net.cpp:100] Creating Layer bn4f_branch2c
I0725 21:13:50.956323 70546 net.cpp:434] bn4f_branch2c <- res4f_branch2c
I0725 21:13:50.956332 70546 net.cpp:395] bn4f_branch2c -> res4f_branch2c (in-place)
I0725 21:13:50.956662 70546 net.cpp:150] Setting up bn4f_branch2c
I0725 21:13:50.956672 70546 net.cpp:157] Top shape: 16 1024 14 14 (3211264)
I0725 21:13:50.956676 70546 net.cpp:165] Memory required for data: 3464954048
I0725 21:13:50.956753 70546 layer_factory.hpp:77] Creating layer scale4f_branch2c
I0725 21:13:50.956768 70546 net.cpp:100] Creating Layer scale4f_branch2c
I0725 21:13:50.956773 70546 net.cpp:434] scale4f_branch2c <- res4f_branch2c
I0725 21:13:50.956778 70546 net.cpp:395] scale4f_branch2c -> res4f_branch2c (in-place)
I0725 21:13:50.956852 70546 layer_factory.hpp:77] Creating layer scale4f_branch2c
I0725 21:13:50.957010 70546 net.cpp:150] Setting up scale4f_branch2c
I0725 21:13:50.957018 70546 net.cpp:157] Top shape: 16 1024 14 14 (3211264)
I0725 21:13:50.957022 70546 net.cpp:165] Memory required for data: 3477799104
I0725 21:13:50.957029 70546 layer_factory.hpp:77] Creating layer res4f
I0725 21:13:50.957039 70546 net.cpp:100] Creating Layer res4f
I0725 21:13:50.957044 70546 net.cpp:434] res4f <- res4e_res4e_relu_0_split_1
I0725 21:13:50.957048 70546 net.cpp:434] res4f <- res4f_branch2c
I0725 21:13:50.957054 70546 net.cpp:408] res4f -> res4f
I0725 21:13:50.957093 70546 net.cpp:150] Setting up res4f
I0725 21:13:50.957099 70546 net.cpp:157] Top shape: 16 1024 14 14 (3211264)
I0725 21:13:50.957103 70546 net.cpp:165] Memory required for data: 3490644160
I0725 21:13:50.957106 70546 layer_factory.hpp:77] Creating layer res4f_relu
I0725 21:13:50.957116 70546 net.cpp:100] Creating Layer res4f_relu
I0725 21:13:50.957119 70546 net.cpp:434] res4f_relu <- res4f
I0725 21:13:50.957123 70546 net.cpp:395] res4f_relu -> res4f (in-place)
I0725 21:13:50.957304 70546 net.cpp:150] Setting up res4f_relu
I0725 21:13:50.957345 70546 net.cpp:157] Top shape: 16 1024 14 14 (3211264)
I0725 21:13:50.957350 70546 net.cpp:165] Memory required for data: 3503489216
I0725 21:13:50.957352 70546 layer_factory.hpp:77] Creating layer res4f_res4f_relu_0_split
I0725 21:13:50.957360 70546 net.cpp:100] Creating Layer res4f_res4f_relu_0_split
I0725 21:13:50.957363 70546 net.cpp:434] res4f_res4f_relu_0_split <- res4f
I0725 21:13:50.957367 70546 net.cpp:408] res4f_res4f_relu_0_split -> res4f_res4f_relu_0_split_0
I0725 21:13:50.957373 70546 net.cpp:408] res4f_res4f_relu_0_split -> res4f_res4f_relu_0_split_1
I0725 21:13:50.957430 70546 net.cpp:150] Setting up res4f_res4f_relu_0_split
I0725 21:13:50.957438 70546 net.cpp:157] Top shape: 16 1024 14 14 (3211264)
I0725 21:13:50.957442 70546 net.cpp:157] Top shape: 16 1024 14 14 (3211264)
I0725 21:13:50.957444 70546 net.cpp:165] Memory required for data: 3529179328
I0725 21:13:50.957448 70546 layer_factory.hpp:77] Creating layer res5a_branch1
I0725 21:13:50.957463 70546 net.cpp:100] Creating Layer res5a_branch1
I0725 21:13:50.957478 70546 net.cpp:434] res5a_branch1 <- res4f_res4f_relu_0_split_0
I0725 21:13:50.957489 70546 net.cpp:408] res5a_branch1 -> res5a_branch1
I0725 21:13:51.012413 70546 net.cpp:150] Setting up res5a_branch1
I0725 21:13:51.012461 70546 net.cpp:157] Top shape: 16 2048 7 7 (1605632)
I0725 21:13:51.012466 70546 net.cpp:165] Memory required for data: 3535601856
I0725 21:13:51.012477 70546 layer_factory.hpp:77] Creating layer bn5a_branch1
I0725 21:13:51.012495 70546 net.cpp:100] Creating Layer bn5a_branch1
I0725 21:13:51.012502 70546 net.cpp:434] bn5a_branch1 <- res5a_branch1
I0725 21:13:51.012511 70546 net.cpp:395] bn5a_branch1 -> res5a_branch1 (in-place)
I0725 21:13:51.012879 70546 net.cpp:150] Setting up bn5a_branch1
I0725 21:13:51.012889 70546 net.cpp:157] Top shape: 16 2048 7 7 (1605632)
I0725 21:13:51.012893 70546 net.cpp:165] Memory required for data: 3542024384
I0725 21:13:51.012902 70546 layer_factory.hpp:77] Creating layer scale5a_branch1
I0725 21:13:51.012912 70546 net.cpp:100] Creating Layer scale5a_branch1
I0725 21:13:51.012915 70546 net.cpp:434] scale5a_branch1 <- res5a_branch1
I0725 21:13:51.012920 70546 net.cpp:395] scale5a_branch1 -> res5a_branch1 (in-place)
I0725 21:13:51.012995 70546 layer_factory.hpp:77] Creating layer scale5a_branch1
I0725 21:13:51.013164 70546 net.cpp:150] Setting up scale5a_branch1
I0725 21:13:51.013172 70546 net.cpp:157] Top shape: 16 2048 7 7 (1605632)
I0725 21:13:51.013176 70546 net.cpp:165] Memory required for data: 3548446912
I0725 21:13:51.013183 70546 layer_factory.hpp:77] Creating layer res5a_branch2a
I0725 21:13:51.013197 70546 net.cpp:100] Creating Layer res5a_branch2a
I0725 21:13:51.013201 70546 net.cpp:434] res5a_branch2a <- res4f_res4f_relu_0_split_1
I0725 21:13:51.013208 70546 net.cpp:408] res5a_branch2a -> res5a_branch2a
I0725 21:13:51.028764 70546 net.cpp:150] Setting up res5a_branch2a
I0725 21:13:51.028813 70546 net.cpp:157] Top shape: 16 512 7 7 (401408)
I0725 21:13:51.028818 70546 net.cpp:165] Memory required for data: 3550052544
I0725 21:13:51.028833 70546 layer_factory.hpp:77] Creating layer bn5a_branch2a
I0725 21:13:51.028853 70546 net.cpp:100] Creating Layer bn5a_branch2a
I0725 21:13:51.028863 70546 net.cpp:434] bn5a_branch2a <- res5a_branch2a
I0725 21:13:51.028872 70546 net.cpp:395] bn5a_branch2a -> res5a_branch2a (in-place)
I0725 21:13:51.029186 70546 net.cpp:150] Setting up bn5a_branch2a
I0725 21:13:51.029194 70546 net.cpp:157] Top shape: 16 512 7 7 (401408)
I0725 21:13:51.029197 70546 net.cpp:165] Memory required for data: 3551658176
I0725 21:13:51.029206 70546 layer_factory.hpp:77] Creating layer scale5a_branch2a
I0725 21:13:51.029217 70546 net.cpp:100] Creating Layer scale5a_branch2a
I0725 21:13:51.029222 70546 net.cpp:434] scale5a_branch2a <- res5a_branch2a
I0725 21:13:51.029225 70546 net.cpp:395] scale5a_branch2a -> res5a_branch2a (in-place)
I0725 21:13:51.029295 70546 layer_factory.hpp:77] Creating layer scale5a_branch2a
I0725 21:13:51.029460 70546 net.cpp:150] Setting up scale5a_branch2a
I0725 21:13:51.029469 70546 net.cpp:157] Top shape: 16 512 7 7 (401408)
I0725 21:13:51.029497 70546 net.cpp:165] Memory required for data: 3553263808
I0725 21:13:51.029505 70546 layer_factory.hpp:77] Creating layer res5a_branch2a_relu
I0725 21:13:51.029515 70546 net.cpp:100] Creating Layer res5a_branch2a_relu
I0725 21:13:51.029518 70546 net.cpp:434] res5a_branch2a_relu <- res5a_branch2a
I0725 21:13:51.029525 70546 net.cpp:395] res5a_branch2a_relu -> res5a_branch2a (in-place)
I0725 21:13:51.029711 70546 net.cpp:150] Setting up res5a_branch2a_relu
I0725 21:13:51.029722 70546 net.cpp:157] Top shape: 16 512 7 7 (401408)
I0725 21:13:51.029726 70546 net.cpp:165] Memory required for data: 3554869440
I0725 21:13:51.029729 70546 layer_factory.hpp:77] Creating layer res5a_branch2b
I0725 21:13:51.029743 70546 net.cpp:100] Creating Layer res5a_branch2b
I0725 21:13:51.029747 70546 net.cpp:434] res5a_branch2b <- res5a_branch2a
I0725 21:13:51.029754 70546 net.cpp:408] res5a_branch2b -> res5a_branch2b
I0725 21:13:51.091426 70546 net.cpp:150] Setting up res5a_branch2b
I0725 21:13:51.091473 70546 net.cpp:157] Top shape: 16 512 7 7 (401408)
I0725 21:13:51.091478 70546 net.cpp:165] Memory required for data: 3556475072
I0725 21:13:51.091495 70546 layer_factory.hpp:77] Creating layer bn5a_branch2b
I0725 21:13:51.091511 70546 net.cpp:100] Creating Layer bn5a_branch2b
I0725 21:13:51.091519 70546 net.cpp:434] bn5a_branch2b <- res5a_branch2b
I0725 21:13:51.091532 70546 net.cpp:395] bn5a_branch2b -> res5a_branch2b (in-place)
I0725 21:13:51.091893 70546 net.cpp:150] Setting up bn5a_branch2b
I0725 21:13:51.091903 70546 net.cpp:157] Top shape: 16 512 7 7 (401408)
I0725 21:13:51.091907 70546 net.cpp:165] Memory required for data: 3558080704
I0725 21:13:51.091914 70546 layer_factory.hpp:77] Creating layer scale5a_branch2b
I0725 21:13:51.091923 70546 net.cpp:100] Creating Layer scale5a_branch2b
I0725 21:13:51.091928 70546 net.cpp:434] scale5a_branch2b <- res5a_branch2b
I0725 21:13:51.091931 70546 net.cpp:395] scale5a_branch2b -> res5a_branch2b (in-place)
I0725 21:13:51.092005 70546 layer_factory.hpp:77] Creating layer scale5a_branch2b
I0725 21:13:51.092180 70546 net.cpp:150] Setting up scale5a_branch2b
I0725 21:13:51.092190 70546 net.cpp:157] Top shape: 16 512 7 7 (401408)
I0725 21:13:51.092192 70546 net.cpp:165] Memory required for data: 3559686336
I0725 21:13:51.092200 70546 layer_factory.hpp:77] Creating layer res5a_branch2b_relu
I0725 21:13:51.092209 70546 net.cpp:100] Creating Layer res5a_branch2b_relu
I0725 21:13:51.092213 70546 net.cpp:434] res5a_branch2b_relu <- res5a_branch2b
I0725 21:13:51.092219 70546 net.cpp:395] res5a_branch2b_relu -> res5a_branch2b (in-place)
I0725 21:13:51.092402 70546 net.cpp:150] Setting up res5a_branch2b_relu
I0725 21:13:51.092413 70546 net.cpp:157] Top shape: 16 512 7 7 (401408)
I0725 21:13:51.092417 70546 net.cpp:165] Memory required for data: 3561291968
I0725 21:13:51.092420 70546 layer_factory.hpp:77] Creating layer res5a_branch2c
I0725 21:13:51.092434 70546 net.cpp:100] Creating Layer res5a_branch2c
I0725 21:13:51.092438 70546 net.cpp:434] res5a_branch2c <- res5a_branch2b
I0725 21:13:51.092445 70546 net.cpp:408] res5a_branch2c -> res5a_branch2c
I0725 21:13:51.121220 70546 net.cpp:150] Setting up res5a_branch2c
I0725 21:13:51.121268 70546 net.cpp:157] Top shape: 16 2048 7 7 (1605632)
I0725 21:13:51.121273 70546 net.cpp:165] Memory required for data: 3567714496
I0725 21:13:51.121285 70546 layer_factory.hpp:77] Creating layer bn5a_branch2c
I0725 21:13:51.121304 70546 net.cpp:100] Creating Layer bn5a_branch2c
I0725 21:13:51.121314 70546 net.cpp:434] bn5a_branch2c <- res5a_branch2c
I0725 21:13:51.121322 70546 net.cpp:395] bn5a_branch2c -> res5a_branch2c (in-place)
I0725 21:13:51.121662 70546 net.cpp:150] Setting up bn5a_branch2c
I0725 21:13:51.121670 70546 net.cpp:157] Top shape: 16 2048 7 7 (1605632)
I0725 21:13:51.121672 70546 net.cpp:165] Memory required for data: 3574137024
I0725 21:13:51.121680 70546 layer_factory.hpp:77] Creating layer scale5a_branch2c
I0725 21:13:51.121690 70546 net.cpp:100] Creating Layer scale5a_branch2c
I0725 21:13:51.121695 70546 net.cpp:434] scale5a_branch2c <- res5a_branch2c
I0725 21:13:51.121721 70546 net.cpp:395] scale5a_branch2c -> res5a_branch2c (in-place)
I0725 21:13:51.121796 70546 layer_factory.hpp:77] Creating layer scale5a_branch2c
I0725 21:13:51.121975 70546 net.cpp:150] Setting up scale5a_branch2c
I0725 21:13:51.121982 70546 net.cpp:157] Top shape: 16 2048 7 7 (1605632)
I0725 21:13:51.121985 70546 net.cpp:165] Memory required for data: 3580559552
I0725 21:13:51.121992 70546 layer_factory.hpp:77] Creating layer res5a
I0725 21:13:51.122004 70546 net.cpp:100] Creating Layer res5a
I0725 21:13:51.122009 70546 net.cpp:434] res5a <- res5a_branch1
I0725 21:13:51.122012 70546 net.cpp:434] res5a <- res5a_branch2c
I0725 21:13:51.122016 70546 net.cpp:408] res5a -> res5a
I0725 21:13:51.122061 70546 net.cpp:150] Setting up res5a
I0725 21:13:51.122067 70546 net.cpp:157] Top shape: 16 2048 7 7 (1605632)
I0725 21:13:51.122069 70546 net.cpp:165] Memory required for data: 3586982080
I0725 21:13:51.122072 70546 layer_factory.hpp:77] Creating layer res5a_relu
I0725 21:13:51.122079 70546 net.cpp:100] Creating Layer res5a_relu
I0725 21:13:51.122083 70546 net.cpp:434] res5a_relu <- res5a
I0725 21:13:51.122088 70546 net.cpp:395] res5a_relu -> res5a (in-place)
I0725 21:13:51.122264 70546 net.cpp:150] Setting up res5a_relu
I0725 21:13:51.122272 70546 net.cpp:157] Top shape: 16 2048 7 7 (1605632)
I0725 21:13:51.122275 70546 net.cpp:165] Memory required for data: 3593404608
I0725 21:13:51.122278 70546 layer_factory.hpp:77] Creating layer res5a_res5a_relu_0_split
I0725 21:13:51.122284 70546 net.cpp:100] Creating Layer res5a_res5a_relu_0_split
I0725 21:13:51.122288 70546 net.cpp:434] res5a_res5a_relu_0_split <- res5a
I0725 21:13:51.122295 70546 net.cpp:408] res5a_res5a_relu_0_split -> res5a_res5a_relu_0_split_0
I0725 21:13:51.122300 70546 net.cpp:408] res5a_res5a_relu_0_split -> res5a_res5a_relu_0_split_1
I0725 21:13:51.122357 70546 net.cpp:150] Setting up res5a_res5a_relu_0_split
I0725 21:13:51.122364 70546 net.cpp:157] Top shape: 16 2048 7 7 (1605632)
I0725 21:13:51.122366 70546 net.cpp:157] Top shape: 16 2048 7 7 (1605632)
I0725 21:13:51.122370 70546 net.cpp:165] Memory required for data: 3606249664
I0725 21:13:51.122373 70546 layer_factory.hpp:77] Creating layer res5b_branch2a
I0725 21:13:51.122388 70546 net.cpp:100] Creating Layer res5b_branch2a
I0725 21:13:51.122392 70546 net.cpp:434] res5b_branch2a <- res5a_res5a_relu_0_split_0
I0725 21:13:51.122397 70546 net.cpp:408] res5b_branch2a -> res5b_branch2a
I0725 21:13:51.151059 70546 net.cpp:150] Setting up res5b_branch2a
I0725 21:13:51.151104 70546 net.cpp:157] Top shape: 16 512 7 7 (401408)
I0725 21:13:51.151109 70546 net.cpp:165] Memory required for data: 3607855296
I0725 21:13:51.151123 70546 layer_factory.hpp:77] Creating layer bn5b_branch2a
I0725 21:13:51.151144 70546 net.cpp:100] Creating Layer bn5b_branch2a
I0725 21:13:51.151150 70546 net.cpp:434] bn5b_branch2a <- res5b_branch2a
I0725 21:13:51.151160 70546 net.cpp:395] bn5b_branch2a -> res5b_branch2a (in-place)
I0725 21:13:51.151545 70546 net.cpp:150] Setting up bn5b_branch2a
I0725 21:13:51.151556 70546 net.cpp:157] Top shape: 16 512 7 7 (401408)
I0725 21:13:51.151558 70546 net.cpp:165] Memory required for data: 3609460928
I0725 21:13:51.151567 70546 layer_factory.hpp:77] Creating layer scale5b_branch2a
I0725 21:13:51.151577 70546 net.cpp:100] Creating Layer scale5b_branch2a
I0725 21:13:51.151602 70546 net.cpp:434] scale5b_branch2a <- res5b_branch2a
I0725 21:13:51.151628 70546 net.cpp:395] scale5b_branch2a -> res5b_branch2a (in-place)
I0725 21:13:51.151711 70546 layer_factory.hpp:77] Creating layer scale5b_branch2a
I0725 21:13:51.151885 70546 net.cpp:150] Setting up scale5b_branch2a
I0725 21:13:51.151892 70546 net.cpp:157] Top shape: 16 512 7 7 (401408)
I0725 21:13:51.151895 70546 net.cpp:165] Memory required for data: 3611066560
I0725 21:13:51.151903 70546 layer_factory.hpp:77] Creating layer res5b_branch2a_relu
I0725 21:13:51.151912 70546 net.cpp:100] Creating Layer res5b_branch2a_relu
I0725 21:13:51.151916 70546 net.cpp:434] res5b_branch2a_relu <- res5b_branch2a
I0725 21:13:51.151948 70546 net.cpp:395] res5b_branch2a_relu -> res5b_branch2a (in-place)
I0725 21:13:51.152482 70546 net.cpp:150] Setting up res5b_branch2a_relu
I0725 21:13:51.152496 70546 net.cpp:157] Top shape: 16 512 7 7 (401408)
I0725 21:13:51.152500 70546 net.cpp:165] Memory required for data: 3612672192
I0725 21:13:51.152506 70546 layer_factory.hpp:77] Creating layer res5b_branch2b
I0725 21:13:51.152521 70546 net.cpp:100] Creating Layer res5b_branch2b
I0725 21:13:51.152529 70546 net.cpp:434] res5b_branch2b <- res5b_branch2a
I0725 21:13:51.152534 70546 net.cpp:408] res5b_branch2b -> res5b_branch2b
I0725 21:13:51.213402 70546 net.cpp:150] Setting up res5b_branch2b
I0725 21:13:51.213460 70546 net.cpp:157] Top shape: 16 512 7 7 (401408)
I0725 21:13:51.213469 70546 net.cpp:165] Memory required for data: 3614277824
I0725 21:13:51.213482 70546 layer_factory.hpp:77] Creating layer bn5b_branch2b
I0725 21:13:51.213500 70546 net.cpp:100] Creating Layer bn5b_branch2b
I0725 21:13:51.213507 70546 net.cpp:434] bn5b_branch2b <- res5b_branch2b
I0725 21:13:51.213515 70546 net.cpp:395] bn5b_branch2b -> res5b_branch2b (in-place)
I0725 21:13:51.213855 70546 net.cpp:150] Setting up bn5b_branch2b
I0725 21:13:51.213865 70546 net.cpp:157] Top shape: 16 512 7 7 (401408)
I0725 21:13:51.213867 70546 net.cpp:165] Memory required for data: 3615883456
I0725 21:13:51.213876 70546 layer_factory.hpp:77] Creating layer scale5b_branch2b
I0725 21:13:51.213893 70546 net.cpp:100] Creating Layer scale5b_branch2b
I0725 21:13:51.213901 70546 net.cpp:434] scale5b_branch2b <- res5b_branch2b
I0725 21:13:51.213907 70546 net.cpp:395] scale5b_branch2b -> res5b_branch2b (in-place)
I0725 21:13:51.213977 70546 layer_factory.hpp:77] Creating layer scale5b_branch2b
I0725 21:13:51.214148 70546 net.cpp:150] Setting up scale5b_branch2b
I0725 21:13:51.214156 70546 net.cpp:157] Top shape: 16 512 7 7 (401408)
I0725 21:13:51.214159 70546 net.cpp:165] Memory required for data: 3617489088
I0725 21:13:51.214169 70546 layer_factory.hpp:77] Creating layer res5b_branch2b_relu
I0725 21:13:51.214179 70546 net.cpp:100] Creating Layer res5b_branch2b_relu
I0725 21:13:51.214185 70546 net.cpp:434] res5b_branch2b_relu <- res5b_branch2b
I0725 21:13:51.214190 70546 net.cpp:395] res5b_branch2b_relu -> res5b_branch2b (in-place)
I0725 21:13:51.215117 70546 net.cpp:150] Setting up res5b_branch2b_relu
I0725 21:13:51.215132 70546 net.cpp:157] Top shape: 16 512 7 7 (401408)
I0725 21:13:51.215137 70546 net.cpp:165] Memory required for data: 3619094720
I0725 21:13:51.215142 70546 layer_factory.hpp:77] Creating layer res5b_branch2c
I0725 21:13:51.215157 70546 net.cpp:100] Creating Layer res5b_branch2c
I0725 21:13:51.215163 70546 net.cpp:434] res5b_branch2c <- res5b_branch2b
I0725 21:13:51.215169 70546 net.cpp:408] res5b_branch2c -> res5b_branch2c
I0725 21:13:51.244055 70546 net.cpp:150] Setting up res5b_branch2c
I0725 21:13:51.244103 70546 net.cpp:157] Top shape: 16 2048 7 7 (1605632)
I0725 21:13:51.244112 70546 net.cpp:165] Memory required for data: 3625517248
I0725 21:13:51.244125 70546 layer_factory.hpp:77] Creating layer bn5b_branch2c
I0725 21:13:51.244141 70546 net.cpp:100] Creating Layer bn5b_branch2c
I0725 21:13:51.244148 70546 net.cpp:434] bn5b_branch2c <- res5b_branch2c
I0725 21:13:51.244156 70546 net.cpp:395] bn5b_branch2c -> res5b_branch2c (in-place)
I0725 21:13:51.244503 70546 net.cpp:150] Setting up bn5b_branch2c
I0725 21:13:51.244513 70546 net.cpp:157] Top shape: 16 2048 7 7 (1605632)
I0725 21:13:51.244518 70546 net.cpp:165] Memory required for data: 3631939776
I0725 21:13:51.244525 70546 layer_factory.hpp:77] Creating layer scale5b_branch2c
I0725 21:13:51.244535 70546 net.cpp:100] Creating Layer scale5b_branch2c
I0725 21:13:51.244541 70546 net.cpp:434] scale5b_branch2c <- res5b_branch2c
I0725 21:13:51.244545 70546 net.cpp:395] scale5b_branch2c -> res5b_branch2c (in-place)
I0725 21:13:51.244621 70546 layer_factory.hpp:77] Creating layer scale5b_branch2c
I0725 21:13:51.244801 70546 net.cpp:150] Setting up scale5b_branch2c
I0725 21:13:51.244810 70546 net.cpp:157] Top shape: 16 2048 7 7 (1605632)
I0725 21:13:51.244841 70546 net.cpp:165] Memory required for data: 3638362304
I0725 21:13:51.244849 70546 layer_factory.hpp:77] Creating layer res5b
I0725 21:13:51.244859 70546 net.cpp:100] Creating Layer res5b
I0725 21:13:51.244865 70546 net.cpp:434] res5b <- res5a_res5a_relu_0_split_1
I0725 21:13:51.244869 70546 net.cpp:434] res5b <- res5b_branch2c
I0725 21:13:51.244876 70546 net.cpp:408] res5b -> res5b
I0725 21:13:51.244915 70546 net.cpp:150] Setting up res5b
I0725 21:13:51.244922 70546 net.cpp:157] Top shape: 16 2048 7 7 (1605632)
I0725 21:13:51.244925 70546 net.cpp:165] Memory required for data: 3644784832
I0725 21:13:51.244928 70546 layer_factory.hpp:77] Creating layer res5b_relu
I0725 21:13:51.244938 70546 net.cpp:100] Creating Layer res5b_relu
I0725 21:13:51.244945 70546 net.cpp:434] res5b_relu <- res5b
I0725 21:13:51.244948 70546 net.cpp:395] res5b_relu -> res5b (in-place)
I0725 21:13:51.245131 70546 net.cpp:150] Setting up res5b_relu
I0725 21:13:51.245141 70546 net.cpp:157] Top shape: 16 2048 7 7 (1605632)
I0725 21:13:51.245144 70546 net.cpp:165] Memory required for data: 3651207360
I0725 21:13:51.245148 70546 layer_factory.hpp:77] Creating layer res5b_res5b_relu_0_split
I0725 21:13:51.245157 70546 net.cpp:100] Creating Layer res5b_res5b_relu_0_split
I0725 21:13:51.245162 70546 net.cpp:434] res5b_res5b_relu_0_split <- res5b
I0725 21:13:51.245167 70546 net.cpp:408] res5b_res5b_relu_0_split -> res5b_res5b_relu_0_split_0
I0725 21:13:51.245174 70546 net.cpp:408] res5b_res5b_relu_0_split -> res5b_res5b_relu_0_split_1
I0725 21:13:51.245232 70546 net.cpp:150] Setting up res5b_res5b_relu_0_split
I0725 21:13:51.245240 70546 net.cpp:157] Top shape: 16 2048 7 7 (1605632)
I0725 21:13:51.245244 70546 net.cpp:157] Top shape: 16 2048 7 7 (1605632)
I0725 21:13:51.245246 70546 net.cpp:165] Memory required for data: 3664052416
I0725 21:13:51.245249 70546 layer_factory.hpp:77] Creating layer res5c_branch2a
I0725 21:13:51.245263 70546 net.cpp:100] Creating Layer res5c_branch2a
I0725 21:13:51.245270 70546 net.cpp:434] res5c_branch2a <- res5b_res5b_relu_0_split_0
I0725 21:13:51.245277 70546 net.cpp:408] res5c_branch2a -> res5c_branch2a
I0725 21:13:51.278650 70546 net.cpp:150] Setting up res5c_branch2a
I0725 21:13:51.278728 70546 net.cpp:157] Top shape: 16 512 7 7 (401408)
I0725 21:13:51.278733 70546 net.cpp:165] Memory required for data: 3665658048
I0725 21:13:51.278818 70546 layer_factory.hpp:77] Creating layer bn5c_branch2a
I0725 21:13:51.278843 70546 net.cpp:100] Creating Layer bn5c_branch2a
I0725 21:13:51.278872 70546 net.cpp:434] bn5c_branch2a <- res5c_branch2a
I0725 21:13:51.278893 70546 net.cpp:395] bn5c_branch2a -> res5c_branch2a (in-place)
I0725 21:13:51.279479 70546 net.cpp:150] Setting up bn5c_branch2a
I0725 21:13:51.279489 70546 net.cpp:157] Top shape: 16 512 7 7 (401408)
I0725 21:13:51.279492 70546 net.cpp:165] Memory required for data: 3667263680
I0725 21:13:51.279500 70546 layer_factory.hpp:77] Creating layer scale5c_branch2a
I0725 21:13:51.279532 70546 net.cpp:100] Creating Layer scale5c_branch2a
I0725 21:13:51.279536 70546 net.cpp:434] scale5c_branch2a <- res5c_branch2a
I0725 21:13:51.279559 70546 net.cpp:395] scale5c_branch2a -> res5c_branch2a (in-place)
I0725 21:13:51.279721 70546 layer_factory.hpp:77] Creating layer scale5c_branch2a
I0725 21:13:51.279923 70546 net.cpp:150] Setting up scale5c_branch2a
I0725 21:13:51.279932 70546 net.cpp:157] Top shape: 16 512 7 7 (401408)
I0725 21:13:51.279935 70546 net.cpp:165] Memory required for data: 3668869312
I0725 21:13:51.279942 70546 layer_factory.hpp:77] Creating layer res5c_branch2a_relu
I0725 21:13:51.279953 70546 net.cpp:100] Creating Layer res5c_branch2a_relu
I0725 21:13:51.279958 70546 net.cpp:434] res5c_branch2a_relu <- res5c_branch2a
I0725 21:13:51.279980 70546 net.cpp:395] res5c_branch2a_relu -> res5c_branch2a (in-place)
I0725 21:13:51.280179 70546 net.cpp:150] Setting up res5c_branch2a_relu
I0725 21:13:51.280189 70546 net.cpp:157] Top shape: 16 512 7 7 (401408)
I0725 21:13:51.280192 70546 net.cpp:165] Memory required for data: 3670474944
I0725 21:13:51.280215 70546 layer_factory.hpp:77] Creating layer res5c_branch2b
I0725 21:13:51.280232 70546 net.cpp:100] Creating Layer res5c_branch2b
I0725 21:13:51.280237 70546 net.cpp:434] res5c_branch2b <- res5c_branch2a
I0725 21:13:51.280244 70546 net.cpp:408] res5c_branch2b -> res5c_branch2b
I0725 21:13:51.342582 70546 net.cpp:150] Setting up res5c_branch2b
I0725 21:13:51.342650 70546 net.cpp:157] Top shape: 16 512 7 7 (401408)
I0725 21:13:51.342655 70546 net.cpp:165] Memory required for data: 3672080576
I0725 21:13:51.342666 70546 layer_factory.hpp:77] Creating layer bn5c_branch2b
I0725 21:13:51.342684 70546 net.cpp:100] Creating Layer bn5c_branch2b
I0725 21:13:51.342691 70546 net.cpp:434] bn5c_branch2b <- res5c_branch2b
I0725 21:13:51.342700 70546 net.cpp:395] bn5c_branch2b -> res5c_branch2b (in-place)
I0725 21:13:51.343147 70546 net.cpp:150] Setting up bn5c_branch2b
I0725 21:13:51.343155 70546 net.cpp:157] Top shape: 16 512 7 7 (401408)
I0725 21:13:51.343159 70546 net.cpp:165] Memory required for data: 3673686208
I0725 21:13:51.343184 70546 layer_factory.hpp:77] Creating layer scale5c_branch2b
I0725 21:13:51.343199 70546 net.cpp:100] Creating Layer scale5c_branch2b
I0725 21:13:51.343202 70546 net.cpp:434] scale5c_branch2b <- res5c_branch2b
I0725 21:13:51.343257 70546 net.cpp:395] scale5c_branch2b -> res5c_branch2b (in-place)
I0725 21:13:51.343391 70546 layer_factory.hpp:77] Creating layer scale5c_branch2b
I0725 21:13:51.343595 70546 net.cpp:150] Setting up scale5c_branch2b
I0725 21:13:51.343621 70546 net.cpp:157] Top shape: 16 512 7 7 (401408)
I0725 21:13:51.343626 70546 net.cpp:165] Memory required for data: 3675291840
I0725 21:13:51.343633 70546 layer_factory.hpp:77] Creating layer res5c_branch2b_relu
I0725 21:13:51.343664 70546 net.cpp:100] Creating Layer res5c_branch2b_relu
I0725 21:13:51.343668 70546 net.cpp:434] res5c_branch2b_relu <- res5c_branch2b
I0725 21:13:51.343691 70546 net.cpp:395] res5c_branch2b_relu -> res5c_branch2b (in-place)
I0725 21:13:51.343915 70546 net.cpp:150] Setting up res5c_branch2b_relu
I0725 21:13:51.343926 70546 net.cpp:157] Top shape: 16 512 7 7 (401408)
I0725 21:13:51.343930 70546 net.cpp:165] Memory required for data: 3676897472
I0725 21:13:51.343935 70546 layer_factory.hpp:77] Creating layer res5c_branch2c
I0725 21:13:51.343967 70546 net.cpp:100] Creating Layer res5c_branch2c
I0725 21:13:51.343971 70546 net.cpp:434] res5c_branch2c <- res5c_branch2b
I0725 21:13:51.343981 70546 net.cpp:408] res5c_branch2c -> res5c_branch2c
I0725 21:13:51.373131 70546 net.cpp:150] Setting up res5c_branch2c
I0725 21:13:51.373200 70546 net.cpp:157] Top shape: 16 2048 7 7 (1605632)
I0725 21:13:51.373205 70546 net.cpp:165] Memory required for data: 3683320000
I0725 21:13:51.373222 70546 layer_factory.hpp:77] Creating layer bn5c_branch2c
I0725 21:13:51.373241 70546 net.cpp:100] Creating Layer bn5c_branch2c
I0725 21:13:51.373248 70546 net.cpp:434] bn5c_branch2c <- res5c_branch2c
I0725 21:13:51.373260 70546 net.cpp:395] bn5c_branch2c -> res5c_branch2c (in-place)
I0725 21:13:51.373824 70546 net.cpp:150] Setting up bn5c_branch2c
I0725 21:13:51.373834 70546 net.cpp:157] Top shape: 16 2048 7 7 (1605632)
I0725 21:13:51.373837 70546 net.cpp:165] Memory required for data: 3689742528
I0725 21:13:51.373864 70546 layer_factory.hpp:77] Creating layer scale5c_branch2c
I0725 21:13:51.373878 70546 net.cpp:100] Creating Layer scale5c_branch2c
I0725 21:13:51.373898 70546 net.cpp:434] scale5c_branch2c <- res5c_branch2c
I0725 21:13:51.373903 70546 net.cpp:395] scale5c_branch2c -> res5c_branch2c (in-place)
I0725 21:13:51.374018 70546 layer_factory.hpp:77] Creating layer scale5c_branch2c
I0725 21:13:51.375712 70546 net.cpp:150] Setting up scale5c_branch2c
I0725 21:13:51.375726 70546 net.cpp:157] Top shape: 16 2048 7 7 (1605632)
I0725 21:13:51.375730 70546 net.cpp:165] Memory required for data: 3696165056
I0725 21:13:51.375754 70546 layer_factory.hpp:77] Creating layer res5c
I0725 21:13:51.375766 70546 net.cpp:100] Creating Layer res5c
I0725 21:13:51.375771 70546 net.cpp:434] res5c <- res5b_res5b_relu_0_split_1
I0725 21:13:51.375813 70546 net.cpp:434] res5c <- res5c_branch2c
I0725 21:13:51.375821 70546 net.cpp:408] res5c -> res5c
I0725 21:13:51.375883 70546 net.cpp:150] Setting up res5c
I0725 21:13:51.375891 70546 net.cpp:157] Top shape: 16 2048 7 7 (1605632)
I0725 21:13:51.375895 70546 net.cpp:165] Memory required for data: 3702587584
I0725 21:13:51.375897 70546 layer_factory.hpp:77] Creating layer res5c_relu
I0725 21:13:51.375906 70546 net.cpp:100] Creating Layer res5c_relu
I0725 21:13:51.375917 70546 net.cpp:434] res5c_relu <- res5c
I0725 21:13:51.375921 70546 net.cpp:395] res5c_relu -> res5c (in-place)
I0725 21:13:51.376139 70546 net.cpp:150] Setting up res5c_relu
I0725 21:13:51.376149 70546 net.cpp:157] Top shape: 16 2048 7 7 (1605632)
I0725 21:13:51.376153 70546 net.cpp:165] Memory required for data: 3709010112
I0725 21:13:51.376163 70546 layer_factory.hpp:77] Creating layer pool5
I0725 21:13:51.376181 70546 net.cpp:100] Creating Layer pool5
I0725 21:13:51.376188 70546 net.cpp:434] pool5 <- res5c
I0725 21:13:51.376209 70546 net.cpp:408] pool5 -> pool5
I0725 21:13:51.376895 70546 net.cpp:150] Setting up pool5
I0725 21:13:51.376909 70546 net.cpp:157] Top shape: 16 2048 1 1 (32768)
I0725 21:13:51.376914 70546 net.cpp:165] Memory required for data: 3709141184
I0725 21:13:51.376916 70546 layer_factory.hpp:77] Creating layer fc_cifar10
I0725 21:13:51.376945 70546 net.cpp:100] Creating Layer fc_cifar10
I0725 21:13:51.376950 70546 net.cpp:434] fc_cifar10 <- pool5
I0725 21:13:51.376961 70546 net.cpp:408] fc_cifar10 -> fc_cifar10
I0725 21:13:51.377843 70546 net.cpp:150] Setting up fc_cifar10
I0725 21:13:51.377853 70546 net.cpp:157] Top shape: 16 10 (160)
I0725 21:13:51.377856 70546 net.cpp:165] Memory required for data: 3709141824
I0725 21:13:51.377879 70546 layer_factory.hpp:77] Creating layer fc_cifar10_fc_cifar10_0_split
I0725 21:13:51.377885 70546 net.cpp:100] Creating Layer fc_cifar10_fc_cifar10_0_split
I0725 21:13:51.377889 70546 net.cpp:434] fc_cifar10_fc_cifar10_0_split <- fc_cifar10
I0725 21:13:51.377895 70546 net.cpp:408] fc_cifar10_fc_cifar10_0_split -> fc_cifar10_fc_cifar10_0_split_0
I0725 21:13:51.377925 70546 net.cpp:408] fc_cifar10_fc_cifar10_0_split -> fc_cifar10_fc_cifar10_0_split_1
I0725 21:13:51.377979 70546 net.cpp:150] Setting up fc_cifar10_fc_cifar10_0_split
I0725 21:13:51.377988 70546 net.cpp:157] Top shape: 16 10 (160)
I0725 21:13:51.377992 70546 net.cpp:157] Top shape: 16 10 (160)
I0725 21:13:51.377995 70546 net.cpp:165] Memory required for data: 3709143104
I0725 21:13:51.378016 70546 layer_factory.hpp:77] Creating layer loss
I0725 21:13:51.378032 70546 net.cpp:100] Creating Layer loss
I0725 21:13:51.378037 70546 net.cpp:434] loss <- fc_cifar10_fc_cifar10_0_split_0
I0725 21:13:51.378041 70546 net.cpp:434] loss <- label_data_1_split_0
I0725 21:13:51.378051 70546 net.cpp:408] loss -> loss
…
